node {
  name: "input"
  op: "Placeholder"
  attr {
    key: "dtype"
    value {
      type: DT_FLOAT
    }
  }
  attr {
    key: "shape"
    value {
      shape {
        dim {
          size: -1
        }
        dim {
          size: 299
        }
        dim {
          size: 299
        }
        dim {
          size: 3
        }
      }
    }
  }
}
node {
  name: "InceptionResnetV2/Conv2d_1a_3x3/weights/Initializer/random_uniform/shape"
  op: "Const"
  attr {
    key: "_class"
    value {
      list {
        s: "loc:@InceptionResnetV2/Conv2d_1a_3x3/weights"
      }
    }
  }
  attr {
    key: "dtype"
    value {
      type: DT_INT32
    }
  }
  attr {
    key: "value"
    value {
      tensor {
        dtype: DT_INT32
        tensor_shape {
          dim {
            size: 4
          }
        }
        tensor_content: "\003\000\000\000\003\000\000\000\003\000\000\000 \000\000\000"
      }
    }
  }
}
node {
  name: "InceptionResnetV2/Conv2d_1a_3x3/weights/Initializer/random_uniform/min"
  op: "Const"
  attr {
    key: "_class"
    value {
      list {
        s: "loc:@InceptionResnetV2/Conv2d_1a_3x3/weights"
      }
    }
  }
  attr {
    key: "dtype"
    value {
      type: DT_FLOAT
    }
  }
  attr {
    key: "value"
    value {
      tensor {
        dtype: DT_FLOAT
        tensor_shape {
        }
        float_val: -0.1380131095647812
      }
    }
  }
}
node {
  name: "InceptionResnetV2/Conv2d_1a_3x3/weights/Initializer/random_uniform/max"
  op: "Const"
  attr {
    key: "_class"
    value {
      list {
        s: "loc:@InceptionResnetV2/Conv2d_1a_3x3/weights"
      }
    }
  }
  attr {
    key: "dtype"
    value {
      type: DT_FLOAT
    }
  }
  attr {
    key: "value"
    value {
      tensor {
        dtype: DT_FLOAT
        tensor_shape {
        }
        float_val: 0.1380131095647812
      }
    }
  }
}
node {
  name: "InceptionResnetV2/Conv2d_1a_3x3/weights/Initializer/random_uniform/RandomUniform"
  op: "RandomUniform"
  input: "InceptionResnetV2/Conv2d_1a_3x3/weights/Initializer/random_uniform/shape"
  attr {
    key: "T"
    value {
      type: DT_INT32
    }
  }
  attr {
    key: "_class"
    value {
      list {
        s: "loc:@InceptionResnetV2/Conv2d_1a_3x3/weights"
      }
    }
  }
  attr {
    key: "dtype"
    value {
      type: DT_FLOAT
    }
  }
  attr {
    key: "seed"
    value {
      i: 0
    }
  }
  attr {
    key: "seed2"
    value {
      i: 0
    }
  }
}
node {
  name: "InceptionResnetV2/Conv2d_1a_3x3/weights/Initializer/random_uniform/sub"
  op: "Sub"
  input: "InceptionResnetV2/Conv2d_1a_3x3/weights/Initializer/random_uniform/max"
  input: "InceptionResnetV2/Conv2d_1a_3x3/weights/Initializer/random_uniform/min"
  attr {
    key: "T"
    value {
      type: DT_FLOAT
    }
  }
  attr {
    key: "_class"
    value {
      list {
        s: "loc:@InceptionResnetV2/Conv2d_1a_3x3/weights"
      }
    }
  }
}
node {
  name: "InceptionResnetV2/Conv2d_1a_3x3/weights/Initializer/random_uniform/mul"
  op: "Mul"
  input: "InceptionResnetV2/Conv2d_1a_3x3/weights/Initializer/random_uniform/RandomUniform"
  input: "InceptionResnetV2/Conv2d_1a_3x3/weights/Initializer/random_uniform/sub"
  attr {
    key: "T"
    value {
      type: DT_FLOAT
    }
  }
  attr {
    key: "_class"
    value {
      list {
        s: "loc:@InceptionResnetV2/Conv2d_1a_3x3/weights"
      }
    }
  }
}
node {
  name: "InceptionResnetV2/Conv2d_1a_3x3/weights/Initializer/random_uniform"
  op: "Add"
  input: "InceptionResnetV2/Conv2d_1a_3x3/weights/Initializer/random_uniform/mul"
  input: "InceptionResnetV2/Conv2d_1a_3x3/weights/Initializer/random_uniform/min"
  attr {
    key: "T"
    value {
      type: DT_FLOAT
    }
  }
  attr {
    key: "_class"
    value {
      list {
        s: "loc:@InceptionResnetV2/Conv2d_1a_3x3/weights"
      }
    }
  }
}
node {
  name: "InceptionResnetV2/Conv2d_1a_3x3/weights"
  op: "VariableV2"
  attr {
    key: "_class"
    value {
      list {
        s: "loc:@InceptionResnetV2/Conv2d_1a_3x3/weights"
      }
    }
  }
  attr {
    key: "container"
    value {
      s: ""
    }
  }
  attr {
    key: "dtype"
    value {
      type: DT_FLOAT
    }
  }
  attr {
    key: "shape"
    value {
      shape {
        dim {
          size: 3
        }
        dim {
          size: 3
        }
        dim {
          size: 3
        }
        dim {
          size: 32
        }
      }
    }
  }
  attr {
    key: "shared_name"
    value {
      s: ""
    }
  }
}
node {
  name: "InceptionResnetV2/Conv2d_1a_3x3/weights/Assign"
  op: "Assign"
  input: "InceptionResnetV2/Conv2d_1a_3x3/weights"
  input: "InceptionResnetV2/Conv2d_1a_3x3/weights/Initializer/random_uniform"
  attr {
    key: "T"
    value {
      type: DT_FLOAT
    }
  }
  attr {
    key: "_class"
    value {
      list {
        s: "loc:@InceptionResnetV2/Conv2d_1a_3x3/weights"
      }
    }
  }
  attr {
    key: "use_locking"
    value {
      b: true
    }
  }
  attr {
    key: "validate_shape"
    value {
      b: true
    }
  }
}
node {
  name: "InceptionResnetV2/Conv2d_1a_3x3/weights/read"
  op: "Identity"
  input: "InceptionResnetV2/Conv2d_1a_3x3/weights"
  attr {
    key: "T"
    value {
      type: DT_FLOAT
    }
  }
  attr {
    key: "_class"
    value {
      list {
        s: "loc:@InceptionResnetV2/Conv2d_1a_3x3/weights"
      }
    }
  }
}
node {
  name: "InceptionResnetV2/InceptionResnetV2/Conv2d_1a_3x3/dilation_rate"
  op: "Const"
  attr {
    key: "dtype"
    value {
      type: DT_INT32
    }
  }
  attr {
    key: "value"
    value {
      tensor {
        dtype: DT_INT32
        tensor_shape {
          dim {
            size: 2
          }
        }
        tensor_content: "\001\000\000\000\001\000\000\000"
      }
    }
  }
}
node {
  name: "InceptionResnetV2/InceptionResnetV2/Conv2d_1a_3x3/Conv2D"
  op: "Conv2D"
  input: "input"
  input: "InceptionResnetV2/Conv2d_1a_3x3/weights/read"
  attr {
    key: "T"
    value {
      type: DT_FLOAT
    }
  }
  attr {
    key: "data_format"
    value {
      s: "NHWC"
    }
  }
  attr {
    key: "dilations"
    value {
      list {
        i: 1
        i: 1
        i: 1
        i: 1
      }
    }
  }
  attr {
    key: "padding"
    value {
      s: "VALID"
    }
  }
  attr {
    key: "strides"
    value {
      list {
        i: 1
        i: 2
        i: 2
        i: 1
      }
    }
  }
  attr {
    key: "use_cudnn_on_gpu"
    value {
      b: true
    }
  }
}
node {
  name: "InceptionResnetV2/InceptionResnetV2/Conv2d_1a_3x3/BatchNorm/Const"
  op: "Const"
  attr {
    key: "dtype"
    value {
      type: DT_FLOAT
    }
  }
  attr {
    key: "value"
    value {
      tensor {
        dtype: DT_FLOAT
        tensor_shape {
          dim {
            size: 32
          }
        }
        float_val: 1.0
      }
    }
  }
}
node {
  name: "InceptionResnetV2/Conv2d_1a_3x3/BatchNorm/beta/Initializer/zeros"
  op: "Const"
  attr {
    key: "_class"
    value {
      list {
        s: "loc:@InceptionResnetV2/Conv2d_1a_3x3/BatchNorm/beta"
      }
    }
  }
  attr {
    key: "dtype"
    value {
      type: DT_FLOAT
    }
  }
  attr {
    key: "value"
    value {
      tensor {
        dtype: DT_FLOAT
        tensor_shape {
          dim {
            size: 32
          }
        }
        float_val: 0.0
      }
    }
  }
}
node {
  name: "InceptionResnetV2/Conv2d_1a_3x3/BatchNorm/beta"
  op: "VariableV2"
  attr {
    key: "_class"
    value {
      list {
        s: "loc:@InceptionResnetV2/Conv2d_1a_3x3/BatchNorm/beta"
      }
    }
  }
  attr {
    key: "container"
    value {
      s: ""
    }
  }
  attr {
    key: "dtype"
    value {
      type: DT_FLOAT
    }
  }
  attr {
    key: "shape"
    value {
      shape {
        dim {
          size: 32
        }
      }
    }
  }
  attr {
    key: "shared_name"
    value {
      s: ""
    }
  }
}
node {
  name: "InceptionResnetV2/Conv2d_1a_3x3/BatchNorm/beta/Assign"
  op: "Assign"
  input: "InceptionResnetV2/Conv2d_1a_3x3/BatchNorm/beta"
  input: "InceptionResnetV2/Conv2d_1a_3x3/BatchNorm/beta/Initializer/zeros"
  attr {
    key: "T"
    value {
      type: DT_FLOAT
    }
  }
  attr {
    key: "_class"
    value {
      list {
        s: "loc:@InceptionResnetV2/Conv2d_1a_3x3/BatchNorm/beta"
      }
    }
  }
  attr {
    key: "use_locking"
    value {
      b: true
    }
  }
  attr {
    key: "validate_shape"
    value {
      b: true
    }
  }
}
node {
  name: "InceptionResnetV2/Conv2d_1a_3x3/BatchNorm/beta/read"
  op: "Identity"
  input: "InceptionResnetV2/Conv2d_1a_3x3/BatchNorm/beta"
  attr {
    key: "T"
    value {
      type: DT_FLOAT
    }
  }
  attr {
    key: "_class"
    value {
      list {
        s: "loc:@InceptionResnetV2/Conv2d_1a_3x3/BatchNorm/beta"
      }
    }
  }
}
node {
  name: "InceptionResnetV2/Conv2d_1a_3x3/BatchNorm/moving_mean/Initializer/zeros"
  op: "Const"
  attr {
    key: "_class"
    value {
      list {
        s: "loc:@InceptionResnetV2/Conv2d_1a_3x3/BatchNorm/moving_mean"
      }
    }
  }
  attr {
    key: "dtype"
    value {
      type: DT_FLOAT
    }
  }
  attr {
    key: "value"
    value {
      tensor {
        dtype: DT_FLOAT
        tensor_shape {
          dim {
            size: 32
          }
        }
        float_val: 0.0
      }
    }
  }
}
node {
  name: "InceptionResnetV2/Conv2d_1a_3x3/BatchNorm/moving_mean"
  op: "VariableV2"
  attr {
    key: "_class"
    value {
      list {
        s: "loc:@InceptionResnetV2/Conv2d_1a_3x3/BatchNorm/moving_mean"
      }
    }
  }
  attr {
    key: "container"
    value {
      s: ""
    }
  }
  attr {
    key: "dtype"
    value {
      type: DT_FLOAT
    }
  }
  attr {
    key: "shape"
    value {
      shape {
        dim {
          size: 32
        }
      }
    }
  }
  attr {
    key: "shared_name"
    value {
      s: ""
    }
  }
}
node {
  name: "InceptionResnetV2/Conv2d_1a_3x3/BatchNorm/moving_mean/Assign"
  op: "Assign"
  input: "InceptionResnetV2/Conv2d_1a_3x3/BatchNorm/moving_mean"
  input: "InceptionResnetV2/Conv2d_1a_3x3/BatchNorm/moving_mean/Initializer/zeros"
  attr {
    key: "T"
    value {
      type: DT_FLOAT
    }
  }
  attr {
    key: "_class"
    value {
      list {
        s: "loc:@InceptionResnetV2/Conv2d_1a_3x3/BatchNorm/moving_mean"
      }
    }
  }
  attr {
    key: "use_locking"
    value {
      b: true
    }
  }
  attr {
    key: "validate_shape"
    value {
      b: true
    }
  }
}
node {
  name: "InceptionResnetV2/Conv2d_1a_3x3/BatchNorm/moving_mean/read"
  op: "Identity"
  input: "InceptionResnetV2/Conv2d_1a_3x3/BatchNorm/moving_mean"
  attr {
    key: "T"
    value {
      type: DT_FLOAT
    }
  }
  attr {
    key: "_class"
    value {
      list {
        s: "loc:@InceptionResnetV2/Conv2d_1a_3x3/BatchNorm/moving_mean"
      }
    }
  }
}
node {
  name: "InceptionResnetV2/Conv2d_1a_3x3/BatchNorm/moving_variance/Initializer/ones"
  op: "Const"
  attr {
    key: "_class"
    value {
      list {
        s: "loc:@InceptionResnetV2/Conv2d_1a_3x3/BatchNorm/moving_variance"
      }
    }
  }
  attr {
    key: "dtype"
    value {
      type: DT_FLOAT
    }
  }
  attr {
    key: "value"
    value {
      tensor {
        dtype: DT_FLOAT
        tensor_shape {
          dim {
            size: 32
          }
        }
        float_val: 1.0
      }
    }
  }
}
node {
  name: "InceptionResnetV2/Conv2d_1a_3x3/BatchNorm/moving_variance"
  op: "VariableV2"
  attr {
    key: "_class"
    value {
      list {
        s: "loc:@InceptionResnetV2/Conv2d_1a_3x3/BatchNorm/moving_variance"
      }
    }
  }
  attr {
    key: "container"
    value {
      s: ""
    }
  }
  attr {
    key: "dtype"
    value {
      type: DT_FLOAT
    }
  }
  attr {
    key: "shape"
    value {
      shape {
        dim {
          size: 32
        }
      }
    }
  }
  attr {
    key: "shared_name"
    value {
      s: ""
    }
  }
}
node {
  name: "InceptionResnetV2/Conv2d_1a_3x3/BatchNorm/moving_variance/Assign"
  op: "Assign"
  input: "InceptionResnetV2/Conv2d_1a_3x3/BatchNorm/moving_variance"
  input: "InceptionResnetV2/Conv2d_1a_3x3/BatchNorm/moving_variance/Initializer/ones"
  attr {
    key: "T"
    value {
      type: DT_FLOAT
    }
  }
  attr {
    key: "_class"
    value {
      list {
        s: "loc:@InceptionResnetV2/Conv2d_1a_3x3/BatchNorm/moving_variance"
      }
    }
  }
  attr {
    key: "use_locking"
    value {
      b: true
    }
  }
  attr {
    key: "validate_shape"
    value {
      b: true
    }
  }
}
node {
  name: "InceptionResnetV2/Conv2d_1a_3x3/BatchNorm/moving_variance/read"
  op: "Identity"
  input: "InceptionResnetV2/Conv2d_1a_3x3/BatchNorm/moving_variance"
  attr {
    key: "T"
    value {
      type: DT_FLOAT
    }
  }
  attr {
    key: "_class"
    value {
      list {
        s: "loc:@InceptionResnetV2/Conv2d_1a_3x3/BatchNorm/moving_variance"
      }
    }
  }
}
node {
  name: "InceptionResnetV2/InceptionResnetV2/Conv2d_1a_3x3/BatchNorm/FusedBatchNorm"
  op: "FusedBatchNorm"
  input: "InceptionResnetV2/InceptionResnetV2/Conv2d_1a_3x3/Conv2D"
  input: "InceptionResnetV2/InceptionResnetV2/Conv2d_1a_3x3/BatchNorm/Const"
  input: "InceptionResnetV2/Conv2d_1a_3x3/BatchNorm/beta/read"
  input: "InceptionResnetV2/Conv2d_1a_3x3/BatchNorm/moving_mean/read"
  input: "InceptionResnetV2/Conv2d_1a_3x3/BatchNorm/moving_variance/read"
  attr {
    key: "T"
    value {
      type: DT_FLOAT
    }
  }
  attr {
    key: "data_format"
    value {
      s: "NHWC"
    }
  }
  attr {
    key: "epsilon"
    value {
      f: 0.0010000000474974513
    }
  }
  attr {
    key: "is_training"
    value {
      b: false
    }
  }
}
node {
  name: "InceptionResnetV2/InceptionResnetV2/Conv2d_1a_3x3/BatchNorm/Const_1"
  op: "Const"
  attr {
    key: "dtype"
    value {
      type: DT_FLOAT
    }
  }
  attr {
    key: "value"
    value {
      tensor {
        dtype: DT_FLOAT
        tensor_shape {
        }
        float_val: 0.9997000098228455
      }
    }
  }
}
node {
  name: "InceptionResnetV2/InceptionResnetV2/Conv2d_1a_3x3/Relu"
  op: "Relu"
  input: "InceptionResnetV2/InceptionResnetV2/Conv2d_1a_3x3/BatchNorm/FusedBatchNorm"
  attr {
    key: "T"
    value {
      type: DT_FLOAT
    }
  }
}
node {
  name: "InceptionResnetV2/Conv2d_2a_3x3/weights/Initializer/random_uniform/shape"
  op: "Const"
  attr {
    key: "_class"
    value {
      list {
        s: "loc:@InceptionResnetV2/Conv2d_2a_3x3/weights"
      }
    }
  }
  attr {
    key: "dtype"
    value {
      type: DT_INT32
    }
  }
  attr {
    key: "value"
    value {
      tensor {
        dtype: DT_INT32
        tensor_shape {
          dim {
            size: 4
          }
        }
        tensor_content: "\003\000\000\000\003\000\000\000 \000\000\000 \000\000\000"
      }
    }
  }
}
node {
  name: "InceptionResnetV2/Conv2d_2a_3x3/weights/Initializer/random_uniform/min"
  op: "Const"
  attr {
    key: "_class"
    value {
      list {
        s: "loc:@InceptionResnetV2/Conv2d_2a_3x3/weights"
      }
    }
  }
  attr {
    key: "dtype"
    value {
      type: DT_FLOAT
    }
  }
  attr {
    key: "value"
    value {
      tensor {
        dtype: DT_FLOAT
        tensor_shape {
        }
        float_val: -0.10206207633018494
      }
    }
  }
}
node {
  name: "InceptionResnetV2/Conv2d_2a_3x3/weights/Initializer/random_uniform/max"
  op: "Const"
  attr {
    key: "_class"
    value {
      list {
        s: "loc:@InceptionResnetV2/Conv2d_2a_3x3/weights"
      }
    }
  }
  attr {
    key: "dtype"
    value {
      type: DT_FLOAT
    }
  }
  attr {
    key: "value"
    value {
      tensor {
        dtype: DT_FLOAT
        tensor_shape {
        }
        float_val: 0.10206207633018494
      }
    }
  }
}
node {
  name: "InceptionResnetV2/Conv2d_2a_3x3/weights/Initializer/random_uniform/RandomUniform"
  op: "RandomUniform"
  input: "InceptionResnetV2/Conv2d_2a_3x3/weights/Initializer/random_uniform/shape"
  attr {
    key: "T"
    value {
      type: DT_INT32
    }
  }
  attr {
    key: "_class"
    value {
      list {
        s: "loc:@InceptionResnetV2/Conv2d_2a_3x3/weights"
      }
    }
  }
  attr {
    key: "dtype"
    value {
      type: DT_FLOAT
    }
  }
  attr {
    key: "seed"
    value {
      i: 0
    }
  }
  attr {
    key: "seed2"
    value {
      i: 0
    }
  }
}
node {
  name: "InceptionResnetV2/Conv2d_2a_3x3/weights/Initializer/random_uniform/sub"
  op: "Sub"
  input: "InceptionResnetV2/Conv2d_2a_3x3/weights/Initializer/random_uniform/max"
  input: "InceptionResnetV2/Conv2d_2a_3x3/weights/Initializer/random_uniform/min"
  attr {
    key: "T"
    value {
      type: DT_FLOAT
    }
  }
  attr {
    key: "_class"
    value {
      list {
        s: "loc:@InceptionResnetV2/Conv2d_2a_3x3/weights"
      }
    }
  }
}
node {
  name: "InceptionResnetV2/Conv2d_2a_3x3/weights/Initializer/random_uniform/mul"
  op: "Mul"
  input: "InceptionResnetV2/Conv2d_2a_3x3/weights/Initializer/random_uniform/RandomUniform"
  input: "InceptionResnetV2/Conv2d_2a_3x3/weights/Initializer/random_uniform/sub"
  attr {
    key: "T"
    value {
      type: DT_FLOAT
    }
  }
  attr {
    key: "_class"
    value {
      list {
        s: "loc:@InceptionResnetV2/Conv2d_2a_3x3/weights"
      }
    }
  }
}
node {
  name: "InceptionResnetV2/Conv2d_2a_3x3/weights/Initializer/random_uniform"
  op: "Add"
  input: "InceptionResnetV2/Conv2d_2a_3x3/weights/Initializer/random_uniform/mul"
  input: "InceptionResnetV2/Conv2d_2a_3x3/weights/Initializer/random_uniform/min"
  attr {
    key: "T"
    value {
      type: DT_FLOAT
    }
  }
  attr {
    key: "_class"
    value {
      list {
        s: "loc:@InceptionResnetV2/Conv2d_2a_3x3/weights"
      }
    }
  }
}
node {
  name: "InceptionResnetV2/Conv2d_2a_3x3/weights"
  op: "VariableV2"
  attr {
    key: "_class"
    value {
      list {
        s: "loc:@InceptionResnetV2/Conv2d_2a_3x3/weights"
      }
    }
  }
  attr {
    key: "container"
    value {
      s: ""
    }
  }
  attr {
    key: "dtype"
    value {
      type: DT_FLOAT
    }
  }
  attr {
    key: "shape"
    value {
      shape {
        dim {
          size: 3
        }
        dim {
          size: 3
        }
        dim {
          size: 32
        }
        dim {
          size: 32
        }
      }
    }
  }
  attr {
    key: "shared_name"
    value {
      s: ""
    }
  }
}
node {
  name: "InceptionResnetV2/Conv2d_2a_3x3/weights/Assign"
  op: "Assign"
  input: "InceptionResnetV2/Conv2d_2a_3x3/weights"
  input: "InceptionResnetV2/Conv2d_2a_3x3/weights/Initializer/random_uniform"
  attr {
    key: "T"
    value {
      type: DT_FLOAT
    }
  }
  attr {
    key: "_class"
    value {
      list {
        s: "loc:@InceptionResnetV2/Conv2d_2a_3x3/weights"
      }
    }
  }
  attr {
    key: "use_locking"
    value {
      b: true
    }
  }
  attr {
    key: "validate_shape"
    value {
      b: true
    }
  }
}
node {
  name: "InceptionResnetV2/Conv2d_2a_3x3/weights/read"
  op: "Identity"
  input: "InceptionResnetV2/Conv2d_2a_3x3/weights"
  attr {
    key: "T"
    value {
      type: DT_FLOAT
    }
  }
  attr {
    key: "_class"
    value {
      list {
        s: "loc:@InceptionResnetV2/Conv2d_2a_3x3/weights"
      }
    }
  }
}
node {
  name: "InceptionResnetV2/InceptionResnetV2/Conv2d_2a_3x3/dilation_rate"
  op: "Const"
  attr {
    key: "dtype"
    value {
      type: DT_INT32
    }
  }
  attr {
    key: "value"
    value {
      tensor {
        dtype: DT_INT32
        tensor_shape {
          dim {
            size: 2
          }
        }
        tensor_content: "\001\000\000\000\001\000\000\000"
      }
    }
  }
}
node {
  name: "InceptionResnetV2/InceptionResnetV2/Conv2d_2a_3x3/Conv2D"
  op: "Conv2D"
  input: "InceptionResnetV2/InceptionResnetV2/Conv2d_1a_3x3/Relu"
  input: "InceptionResnetV2/Conv2d_2a_3x3/weights/read"
  attr {
    key: "T"
    value {
      type: DT_FLOAT
    }
  }
  attr {
    key: "data_format"
    value {
      s: "NHWC"
    }
  }
  attr {
    key: "dilations"
    value {
      list {
        i: 1
        i: 1
        i: 1
        i: 1
      }
    }
  }
  attr {
    key: "padding"
    value {
      s: "VALID"
    }
  }
  attr {
    key: "strides"
    value {
      list {
        i: 1
        i: 1
        i: 1
        i: 1
      }
    }
  }
  attr {
    key: "use_cudnn_on_gpu"
    value {
      b: true
    }
  }
}
node {
  name: "InceptionResnetV2/InceptionResnetV2/Conv2d_2a_3x3/BatchNorm/Const"
  op: "Const"
  attr {
    key: "dtype"
    value {
      type: DT_FLOAT
    }
  }
  attr {
    key: "value"
    value {
      tensor {
        dtype: DT_FLOAT
        tensor_shape {
          dim {
            size: 32
          }
        }
        float_val: 1.0
      }
    }
  }
}
node {
  name: "InceptionResnetV2/Conv2d_2a_3x3/BatchNorm/beta/Initializer/zeros"
  op: "Const"
  attr {
    key: "_class"
    value {
      list {
        s: "loc:@InceptionResnetV2/Conv2d_2a_3x3/BatchNorm/beta"
      }
    }
  }
  attr {
    key: "dtype"
    value {
      type: DT_FLOAT
    }
  }
  attr {
    key: "value"
    value {
      tensor {
        dtype: DT_FLOAT
        tensor_shape {
          dim {
            size: 32
          }
        }
        float_val: 0.0
      }
    }
  }
}
node {
  name: "InceptionResnetV2/Conv2d_2a_3x3/BatchNorm/beta"
  op: "VariableV2"
  attr {
    key: "_class"
    value {
      list {
        s: "loc:@InceptionResnetV2/Conv2d_2a_3x3/BatchNorm/beta"
      }
    }
  }
  attr {
    key: "container"
    value {
      s: ""
    }
  }
  attr {
    key: "dtype"
    value {
      type: DT_FLOAT
    }
  }
  attr {
    key: "shape"
    value {
      shape {
        dim {
          size: 32
        }
      }
    }
  }
  attr {
    key: "shared_name"
    value {
      s: ""
    }
  }
}
node {
  name: "InceptionResnetV2/Conv2d_2a_3x3/BatchNorm/beta/Assign"
  op: "Assign"
  input: "InceptionResnetV2/Conv2d_2a_3x3/BatchNorm/beta"
  input: "InceptionResnetV2/Conv2d_2a_3x3/BatchNorm/beta/Initializer/zeros"
  attr {
    key: "T"
    value {
      type: DT_FLOAT
    }
  }
  attr {
    key: "_class"
    value {
      list {
        s: "loc:@InceptionResnetV2/Conv2d_2a_3x3/BatchNorm/beta"
      }
    }
  }
  attr {
    key: "use_locking"
    value {
      b: true
    }
  }
  attr {
    key: "validate_shape"
    value {
      b: true
    }
  }
}
node {
  name: "InceptionResnetV2/Conv2d_2a_3x3/BatchNorm/beta/read"
  op: "Identity"
  input: "InceptionResnetV2/Conv2d_2a_3x3/BatchNorm/beta"
  attr {
    key: "T"
    value {
      type: DT_FLOAT
    }
  }
  attr {
    key: "_class"
    value {
      list {
        s: "loc:@InceptionResnetV2/Conv2d_2a_3x3/BatchNorm/beta"
      }
    }
  }
}
node {
  name: "InceptionResnetV2/Conv2d_2a_3x3/BatchNorm/moving_mean/Initializer/zeros"
  op: "Const"
  attr {
    key: "_class"
    value {
      list {
        s: "loc:@InceptionResnetV2/Conv2d_2a_3x3/BatchNorm/moving_mean"
      }
    }
  }
  attr {
    key: "dtype"
    value {
      type: DT_FLOAT
    }
  }
  attr {
    key: "value"
    value {
      tensor {
        dtype: DT_FLOAT
        tensor_shape {
          dim {
            size: 32
          }
        }
        float_val: 0.0
      }
    }
  }
}
node {
  name: "InceptionResnetV2/Conv2d_2a_3x3/BatchNorm/moving_mean"
  op: "VariableV2"
  attr {
    key: "_class"
    value {
      list {
        s: "loc:@InceptionResnetV2/Conv2d_2a_3x3/BatchNorm/moving_mean"
      }
    }
  }
  attr {
    key: "container"
    value {
      s: ""
    }
  }
  attr {
    key: "dtype"
    value {
      type: DT_FLOAT
    }
  }
  attr {
    key: "shape"
    value {
      shape {
        dim {
          size: 32
        }
      }
    }
  }
  attr {
    key: "shared_name"
    value {
      s: ""
    }
  }
}
node {
  name: "InceptionResnetV2/Conv2d_2a_3x3/BatchNorm/moving_mean/Assign"
  op: "Assign"
  input: "InceptionResnetV2/Conv2d_2a_3x3/BatchNorm/moving_mean"
  input: "InceptionResnetV2/Conv2d_2a_3x3/BatchNorm/moving_mean/Initializer/zeros"
  attr {
    key: "T"
    value {
      type: DT_FLOAT
    }
  }
  attr {
    key: "_class"
    value {
      list {
        s: "loc:@InceptionResnetV2/Conv2d_2a_3x3/BatchNorm/moving_mean"
      }
    }
  }
  attr {
    key: "use_locking"
    value {
      b: true
    }
  }
  attr {
    key: "validate_shape"
    value {
      b: true
    }
  }
}
node {
  name: "InceptionResnetV2/Conv2d_2a_3x3/BatchNorm/moving_mean/read"
  op: "Identity"
  input: "InceptionResnetV2/Conv2d_2a_3x3/BatchNorm/moving_mean"
  attr {
    key: "T"
    value {
      type: DT_FLOAT
    }
  }
  attr {
    key: "_class"
    value {
      list {
        s: "loc:@InceptionResnetV2/Conv2d_2a_3x3/BatchNorm/moving_mean"
      }
    }
  }
}
node {
  name: "InceptionResnetV2/Conv2d_2a_3x3/BatchNorm/moving_variance/Initializer/ones"
  op: "Const"
  attr {
    key: "_class"
    value {
      list {
        s: "loc:@InceptionResnetV2/Conv2d_2a_3x3/BatchNorm/moving_variance"
      }
    }
  }
  attr {
    key: "dtype"
    value {
      type: DT_FLOAT
    }
  }
  attr {
    key: "value"
    value {
      tensor {
        dtype: DT_FLOAT
        tensor_shape {
          dim {
            size: 32
          }
        }
        float_val: 1.0
      }
    }
  }
}
node {
  name: "InceptionResnetV2/Conv2d_2a_3x3/BatchNorm/moving_variance"
  op: "VariableV2"
  attr {
    key: "_class"
    value {
      list {
        s: "loc:@InceptionResnetV2/Conv2d_2a_3x3/BatchNorm/moving_variance"
      }
    }
  }
  attr {
    key: "container"
    value {
      s: ""
    }
  }
  attr {
    key: "dtype"
    value {
      type: DT_FLOAT
    }
  }
  attr {
    key: "shape"
    value {
      shape {
        dim {
          size: 32
        }
      }
    }
  }
  attr {
    key: "shared_name"
    value {
      s: ""
    }
  }
}
node {
  name: "InceptionResnetV2/Conv2d_2a_3x3/BatchNorm/moving_variance/Assign"
  op: "Assign"
  input: "InceptionResnetV2/Conv2d_2a_3x3/BatchNorm/moving_variance"
  input: "InceptionResnetV2/Conv2d_2a_3x3/BatchNorm/moving_variance/Initializer/ones"
  attr {
    key: "T"
    value {
      type: DT_FLOAT
    }
  }
  attr {
    key: "_class"
    value {
      list {
        s: "loc:@InceptionResnetV2/Conv2d_2a_3x3/BatchNorm/moving_variance"
      }
    }
  }
  attr {
    key: "use_locking"
    value {
      b: true
    }
  }
  attr {
    key: "validate_shape"
    value {
      b: true
    }
  }
}
node {
  name: "InceptionResnetV2/Conv2d_2a_3x3/BatchNorm/moving_variance/read"
  op: "Identity"
  input: "InceptionResnetV2/Conv2d_2a_3x3/BatchNorm/moving_variance"
  attr {
    key: "T"
    value {
      type: DT_FLOAT
    }
  }
  attr {
    key: "_class"
    value {
      list {
        s: "loc:@InceptionResnetV2/Conv2d_2a_3x3/BatchNorm/moving_variance"
      }
    }
  }
}
node {
  name: "InceptionResnetV2/InceptionResnetV2/Conv2d_2a_3x3/BatchNorm/FusedBatchNorm"
  op: "FusedBatchNorm"
  input: "InceptionResnetV2/InceptionResnetV2/Conv2d_2a_3x3/Conv2D"
  input: "InceptionResnetV2/InceptionResnetV2/Conv2d_2a_3x3/BatchNorm/Const"
  input: "InceptionResnetV2/Conv2d_2a_3x3/BatchNorm/beta/read"
  input: "InceptionResnetV2/Conv2d_2a_3x3/BatchNorm/moving_mean/read"
  input: "InceptionResnetV2/Conv2d_2a_3x3/BatchNorm/moving_variance/read"
  attr {
    key: "T"
    value {
      type: DT_FLOAT
    }
  }
  attr {
    key: "data_format"
    value {
      s: "NHWC"
    }
  }
  attr {
    key: "epsilon"
    value {
      f: 0.0010000000474974513
    }
  }
  attr {
    key: "is_training"
    value {
      b: false
    }
  }
}
node {
  name: "InceptionResnetV2/InceptionResnetV2/Conv2d_2a_3x3/BatchNorm/Const_1"
  op: "Const"
  attr {
    key: "dtype"
    value {
      type: DT_FLOAT
    }
  }
  attr {
    key: "value"
    value {
      tensor {
        dtype: DT_FLOAT
        tensor_shape {
        }
        float_val: 0.9997000098228455
      }
    }
  }
}
node {
  name: "InceptionResnetV2/InceptionResnetV2/Conv2d_2a_3x3/Relu"
  op: "Relu"
  input: "InceptionResnetV2/InceptionResnetV2/Conv2d_2a_3x3/BatchNorm/FusedBatchNorm"
  attr {
    key: "T"
    value {
      type: DT_FLOAT
    }
  }
}
node {
  name: "InceptionResnetV2/Conv2d_2b_3x3/weights/Initializer/random_uniform/shape"
  op: "Const"
  attr {
    key: "_class"
    value {
      list {
        s: "loc:@InceptionResnetV2/Conv2d_2b_3x3/weights"
      }
    }
  }
  attr {
    key: "dtype"
    value {
      type: DT_INT32
    }
  }
  attr {
    key: "value"
    value {
      tensor {
        dtype: DT_INT32
        tensor_shape {
          dim {
            size: 4
          }
        }
        tensor_content: "\003\000\000\000\003\000\000\000 \000\000\000@\000\000\000"
      }
    }
  }
}
node {
  name: "InceptionResnetV2/Conv2d_2b_3x3/weights/Initializer/random_uniform/min"
  op: "Const"
  attr {
    key: "_class"
    value {
      list {
        s: "loc:@InceptionResnetV2/Conv2d_2b_3x3/weights"
      }
    }
  }
  attr {
    key: "dtype"
    value {
      type: DT_FLOAT
    }
  }
  attr {
    key: "value"
    value {
      tensor {
        dtype: DT_FLOAT
        tensor_shape {
        }
        float_val: -0.0833333358168602
      }
    }
  }
}
node {
  name: "InceptionResnetV2/Conv2d_2b_3x3/weights/Initializer/random_uniform/max"
  op: "Const"
  attr {
    key: "_class"
    value {
      list {
        s: "loc:@InceptionResnetV2/Conv2d_2b_3x3/weights"
      }
    }
  }
  attr {
    key: "dtype"
    value {
      type: DT_FLOAT
    }
  }
  attr {
    key: "value"
    value {
      tensor {
        dtype: DT_FLOAT
        tensor_shape {
        }
        float_val: 0.0833333358168602
      }
    }
  }
}
node {
  name: "InceptionResnetV2/Conv2d_2b_3x3/weights/Initializer/random_uniform/RandomUniform"
  op: "RandomUniform"
  input: "InceptionResnetV2/Conv2d_2b_3x3/weights/Initializer/random_uniform/shape"
  attr {
    key: "T"
    value {
      type: DT_INT32
    }
  }
  attr {
    key: "_class"
    value {
      list {
        s: "loc:@InceptionResnetV2/Conv2d_2b_3x3/weights"
      }
    }
  }
  attr {
    key: "dtype"
    value {
      type: DT_FLOAT
    }
  }
  attr {
    key: "seed"
    value {
      i: 0
    }
  }
  attr {
    key: "seed2"
    value {
      i: 0
    }
  }
}
node {
  name: "InceptionResnetV2/Conv2d_2b_3x3/weights/Initializer/random_uniform/sub"
  op: "Sub"
  input: "InceptionResnetV2/Conv2d_2b_3x3/weights/Initializer/random_uniform/max"
  input: "InceptionResnetV2/Conv2d_2b_3x3/weights/Initializer/random_uniform/min"
  attr {
    key: "T"
    value {
      type: DT_FLOAT
    }
  }
  attr {
    key: "_class"
    value {
      list {
        s: "loc:@InceptionResnetV2/Conv2d_2b_3x3/weights"
      }
    }
  }
}
node {
  name: "InceptionResnetV2/Conv2d_2b_3x3/weights/Initializer/random_uniform/mul"
  op: "Mul"
  input: "InceptionResnetV2/Conv2d_2b_3x3/weights/Initializer/random_uniform/RandomUniform"
  input: "InceptionResnetV2/Conv2d_2b_3x3/weights/Initializer/random_uniform/sub"
  attr {
    key: "T"
    value {
      type: DT_FLOAT
    }
  }
  attr {
    key: "_class"
    value {
      list {
        s: "loc:@InceptionResnetV2/Conv2d_2b_3x3/weights"
      }
    }
  }
}
node {
  name: "InceptionResnetV2/Conv2d_2b_3x3/weights/Initializer/random_uniform"
  op: "Add"
  input: "InceptionResnetV2/Conv2d_2b_3x3/weights/Initializer/random_uniform/mul"
  input: "InceptionResnetV2/Conv2d_2b_3x3/weights/Initializer/random_uniform/min"
  attr {
    key: "T"
    value {
      type: DT_FLOAT
    }
  }
  attr {
    key: "_class"
    value {
      list {
        s: "loc:@InceptionResnetV2/Conv2d_2b_3x3/weights"
      }
    }
  }
}
node {
  name: "InceptionResnetV2/Conv2d_2b_3x3/weights"
  op: "VariableV2"
  attr {
    key: "_class"
    value {
      list {
        s: "loc:@InceptionResnetV2/Conv2d_2b_3x3/weights"
      }
    }
  }
  attr {
    key: "container"
    value {
      s: ""
    }
  }
  attr {
    key: "dtype"
    value {
      type: DT_FLOAT
    }
  }
  attr {
    key: "shape"
    value {
      shape {
        dim {
          size: 3
        }
        dim {
          size: 3
        }
        dim {
          size: 32
        }
        dim {
          size: 64
        }
      }
    }
  }
  attr {
    key: "shared_name"
    value {
      s: ""
    }
  }
}
node {
  name: "InceptionResnetV2/Conv2d_2b_3x3/weights/Assign"
  op: "Assign"
  input: "InceptionResnetV2/Conv2d_2b_3x3/weights"
  input: "InceptionResnetV2/Conv2d_2b_3x3/weights/Initializer/random_uniform"
  attr {
    key: "T"
    value {
      type: DT_FLOAT
    }
  }
  attr {
    key: "_class"
    value {
      list {
        s: "loc:@InceptionResnetV2/Conv2d_2b_3x3/weights"
      }
    }
  }
  attr {
    key: "use_locking"
    value {
      b: true
    }
  }
  attr {
    key: "validate_shape"
    value {
      b: true
    }
  }
}
node {
  name: "InceptionResnetV2/Conv2d_2b_3x3/weights/read"
  op: "Identity"
  input: "InceptionResnetV2/Conv2d_2b_3x3/weights"
  attr {
    key: "T"
    value {
      type: DT_FLOAT
    }
  }
  attr {
    key: "_class"
    value {
      list {
        s: "loc:@InceptionResnetV2/Conv2d_2b_3x3/weights"
      }
    }
  }
}
node {
  name: "InceptionResnetV2/InceptionResnetV2/Conv2d_2b_3x3/dilation_rate"
  op: "Const"
  attr {
    key: "dtype"
    value {
      type: DT_INT32
    }
  }
  attr {
    key: "value"
    value {
      tensor {
        dtype: DT_INT32
        tensor_shape {
          dim {
            size: 2
          }
        }
        tensor_content: "\001\000\000\000\001\000\000\000"
      }
    }
  }
}
node {
  name: "InceptionResnetV2/InceptionResnetV2/Conv2d_2b_3x3/Conv2D"
  op: "Conv2D"
  input: "InceptionResnetV2/InceptionResnetV2/Conv2d_2a_3x3/Relu"
  input: "InceptionResnetV2/Conv2d_2b_3x3/weights/read"
  attr {
    key: "T"
    value {
      type: DT_FLOAT
    }
  }
  attr {
    key: "data_format"
    value {
      s: "NHWC"
    }
  }
  attr {
    key: "dilations"
    value {
      list {
        i: 1
        i: 1
        i: 1
        i: 1
      }
    }
  }
  attr {
    key: "padding"
    value {
      s: "SAME"
    }
  }
  attr {
    key: "strides"
    value {
      list {
        i: 1
        i: 1
        i: 1
        i: 1
      }
    }
  }
  attr {
    key: "use_cudnn_on_gpu"
    value {
      b: true
    }
  }
}
node {
  name: "InceptionResnetV2/InceptionResnetV2/Conv2d_2b_3x3/BatchNorm/Const"
  op: "Const"
  attr {
    key: "dtype"
    value {
      type: DT_FLOAT
    }
  }
  attr {
    key: "value"
    value {
      tensor {
        dtype: DT_FLOAT
        tensor_shape {
          dim {
            size: 64
          }
        }
        float_val: 1.0
      }
    }
  }
}
node {
  name: "InceptionResnetV2/Conv2d_2b_3x3/BatchNorm/beta/Initializer/zeros"
  op: "Const"
  attr {
    key: "_class"
    value {
      list {
        s: "loc:@InceptionResnetV2/Conv2d_2b_3x3/BatchNorm/beta"
      }
    }
  }
  attr {
    key: "dtype"
    value {
      type: DT_FLOAT
    }
  }
  attr {
    key: "value"
    value {
      tensor {
        dtype: DT_FLOAT
        tensor_shape {
          dim {
            size: 64
          }
        }
        float_val: 0.0
      }
    }
  }
}
node {
  name: "InceptionResnetV2/Conv2d_2b_3x3/BatchNorm/beta"
  op: "VariableV2"
  attr {
    key: "_class"
    value {
      list {
        s: "loc:@InceptionResnetV2/Conv2d_2b_3x3/BatchNorm/beta"
      }
    }
  }
  attr {
    key: "container"
    value {
      s: ""
    }
  }
  attr {
    key: "dtype"
    value {
      type: DT_FLOAT
    }
  }
  attr {
    key: "shape"
    value {
      shape {
        dim {
          size: 64
        }
      }
    }
  }
  attr {
    key: "shared_name"
    value {
      s: ""
    }
  }
}
node {
  name: "InceptionResnetV2/Conv2d_2b_3x3/BatchNorm/beta/Assign"
  op: "Assign"
  input: "InceptionResnetV2/Conv2d_2b_3x3/BatchNorm/beta"
  input: "InceptionResnetV2/Conv2d_2b_3x3/BatchNorm/beta/Initializer/zeros"
  attr {
    key: "T"
    value {
      type: DT_FLOAT
    }
  }
  attr {
    key: "_class"
    value {
      list {
        s: "loc:@InceptionResnetV2/Conv2d_2b_3x3/BatchNorm/beta"
      }
    }
  }
  attr {
    key: "use_locking"
    value {
      b: true
    }
  }
  attr {
    key: "validate_shape"
    value {
      b: true
    }
  }
}
node {
  name: "InceptionResnetV2/Conv2d_2b_3x3/BatchNorm/beta/read"
  op: "Identity"
  input: "InceptionResnetV2/Conv2d_2b_3x3/BatchNorm/beta"
  attr {
    key: "T"
    value {
      type: DT_FLOAT
    }
  }
  attr {
    key: "_class"
    value {
      list {
        s: "loc:@InceptionResnetV2/Conv2d_2b_3x3/BatchNorm/beta"
      }
    }
  }
}
node {
  name: "InceptionResnetV2/Conv2d_2b_3x3/BatchNorm/moving_mean/Initializer/zeros"
  op: "Const"
  attr {
    key: "_class"
    value {
      list {
        s: "loc:@InceptionResnetV2/Conv2d_2b_3x3/BatchNorm/moving_mean"
      }
    }
  }
  attr {
    key: "dtype"
    value {
      type: DT_FLOAT
    }
  }
  attr {
    key: "value"
    value {
      tensor {
        dtype: DT_FLOAT
        tensor_shape {
          dim {
            size: 64
          }
        }
        float_val: 0.0
      }
    }
  }
}
node {
  name: "InceptionResnetV2/Conv2d_2b_3x3/BatchNorm/moving_mean"
  op: "VariableV2"
  attr {
    key: "_class"
    value {
      list {
        s: "loc:@InceptionResnetV2/Conv2d_2b_3x3/BatchNorm/moving_mean"
      }
    }
  }
  attr {
    key: "container"
    value {
      s: ""
    }
  }
  attr {
    key: "dtype"
    value {
      type: DT_FLOAT
    }
  }
  attr {
    key: "shape"
    value {
      shape {
        dim {
          size: 64
        }
      }
    }
  }
  attr {
    key: "shared_name"
    value {
      s: ""
    }
  }
}
node {
  name: "InceptionResnetV2/Conv2d_2b_3x3/BatchNorm/moving_mean/Assign"
  op: "Assign"
  input: "InceptionResnetV2/Conv2d_2b_3x3/BatchNorm/moving_mean"
  input: "InceptionResnetV2/Conv2d_2b_3x3/BatchNorm/moving_mean/Initializer/zeros"
  attr {
    key: "T"
    value {
      type: DT_FLOAT
    }
  }
  attr {
    key: "_class"
    value {
      list {
        s: "loc:@InceptionResnetV2/Conv2d_2b_3x3/BatchNorm/moving_mean"
      }
    }
  }
  attr {
    key: "use_locking"
    value {
      b: true
    }
  }
  attr {
    key: "validate_shape"
    value {
      b: true
    }
  }
}
node {
  name: "InceptionResnetV2/Conv2d_2b_3x3/BatchNorm/moving_mean/read"
  op: "Identity"
  input: "InceptionResnetV2/Conv2d_2b_3x3/BatchNorm/moving_mean"
  attr {
    key: "T"
    value {
      type: DT_FLOAT
    }
  }
  attr {
    key: "_class"
    value {
      list {
        s: "loc:@InceptionResnetV2/Conv2d_2b_3x3/BatchNorm/moving_mean"
      }
    }
  }
}
node {
  name: "InceptionResnetV2/Conv2d_2b_3x3/BatchNorm/moving_variance/Initializer/ones"
  op: "Const"
  attr {
    key: "_class"
    value {
      list {
        s: "loc:@InceptionResnetV2/Conv2d_2b_3x3/BatchNorm/moving_variance"
      }
    }
  }
  attr {
    key: "dtype"
    value {
      type: DT_FLOAT
    }
  }
  attr {
    key: "value"
    value {
      tensor {
        dtype: DT_FLOAT
        tensor_shape {
          dim {
            size: 64
          }
        }
        float_val: 1.0
      }
    }
  }
}
node {
  name: "InceptionResnetV2/Conv2d_2b_3x3/BatchNorm/moving_variance"
  op: "VariableV2"
  attr {
    key: "_class"
    value {
      list {
        s: "loc:@InceptionResnetV2/Conv2d_2b_3x3/BatchNorm/moving_variance"
      }
    }
  }
  attr {
    key: "container"
    value {
      s: ""
    }
  }
  attr {
    key: "dtype"
    value {
      type: DT_FLOAT
    }
  }
  attr {
    key: "shape"
    value {
      shape {
        dim {
          size: 64
        }
      }
    }
  }
  attr {
    key: "shared_name"
    value {
      s: ""
    }
  }
}
node {
  name: "InceptionResnetV2/Conv2d_2b_3x3/BatchNorm/moving_variance/Assign"
  op: "Assign"
  input: "InceptionResnetV2/Conv2d_2b_3x3/BatchNorm/moving_variance"
  input: "InceptionResnetV2/Conv2d_2b_3x3/BatchNorm/moving_variance/Initializer/ones"
  attr {
    key: "T"
    value {
      type: DT_FLOAT
    }
  }
  attr {
    key: "_class"
    value {
      list {
        s: "loc:@InceptionResnetV2/Conv2d_2b_3x3/BatchNorm/moving_variance"
      }
    }
  }
  attr {
    key: "use_locking"
    value {
      b: true
    }
  }
  attr {
    key: "validate_shape"
    value {
      b: true
    }
  }
}
node {
  name: "InceptionResnetV2/Conv2d_2b_3x3/BatchNorm/moving_variance/read"
  op: "Identity"
  input: "InceptionResnetV2/Conv2d_2b_3x3/BatchNorm/moving_variance"
  attr {
    key: "T"
    value {
      type: DT_FLOAT
    }
  }
  attr {
    key: "_class"
    value {
      list {
        s: "loc:@InceptionResnetV2/Conv2d_2b_3x3/BatchNorm/moving_variance"
      }
    }
  }
}
node {
  name: "InceptionResnetV2/InceptionResnetV2/Conv2d_2b_3x3/BatchNorm/FusedBatchNorm"
  op: "FusedBatchNorm"
  input: "InceptionResnetV2/InceptionResnetV2/Conv2d_2b_3x3/Conv2D"
  input: "InceptionResnetV2/InceptionResnetV2/Conv2d_2b_3x3/BatchNorm/Const"
  input: "InceptionResnetV2/Conv2d_2b_3x3/BatchNorm/beta/read"
  input: "InceptionResnetV2/Conv2d_2b_3x3/BatchNorm/moving_mean/read"
  input: "InceptionResnetV2/Conv2d_2b_3x3/BatchNorm/moving_variance/read"
  attr {
    key: "T"
    value {
      type: DT_FLOAT
    }
  }
  attr {
    key: "data_format"
    value {
      s: "NHWC"
    }
  }
  attr {
    key: "epsilon"
    value {
      f: 0.0010000000474974513
    }
  }
  attr {
    key: "is_training"
    value {
      b: false
    }
  }
}
node {
  name: "InceptionResnetV2/InceptionResnetV2/Conv2d_2b_3x3/BatchNorm/Const_1"
  op: "Const"
  attr {
    key: "dtype"
    value {
      type: DT_FLOAT
    }
  }
  attr {
    key: "value"
    value {
      tensor {
        dtype: DT_FLOAT
        tensor_shape {
        }
        float_val: 0.9997000098228455
      }
    }
  }
}
node {
  name: "InceptionResnetV2/InceptionResnetV2/Conv2d_2b_3x3/Relu"
  op: "Relu"
  input: "InceptionResnetV2/InceptionResnetV2/Conv2d_2b_3x3/BatchNorm/FusedBatchNorm"
  attr {
    key: "T"
    value {
      type: DT_FLOAT
    }
  }
}
node {
  name: "InceptionResnetV2/InceptionResnetV2/MaxPool_3a_3x3/MaxPool"
  op: "MaxPool"
  input: "InceptionResnetV2/InceptionResnetV2/Conv2d_2b_3x3/Relu"
  attr {
    key: "T"
    value {
      type: DT_FLOAT
    }
  }
  attr {
    key: "data_format"
    value {
      s: "NHWC"
    }
  }
  attr {
    key: "ksize"
    value {
      list {
        i: 1
        i: 3
        i: 3
        i: 1
      }
    }
  }
  attr {
    key: "padding"
    value {
      s: "VALID"
    }
  }
  attr {
    key: "strides"
    value {
      list {
        i: 1
        i: 2
        i: 2
        i: 1
      }
    }
  }
}
node {
  name: "InceptionResnetV2/Conv2d_3b_1x1/weights/Initializer/random_uniform/shape"
  op: "Const"
  attr {
    key: "_class"
    value {
      list {
        s: "loc:@InceptionResnetV2/Conv2d_3b_1x1/weights"
      }
    }
  }
  attr {
    key: "dtype"
    value {
      type: DT_INT32
    }
  }
  attr {
    key: "value"
    value {
      tensor {
        dtype: DT_INT32
        tensor_shape {
          dim {
            size: 4
          }
        }
        tensor_content: "\001\000\000\000\001\000\000\000@\000\000\000P\000\000\000"
      }
    }
  }
}
node {
  name: "InceptionResnetV2/Conv2d_3b_1x1/weights/Initializer/random_uniform/min"
  op: "Const"
  attr {
    key: "_class"
    value {
      list {
        s: "loc:@InceptionResnetV2/Conv2d_3b_1x1/weights"
      }
    }
  }
  attr {
    key: "dtype"
    value {
      type: DT_FLOAT
    }
  }
  attr {
    key: "value"
    value {
      tensor {
        dtype: DT_FLOAT
        tensor_shape {
        }
        float_val: -0.20412415266036987
      }
    }
  }
}
node {
  name: "InceptionResnetV2/Conv2d_3b_1x1/weights/Initializer/random_uniform/max"
  op: "Const"
  attr {
    key: "_class"
    value {
      list {
        s: "loc:@InceptionResnetV2/Conv2d_3b_1x1/weights"
      }
    }
  }
  attr {
    key: "dtype"
    value {
      type: DT_FLOAT
    }
  }
  attr {
    key: "value"
    value {
      tensor {
        dtype: DT_FLOAT
        tensor_shape {
        }
        float_val: 0.20412415266036987
      }
    }
  }
}
node {
  name: "InceptionResnetV2/Conv2d_3b_1x1/weights/Initializer/random_uniform/RandomUniform"
  op: "RandomUniform"
  input: "InceptionResnetV2/Conv2d_3b_1x1/weights/Initializer/random_uniform/shape"
  attr {
    key: "T"
    value {
      type: DT_INT32
    }
  }
  attr {
    key: "_class"
    value {
      list {
        s: "loc:@InceptionResnetV2/Conv2d_3b_1x1/weights"
      }
    }
  }
  attr {
    key: "dtype"
    value {
      type: DT_FLOAT
    }
  }
  attr {
    key: "seed"
    value {
      i: 0
    }
  }
  attr {
    key: "seed2"
    value {
      i: 0
    }
  }
}
node {
  name: "InceptionResnetV2/Conv2d_3b_1x1/weights/Initializer/random_uniform/sub"
  op: "Sub"
  input: "InceptionResnetV2/Conv2d_3b_1x1/weights/Initializer/random_uniform/max"
  input: "InceptionResnetV2/Conv2d_3b_1x1/weights/Initializer/random_uniform/min"
  attr {
    key: "T"
    value {
      type: DT_FLOAT
    }
  }
  attr {
    key: "_class"
    value {
      list {
        s: "loc:@InceptionResnetV2/Conv2d_3b_1x1/weights"
      }
    }
  }
}
node {
  name: "InceptionResnetV2/Conv2d_3b_1x1/weights/Initializer/random_uniform/mul"
  op: "Mul"
  input: "InceptionResnetV2/Conv2d_3b_1x1/weights/Initializer/random_uniform/RandomUniform"
  input: "InceptionResnetV2/Conv2d_3b_1x1/weights/Initializer/random_uniform/sub"
  attr {
    key: "T"
    value {
      type: DT_FLOAT
    }
  }
  attr {
    key: "_class"
    value {
      list {
        s: "loc:@InceptionResnetV2/Conv2d_3b_1x1/weights"
      }
    }
  }
}
node {
  name: "InceptionResnetV2/Conv2d_3b_1x1/weights/Initializer/random_uniform"
  op: "Add"
  input: "InceptionResnetV2/Conv2d_3b_1x1/weights/Initializer/random_uniform/mul"
  input: "InceptionResnetV2/Conv2d_3b_1x1/weights/Initializer/random_uniform/min"
  attr {
    key: "T"
    value {
      type: DT_FLOAT
    }
  }
  attr {
    key: "_class"
    value {
      list {
        s: "loc:@InceptionResnetV2/Conv2d_3b_1x1/weights"
      }
    }
  }
}
node {
  name: "InceptionResnetV2/Conv2d_3b_1x1/weights"
  op: "VariableV2"
  attr {
    key: "_class"
    value {
      list {
        s: "loc:@InceptionResnetV2/Conv2d_3b_1x1/weights"
      }
    }
  }
  attr {
    key: "container"
    value {
      s: ""
    }
  }
  attr {
    key: "dtype"
    value {
      type: DT_FLOAT
    }
  }
  attr {
    key: "shape"
    value {
      shape {
        dim {
          size: 1
        }
        dim {
          size: 1
        }
        dim {
          size: 64
        }
        dim {
          size: 80
        }
      }
    }
  }
  attr {
    key: "shared_name"
    value {
      s: ""
    }
  }
}
node {
  name: "InceptionResnetV2/Conv2d_3b_1x1/weights/Assign"
  op: "Assign"
  input: "InceptionResnetV2/Conv2d_3b_1x1/weights"
  input: "InceptionResnetV2/Conv2d_3b_1x1/weights/Initializer/random_uniform"
  attr {
    key: "T"
    value {
      type: DT_FLOAT
    }
  }
  attr {
    key: "_class"
    value {
      list {
        s: "loc:@InceptionResnetV2/Conv2d_3b_1x1/weights"
      }
    }
  }
  attr {
    key: "use_locking"
    value {
      b: true
    }
  }
  attr {
    key: "validate_shape"
    value {
      b: true
    }
  }
}
node {
  name: "InceptionResnetV2/Conv2d_3b_1x1/weights/read"
  op: "Identity"
  input: "InceptionResnetV2/Conv2d_3b_1x1/weights"
  attr {
    key: "T"
    value {
      type: DT_FLOAT
    }
  }
  attr {
    key: "_class"
    value {
      list {
        s: "loc:@InceptionResnetV2/Conv2d_3b_1x1/weights"
      }
    }
  }
}
node {
  name: "InceptionResnetV2/InceptionResnetV2/Conv2d_3b_1x1/dilation_rate"
  op: "Const"
  attr {
    key: "dtype"
    value {
      type: DT_INT32
    }
  }
  attr {
    key: "value"
    value {
      tensor {
        dtype: DT_INT32
        tensor_shape {
          dim {
            size: 2
          }
        }
        tensor_content: "\001\000\000\000\001\000\000\000"
      }
    }
  }
}
node {
  name: "InceptionResnetV2/InceptionResnetV2/Conv2d_3b_1x1/Conv2D"
  op: "Conv2D"
  input: "InceptionResnetV2/InceptionResnetV2/MaxPool_3a_3x3/MaxPool"
  input: "InceptionResnetV2/Conv2d_3b_1x1/weights/read"
  attr {
    key: "T"
    value {
      type: DT_FLOAT
    }
  }
  attr {
    key: "data_format"
    value {
      s: "NHWC"
    }
  }
  attr {
    key: "dilations"
    value {
      list {
        i: 1
        i: 1
        i: 1
        i: 1
      }
    }
  }
  attr {
    key: "padding"
    value {
      s: "VALID"
    }
  }
  attr {
    key: "strides"
    value {
      list {
        i: 1
        i: 1
        i: 1
        i: 1
      }
    }
  }
  attr {
    key: "use_cudnn_on_gpu"
    value {
      b: true
    }
  }
}
node {
  name: "InceptionResnetV2/InceptionResnetV2/Conv2d_3b_1x1/BatchNorm/Const"
  op: "Const"
  attr {
    key: "dtype"
    value {
      type: DT_FLOAT
    }
  }
  attr {
    key: "value"
    value {
      tensor {
        dtype: DT_FLOAT
        tensor_shape {
          dim {
            size: 80
          }
        }
        float_val: 1.0
      }
    }
  }
}
node {
  name: "InceptionResnetV2/Conv2d_3b_1x1/BatchNorm/beta/Initializer/zeros"
  op: "Const"
  attr {
    key: "_class"
    value {
      list {
        s: "loc:@InceptionResnetV2/Conv2d_3b_1x1/BatchNorm/beta"
      }
    }
  }
  attr {
    key: "dtype"
    value {
      type: DT_FLOAT
    }
  }
  attr {
    key: "value"
    value {
      tensor {
        dtype: DT_FLOAT
        tensor_shape {
          dim {
            size: 80
          }
        }
        float_val: 0.0
      }
    }
  }
}
node {
  name: "InceptionResnetV2/Conv2d_3b_1x1/BatchNorm/beta"
  op: "VariableV2"
  attr {
    key: "_class"
    value {
      list {
        s: "loc:@InceptionResnetV2/Conv2d_3b_1x1/BatchNorm/beta"
      }
    }
  }
  attr {
    key: "container"
    value {
      s: ""
    }
  }
  attr {
    key: "dtype"
    value {
      type: DT_FLOAT
    }
  }
  attr {
    key: "shape"
    value {
      shape {
        dim {
          size: 80
        }
      }
    }
  }
  attr {
    key: "shared_name"
    value {
      s: ""
    }
  }
}
node {
  name: "InceptionResnetV2/Conv2d_3b_1x1/BatchNorm/beta/Assign"
  op: "Assign"
  input: "InceptionResnetV2/Conv2d_3b_1x1/BatchNorm/beta"
  input: "InceptionResnetV2/Conv2d_3b_1x1/BatchNorm/beta/Initializer/zeros"
  attr {
    key: "T"
    value {
      type: DT_FLOAT
    }
  }
  attr {
    key: "_class"
    value {
      list {
        s: "loc:@InceptionResnetV2/Conv2d_3b_1x1/BatchNorm/beta"
      }
    }
  }
  attr {
    key: "use_locking"
    value {
      b: true
    }
  }
  attr {
    key: "validate_shape"
    value {
      b: true
    }
  }
}
node {
  name: "InceptionResnetV2/Conv2d_3b_1x1/BatchNorm/beta/read"
  op: "Identity"
  input: "InceptionResnetV2/Conv2d_3b_1x1/BatchNorm/beta"
  attr {
    key: "T"
    value {
      type: DT_FLOAT
    }
  }
  attr {
    key: "_class"
    value {
      list {
        s: "loc:@InceptionResnetV2/Conv2d_3b_1x1/BatchNorm/beta"
      }
    }
  }
}
node {
  name: "InceptionResnetV2/Conv2d_3b_1x1/BatchNorm/moving_mean/Initializer/zeros"
  op: "Const"
  attr {
    key: "_class"
    value {
      list {
        s: "loc:@InceptionResnetV2/Conv2d_3b_1x1/BatchNorm/moving_mean"
      }
    }
  }
  attr {
    key: "dtype"
    value {
      type: DT_FLOAT
    }
  }
  attr {
    key: "value"
    value {
      tensor {
        dtype: DT_FLOAT
        tensor_shape {
          dim {
            size: 80
          }
        }
        float_val: 0.0
      }
    }
  }
}
node {
  name: "InceptionResnetV2/Conv2d_3b_1x1/BatchNorm/moving_mean"
  op: "VariableV2"
  attr {
    key: "_class"
    value {
      list {
        s: "loc:@InceptionResnetV2/Conv2d_3b_1x1/BatchNorm/moving_mean"
      }
    }
  }
  attr {
    key: "container"
    value {
      s: ""
    }
  }
  attr {
    key: "dtype"
    value {
      type: DT_FLOAT
    }
  }
  attr {
    key: "shape"
    value {
      shape {
        dim {
          size: 80
        }
      }
    }
  }
  attr {
    key: "shared_name"
    value {
      s: ""
    }
  }
}
node {
  name: "InceptionResnetV2/Conv2d_3b_1x1/BatchNorm/moving_mean/Assign"
  op: "Assign"
  input: "InceptionResnetV2/Conv2d_3b_1x1/BatchNorm/moving_mean"
  input: "InceptionResnetV2/Conv2d_3b_1x1/BatchNorm/moving_mean/Initializer/zeros"
  attr {
    key: "T"
    value {
      type: DT_FLOAT
    }
  }
  attr {
    key: "_class"
    value {
      list {
        s: "loc:@InceptionResnetV2/Conv2d_3b_1x1/BatchNorm/moving_mean"
      }
    }
  }
  attr {
    key: "use_locking"
    value {
      b: true
    }
  }
  attr {
    key: "validate_shape"
    value {
      b: true
    }
  }
}
node {
  name: "InceptionResnetV2/Conv2d_3b_1x1/BatchNorm/moving_mean/read"
  op: "Identity"
  input: "InceptionResnetV2/Conv2d_3b_1x1/BatchNorm/moving_mean"
  attr {
    key: "T"
    value {
      type: DT_FLOAT
    }
  }
  attr {
    key: "_class"
    value {
      list {
        s: "loc:@InceptionResnetV2/Conv2d_3b_1x1/BatchNorm/moving_mean"
      }
    }
  }
}
node {
  name: "InceptionResnetV2/Conv2d_3b_1x1/BatchNorm/moving_variance/Initializer/ones"
  op: "Const"
  attr {
    key: "_class"
    value {
      list {
        s: "loc:@InceptionResnetV2/Conv2d_3b_1x1/BatchNorm/moving_variance"
      }
    }
  }
  attr {
    key: "dtype"
    value {
      type: DT_FLOAT
    }
  }
  attr {
    key: "value"
    value {
      tensor {
        dtype: DT_FLOAT
        tensor_shape {
          dim {
            size: 80
          }
        }
        float_val: 1.0
      }
    }
  }
}
node {
  name: "InceptionResnetV2/Conv2d_3b_1x1/BatchNorm/moving_variance"
  op: "VariableV2"
  attr {
    key: "_class"
    value {
      list {
        s: "loc:@InceptionResnetV2/Conv2d_3b_1x1/BatchNorm/moving_variance"
      }
    }
  }
  attr {
    key: "container"
    value {
      s: ""
    }
  }
  attr {
    key: "dtype"
    value {
      type: DT_FLOAT
    }
  }
  attr {
    key: "shape"
    value {
      shape {
        dim {
          size: 80
        }
      }
    }
  }
  attr {
    key: "shared_name"
    value {
      s: ""
    }
  }
}
node {
  name: "InceptionResnetV2/Conv2d_3b_1x1/BatchNorm/moving_variance/Assign"
  op: "Assign"
  input: "InceptionResnetV2/Conv2d_3b_1x1/BatchNorm/moving_variance"
  input: "InceptionResnetV2/Conv2d_3b_1x1/BatchNorm/moving_variance/Initializer/ones"
  attr {
    key: "T"
    value {
      type: DT_FLOAT
    }
  }
  attr {
    key: "_class"
    value {
      list {
        s: "loc:@InceptionResnetV2/Conv2d_3b_1x1/BatchNorm/moving_variance"
      }
    }
  }
  attr {
    key: "use_locking"
    value {
      b: true
    }
  }
  attr {
    key: "validate_shape"
    value {
      b: true
    }
  }
}
node {
  name: "InceptionResnetV2/Conv2d_3b_1x1/BatchNorm/moving_variance/read"
  op: "Identity"
  input: "InceptionResnetV2/Conv2d_3b_1x1/BatchNorm/moving_variance"
  attr {
    key: "T"
    value {
      type: DT_FLOAT
    }
  }
  attr {
    key: "_class"
    value {
      list {
        s: "loc:@InceptionResnetV2/Conv2d_3b_1x1/BatchNorm/moving_variance"
      }
    }
  }
}
node {
  name: "InceptionResnetV2/InceptionResnetV2/Conv2d_3b_1x1/BatchNorm/FusedBatchNorm"
  op: "FusedBatchNorm"
  input: "InceptionResnetV2/InceptionResnetV2/Conv2d_3b_1x1/Conv2D"
  input: "InceptionResnetV2/InceptionResnetV2/Conv2d_3b_1x1/BatchNorm/Const"
  input: "InceptionResnetV2/Conv2d_3b_1x1/BatchNorm/beta/read"
  input: "InceptionResnetV2/Conv2d_3b_1x1/BatchNorm/moving_mean/read"
  input: "InceptionResnetV2/Conv2d_3b_1x1/BatchNorm/moving_variance/read"
  attr {
    key: "T"
    value {
      type: DT_FLOAT
    }
  }
  attr {
    key: "data_format"
    value {
      s: "NHWC"
    }
  }
  attr {
    key: "epsilon"
    value {
      f: 0.0010000000474974513
    }
  }
  attr {
    key: "is_training"
    value {
      b: false
    }
  }
}
node {
  name: "InceptionResnetV2/InceptionResnetV2/Conv2d_3b_1x1/BatchNorm/Const_1"
  op: "Const"
  attr {
    key: "dtype"
    value {
      type: DT_FLOAT
    }
  }
  attr {
    key: "value"
    value {
      tensor {
        dtype: DT_FLOAT
        tensor_shape {
        }
        float_val: 0.9997000098228455
      }
    }
  }
}
node {
  name: "InceptionResnetV2/InceptionResnetV2/Conv2d_3b_1x1/Relu"
  op: "Relu"
  input: "InceptionResnetV2/InceptionResnetV2/Conv2d_3b_1x1/BatchNorm/FusedBatchNorm"
  attr {
    key: "T"
    value {
      type: DT_FLOAT
    }
  }
}
node {
  name: "InceptionResnetV2/Conv2d_4a_3x3/weights/Initializer/random_uniform/shape"
  op: "Const"
  attr {
    key: "_class"
    value {
      list {
        s: "loc:@InceptionResnetV2/Conv2d_4a_3x3/weights"
      }
    }
  }
  attr {
    key: "dtype"
    value {
      type: DT_INT32
    }
  }
  attr {
    key: "value"
    value {
      tensor {
        dtype: DT_INT32
        tensor_shape {
          dim {
            size: 4
          }
        }
        tensor_content: "\003\000\000\000\003\000\000\000P\000\000\000\300\000\000\000"
      }
    }
  }
}
node {
  name: "InceptionResnetV2/Conv2d_4a_3x3/weights/Initializer/random_uniform/min"
  op: "Const"
  attr {
    key: "_class"
    value {
      list {
        s: "loc:@InceptionResnetV2/Conv2d_4a_3x3/weights"
      }
    }
  }
  attr {
    key: "dtype"
    value {
      type: DT_FLOAT
    }
  }
  attr {
    key: "value"
    value {
      tensor {
        dtype: DT_FLOAT
        tensor_shape {
        }
        float_val: -0.04950737580657005
      }
    }
  }
}
node {
  name: "InceptionResnetV2/Conv2d_4a_3x3/weights/Initializer/random_uniform/max"
  op: "Const"
  attr {
    key: "_class"
    value {
      list {
        s: "loc:@InceptionResnetV2/Conv2d_4a_3x3/weights"
      }
    }
  }
  attr {
    key: "dtype"
    value {
      type: DT_FLOAT
    }
  }
  attr {
    key: "value"
    value {
      tensor {
        dtype: DT_FLOAT
        tensor_shape {
        }
        float_val: 0.04950737580657005
      }
    }
  }
}
node {
  name: "InceptionResnetV2/Conv2d_4a_3x3/weights/Initializer/random_uniform/RandomUniform"
  op: "RandomUniform"
  input: "InceptionResnetV2/Conv2d_4a_3x3/weights/Initializer/random_uniform/shape"
  attr {
    key: "T"
    value {
      type: DT_INT32
    }
  }
  attr {
    key: "_class"
    value {
      list {
        s: "loc:@InceptionResnetV2/Conv2d_4a_3x3/weights"
      }
    }
  }
  attr {
    key: "dtype"
    value {
      type: DT_FLOAT
    }
  }
  attr {
    key: "seed"
    value {
      i: 0
    }
  }
  attr {
    key: "seed2"
    value {
      i: 0
    }
  }
}
node {
  name: "InceptionResnetV2/Conv2d_4a_3x3/weights/Initializer/random_uniform/sub"
  op: "Sub"
  input: "InceptionResnetV2/Conv2d_4a_3x3/weights/Initializer/random_uniform/max"
  input: "InceptionResnetV2/Conv2d_4a_3x3/weights/Initializer/random_uniform/min"
  attr {
    key: "T"
    value {
      type: DT_FLOAT
    }
  }
  attr {
    key: "_class"
    value {
      list {
        s: "loc:@InceptionResnetV2/Conv2d_4a_3x3/weights"
      }
    }
  }
}
node {
  name: "InceptionResnetV2/Conv2d_4a_3x3/weights/Initializer/random_uniform/mul"
  op: "Mul"
  input: "InceptionResnetV2/Conv2d_4a_3x3/weights/Initializer/random_uniform/RandomUniform"
  input: "InceptionResnetV2/Conv2d_4a_3x3/weights/Initializer/random_uniform/sub"
  attr {
    key: "T"
    value {
      type: DT_FLOAT
    }
  }
  attr {
    key: "_class"
    value {
      list {
        s: "loc:@InceptionResnetV2/Conv2d_4a_3x3/weights"
      }
    }
  }
}
node {
  name: "InceptionResnetV2/Conv2d_4a_3x3/weights/Initializer/random_uniform"
  op: "Add"
  input: "InceptionResnetV2/Conv2d_4a_3x3/weights/Initializer/random_uniform/mul"
  input: "InceptionResnetV2/Conv2d_4a_3x3/weights/Initializer/random_uniform/min"
  attr {
    key: "T"
    value {
      type: DT_FLOAT
    }
  }
  attr {
    key: "_class"
    value {
      list {
        s: "loc:@InceptionResnetV2/Conv2d_4a_3x3/weights"
      }
    }
  }
}
node {
  name: "InceptionResnetV2/Conv2d_4a_3x3/weights"
  op: "VariableV2"
  attr {
    key: "_class"
    value {
      list {
        s: "loc:@InceptionResnetV2/Conv2d_4a_3x3/weights"
      }
    }
  }
  attr {
    key: "container"
    value {
      s: ""
    }
  }
  attr {
    key: "dtype"
    value {
      type: DT_FLOAT
    }
  }
  attr {
    key: "shape"
    value {
      shape {
        dim {
          size: 3
        }
        dim {
          size: 3
        }
        dim {
          size: 80
        }
        dim {
          size: 192
        }
      }
    }
  }
  attr {
    key: "shared_name"
    value {
      s: ""
    }
  }
}
node {
  name: "InceptionResnetV2/Conv2d_4a_3x3/weights/Assign"
  op: "Assign"
  input: "InceptionResnetV2/Conv2d_4a_3x3/weights"
  input: "InceptionResnetV2/Conv2d_4a_3x3/weights/Initializer/random_uniform"
  attr {
    key: "T"
    value {
      type: DT_FLOAT
    }
  }
  attr {
    key: "_class"
    value {
      list {
        s: "loc:@InceptionResnetV2/Conv2d_4a_3x3/weights"
      }
    }
  }
  attr {
    key: "use_locking"
    value {
      b: true
    }
  }
  attr {
    key: "validate_shape"
    value {
      b: true
    }
  }
}
node {
  name: "InceptionResnetV2/Conv2d_4a_3x3/weights/read"
  op: "Identity"
  input: "InceptionResnetV2/Conv2d_4a_3x3/weights"
  attr {
    key: "T"
    value {
      type: DT_FLOAT
    }
  }
  attr {
    key: "_class"
    value {
      list {
        s: "loc:@InceptionResnetV2/Conv2d_4a_3x3/weights"
      }
    }
  }
}
node {
  name: "InceptionResnetV2/InceptionResnetV2/Conv2d_4a_3x3/dilation_rate"
  op: "Const"
  attr {
    key: "dtype"
    value {
      type: DT_INT32
    }
  }
  attr {
    key: "value"
    value {
      tensor {
        dtype: DT_INT32
        tensor_shape {
          dim {
            size: 2
          }
        }
        tensor_content: "\001\000\000\000\001\000\000\000"
      }
    }
  }
}
node {
  name: "InceptionResnetV2/InceptionResnetV2/Conv2d_4a_3x3/Conv2D"
  op: "Conv2D"
  input: "InceptionResnetV2/InceptionResnetV2/Conv2d_3b_1x1/Relu"
  input: "InceptionResnetV2/Conv2d_4a_3x3/weights/read"
  attr {
    key: "T"
    value {
      type: DT_FLOAT
    }
  }
  attr {
    key: "data_format"
    value {
      s: "NHWC"
    }
  }
  attr {
    key: "dilations"
    value {
      list {
        i: 1
        i: 1
        i: 1
        i: 1
      }
    }
  }
  attr {
    key: "padding"
    value {
      s: "VALID"
    }
  }
  attr {
    key: "strides"
    value {
      list {
        i: 1
        i: 1
        i: 1
        i: 1
      }
    }
  }
  attr {
    key: "use_cudnn_on_gpu"
    value {
      b: true
    }
  }
}
node {
  name: "InceptionResnetV2/InceptionResnetV2/Conv2d_4a_3x3/BatchNorm/Const"
  op: "Const"
  attr {
    key: "dtype"
    value {
      type: DT_FLOAT
    }
  }
  attr {
    key: "value"
    value {
      tensor {
        dtype: DT_FLOAT
        tensor_shape {
          dim {
            size: 192
          }
        }
        float_val: 1.0
      }
    }
  }
}
node {
  name: "InceptionResnetV2/Conv2d_4a_3x3/BatchNorm/beta/Initializer/zeros"
  op: "Const"
  attr {
    key: "_class"
    value {
      list {
        s: "loc:@InceptionResnetV2/Conv2d_4a_3x3/BatchNorm/beta"
      }
    }
  }
  attr {
    key: "dtype"
    value {
      type: DT_FLOAT
    }
  }
  attr {
    key: "value"
    value {
      tensor {
        dtype: DT_FLOAT
        tensor_shape {
          dim {
            size: 192
          }
        }
        float_val: 0.0
      }
    }
  }
}
node {
  name: "InceptionResnetV2/Conv2d_4a_3x3/BatchNorm/beta"
  op: "VariableV2"
  attr {
    key: "_class"
    value {
      list {
        s: "loc:@InceptionResnetV2/Conv2d_4a_3x3/BatchNorm/beta"
      }
    }
  }
  attr {
    key: "container"
    value {
      s: ""
    }
  }
  attr {
    key: "dtype"
    value {
      type: DT_FLOAT
    }
  }
  attr {
    key: "shape"
    value {
      shape {
        dim {
          size: 192
        }
      }
    }
  }
  attr {
    key: "shared_name"
    value {
      s: ""
    }
  }
}
node {
  name: "InceptionResnetV2/Conv2d_4a_3x3/BatchNorm/beta/Assign"
  op: "Assign"
  input: "InceptionResnetV2/Conv2d_4a_3x3/BatchNorm/beta"
  input: "InceptionResnetV2/Conv2d_4a_3x3/BatchNorm/beta/Initializer/zeros"
  attr {
    key: "T"
    value {
      type: DT_FLOAT
    }
  }
  attr {
    key: "_class"
    value {
      list {
        s: "loc:@InceptionResnetV2/Conv2d_4a_3x3/BatchNorm/beta"
      }
    }
  }
  attr {
    key: "use_locking"
    value {
      b: true
    }
  }
  attr {
    key: "validate_shape"
    value {
      b: true
    }
  }
}
node {
  name: "InceptionResnetV2/Conv2d_4a_3x3/BatchNorm/beta/read"
  op: "Identity"
  input: "InceptionResnetV2/Conv2d_4a_3x3/BatchNorm/beta"
  attr {
    key: "T"
    value {
      type: DT_FLOAT
    }
  }
  attr {
    key: "_class"
    value {
      list {
        s: "loc:@InceptionResnetV2/Conv2d_4a_3x3/BatchNorm/beta"
      }
    }
  }
}
node {
  name: "InceptionResnetV2/Conv2d_4a_3x3/BatchNorm/moving_mean/Initializer/zeros"
  op: "Const"
  attr {
    key: "_class"
    value {
      list {
        s: "loc:@InceptionResnetV2/Conv2d_4a_3x3/BatchNorm/moving_mean"
      }
    }
  }
  attr {
    key: "dtype"
    value {
      type: DT_FLOAT
    }
  }
  attr {
    key: "value"
    value {
      tensor {
        dtype: DT_FLOAT
        tensor_shape {
          dim {
            size: 192
          }
        }
        float_val: 0.0
      }
    }
  }
}
node {
  name: "InceptionResnetV2/Conv2d_4a_3x3/BatchNorm/moving_mean"
  op: "VariableV2"
  attr {
    key: "_class"
    value {
      list {
        s: "loc:@InceptionResnetV2/Conv2d_4a_3x3/BatchNorm/moving_mean"
      }
    }
  }
  attr {
    key: "container"
    value {
      s: ""
    }
  }
  attr {
    key: "dtype"
    value {
      type: DT_FLOAT
    }
  }
  attr {
    key: "shape"
    value {
      shape {
        dim {
          size: 192
        }
      }
    }
  }
  attr {
    key: "shared_name"
    value {
      s: ""
    }
  }
}
node {
  name: "InceptionResnetV2/Conv2d_4a_3x3/BatchNorm/moving_mean/Assign"
  op: "Assign"
  input: "InceptionResnetV2/Conv2d_4a_3x3/BatchNorm/moving_mean"
  input: "InceptionResnetV2/Conv2d_4a_3x3/BatchNorm/moving_mean/Initializer/zeros"
  attr {
    key: "T"
    value {
      type: DT_FLOAT
    }
  }
  attr {
    key: "_class"
    value {
      list {
        s: "loc:@InceptionResnetV2/Conv2d_4a_3x3/BatchNorm/moving_mean"
      }
    }
  }
  attr {
    key: "use_locking"
    value {
      b: true
    }
  }
  attr {
    key: "validate_shape"
    value {
      b: true
    }
  }
}
node {
  name: "InceptionResnetV2/Conv2d_4a_3x3/BatchNorm/moving_mean/read"
  op: "Identity"
  input: "InceptionResnetV2/Conv2d_4a_3x3/BatchNorm/moving_mean"
  attr {
    key: "T"
    value {
      type: DT_FLOAT
    }
  }
  attr {
    key: "_class"
    value {
      list {
        s: "loc:@InceptionResnetV2/Conv2d_4a_3x3/BatchNorm/moving_mean"
      }
    }
  }
}
node {
  name: "InceptionResnetV2/Conv2d_4a_3x3/BatchNorm/moving_variance/Initializer/ones"
  op: "Const"
  attr {
    key: "_class"
    value {
      list {
        s: "loc:@InceptionResnetV2/Conv2d_4a_3x3/BatchNorm/moving_variance"
      }
    }
  }
  attr {
    key: "dtype"
    value {
      type: DT_FLOAT
    }
  }
  attr {
    key: "value"
    value {
      tensor {
        dtype: DT_FLOAT
        tensor_shape {
          dim {
            size: 192
          }
        }
        float_val: 1.0
      }
    }
  }
}
node {
  name: "InceptionResnetV2/Conv2d_4a_3x3/BatchNorm/moving_variance"
  op: "VariableV2"
  attr {
    key: "_class"
    value {
      list {
        s: "loc:@InceptionResnetV2/Conv2d_4a_3x3/BatchNorm/moving_variance"
      }
    }
  }
  attr {
    key: "container"
    value {
      s: ""
    }
  }
  attr {
    key: "dtype"
    value {
      type: DT_FLOAT
    }
  }
  attr {
    key: "shape"
    value {
      shape {
        dim {
          size: 192
        }
      }
    }
  }
  attr {
    key: "shared_name"
    value {
      s: ""
    }
  }
}
node {
  name: "InceptionResnetV2/Conv2d_4a_3x3/BatchNorm/moving_variance/Assign"
  op: "Assign"
  input: "InceptionResnetV2/Conv2d_4a_3x3/BatchNorm/moving_variance"
  input: "InceptionResnetV2/Conv2d_4a_3x3/BatchNorm/moving_variance/Initializer/ones"
  attr {
    key: "T"
    value {
      type: DT_FLOAT
    }
  }
  attr {
    key: "_class"
    value {
      list {
        s: "loc:@InceptionResnetV2/Conv2d_4a_3x3/BatchNorm/moving_variance"
      }
    }
  }
  attr {
    key: "use_locking"
    value {
      b: true
    }
  }
  attr {
    key: "validate_shape"
    value {
      b: true
    }
  }
}
node {
  name: "InceptionResnetV2/Conv2d_4a_3x3/BatchNorm/moving_variance/read"
  op: "Identity"
  input: "InceptionResnetV2/Conv2d_4a_3x3/BatchNorm/moving_variance"
  attr {
    key: "T"
    value {
      type: DT_FLOAT
    }
  }
  attr {
    key: "_class"
    value {
      list {
        s: "loc:@InceptionResnetV2/Conv2d_4a_3x3/BatchNorm/moving_variance"
      }
    }
  }
}
node {
  name: "InceptionResnetV2/InceptionResnetV2/Conv2d_4a_3x3/BatchNorm/FusedBatchNorm"
  op: "FusedBatchNorm"
  input: "InceptionResnetV2/InceptionResnetV2/Conv2d_4a_3x3/Conv2D"
  input: "InceptionResnetV2/InceptionResnetV2/Conv2d_4a_3x3/BatchNorm/Const"
  input: "InceptionResnetV2/Conv2d_4a_3x3/BatchNorm/beta/read"
  input: "InceptionResnetV2/Conv2d_4a_3x3/BatchNorm/moving_mean/read"
  input: "InceptionResnetV2/Conv2d_4a_3x3/BatchNorm/moving_variance/read"
  attr {
    key: "T"
    value {
      type: DT_FLOAT
    }
  }
  attr {
    key: "data_format"
    value {
      s: "NHWC"
    }
  }
  attr {
    key: "epsilon"
    value {
      f: 0.0010000000474974513
    }
  }
  attr {
    key: "is_training"
    value {
      b: false
    }
  }
}
node {
  name: "InceptionResnetV2/InceptionResnetV2/Conv2d_4a_3x3/BatchNorm/Const_1"
  op: "Const"
  attr {
    key: "dtype"
    value {
      type: DT_FLOAT
    }
  }
  attr {
    key: "value"
    value {
      tensor {
        dtype: DT_FLOAT
        tensor_shape {
        }
        float_val: 0.9997000098228455
      }
    }
  }
}
node {
  name: "InceptionResnetV2/InceptionResnetV2/Conv2d_4a_3x3/Relu"
  op: "Relu"
  input: "InceptionResnetV2/InceptionResnetV2/Conv2d_4a_3x3/BatchNorm/FusedBatchNorm"
  attr {
    key: "T"
    value {
      type: DT_FLOAT
    }
  }
}
node {
  name: "InceptionResnetV2/InceptionResnetV2/MaxPool_5a_3x3/MaxPool"
  op: "MaxPool"
  input: "InceptionResnetV2/InceptionResnetV2/Conv2d_4a_3x3/Relu"
  attr {
    key: "T"
    value {
      type: DT_FLOAT
    }
  }
  attr {
    key: "data_format"
    value {
      s: "NHWC"
    }
  }
  attr {
    key: "ksize"
    value {
      list {
        i: 1
        i: 3
        i: 3
        i: 1
      }
    }
  }
  attr {
    key: "padding"
    value {
      s: "VALID"
    }
  }
  attr {
    key: "strides"
    value {
      list {
        i: 1
        i: 2
        i: 2
        i: 1
      }
    }
  }
}
node {
  name: "InceptionResnetV2/Mixed_5b/Branch_0/Conv2d_1x1/weights/Initializer/random_uniform/shape"
  op: "Const"
  attr {
    key: "_class"
    value {
      list {
        s: "loc:@InceptionResnetV2/Mixed_5b/Branch_0/Conv2d_1x1/weights"
      }
    }
  }
  attr {
    key: "dtype"
    value {
      type: DT_INT32
    }
  }
  attr {
    key: "value"
    value {
      tensor {
        dtype: DT_INT32
        tensor_shape {
          dim {
            size: 4
          }
        }
        tensor_content: "\001\000\000\000\001\000\000\000\300\000\000\000`\000\000\000"
      }
    }
  }
}
node {
  name: "InceptionResnetV2/Mixed_5b/Branch_0/Conv2d_1x1/weights/Initializer/random_uniform/min"
  op: "Const"
  attr {
    key: "_class"
    value {
      list {
        s: "loc:@InceptionResnetV2/Mixed_5b/Branch_0/Conv2d_1x1/weights"
      }
    }
  }
  attr {
    key: "dtype"
    value {
      type: DT_FLOAT
    }
  }
  attr {
    key: "value"
    value {
      tensor {
        dtype: DT_FLOAT
        tensor_shape {
        }
        float_val: -0.14433756470680237
      }
    }
  }
}
node {
  name: "InceptionResnetV2/Mixed_5b/Branch_0/Conv2d_1x1/weights/Initializer/random_uniform/max"
  op: "Const"
  attr {
    key: "_class"
    value {
      list {
        s: "loc:@InceptionResnetV2/Mixed_5b/Branch_0/Conv2d_1x1/weights"
      }
    }
  }
  attr {
    key: "dtype"
    value {
      type: DT_FLOAT
    }
  }
  attr {
    key: "value"
    value {
      tensor {
        dtype: DT_FLOAT
        tensor_shape {
        }
        float_val: 0.14433756470680237
      }
    }
  }
}
node {
  name: "InceptionResnetV2/Mixed_5b/Branch_0/Conv2d_1x1/weights/Initializer/random_uniform/RandomUniform"
  op: "RandomUniform"
  input: "InceptionResnetV2/Mixed_5b/Branch_0/Conv2d_1x1/weights/Initializer/random_uniform/shape"
  attr {
    key: "T"
    value {
      type: DT_INT32
    }
  }
  attr {
    key: "_class"
    value {
      list {
        s: "loc:@InceptionResnetV2/Mixed_5b/Branch_0/Conv2d_1x1/weights"
      }
    }
  }
  attr {
    key: "dtype"
    value {
      type: DT_FLOAT
    }
  }
  attr {
    key: "seed"
    value {
      i: 0
    }
  }
  attr {
    key: "seed2"
    value {
      i: 0
    }
  }
}
node {
  name: "InceptionResnetV2/Mixed_5b/Branch_0/Conv2d_1x1/weights/Initializer/random_uniform/sub"
  op: "Sub"
  input: "InceptionResnetV2/Mixed_5b/Branch_0/Conv2d_1x1/weights/Initializer/random_uniform/max"
  input: "InceptionResnetV2/Mixed_5b/Branch_0/Conv2d_1x1/weights/Initializer/random_uniform/min"
  attr {
    key: "T"
    value {
      type: DT_FLOAT
    }
  }
  attr {
    key: "_class"
    value {
      list {
        s: "loc:@InceptionResnetV2/Mixed_5b/Branch_0/Conv2d_1x1/weights"
      }
    }
  }
}
node {
  name: "InceptionResnetV2/Mixed_5b/Branch_0/Conv2d_1x1/weights/Initializer/random_uniform/mul"
  op: "Mul"
  input: "InceptionResnetV2/Mixed_5b/Branch_0/Conv2d_1x1/weights/Initializer/random_uniform/RandomUniform"
  input: "InceptionResnetV2/Mixed_5b/Branch_0/Conv2d_1x1/weights/Initializer/random_uniform/sub"
  attr {
    key: "T"
    value {
      type: DT_FLOAT
    }
  }
  attr {
    key: "_class"
    value {
      list {
        s: "loc:@InceptionResnetV2/Mixed_5b/Branch_0/Conv2d_1x1/weights"
      }
    }
  }
}
node {
  name: "InceptionResnetV2/Mixed_5b/Branch_0/Conv2d_1x1/weights/Initializer/random_uniform"
  op: "Add"
  input: "InceptionResnetV2/Mixed_5b/Branch_0/Conv2d_1x1/weights/Initializer/random_uniform/mul"
  input: "InceptionResnetV2/Mixed_5b/Branch_0/Conv2d_1x1/weights/Initializer/random_uniform/min"
  attr {
    key: "T"
    value {
      type: DT_FLOAT
    }
  }
  attr {
    key: "_class"
    value {
      list {
        s: "loc:@InceptionResnetV2/Mixed_5b/Branch_0/Conv2d_1x1/weights"
      }
    }
  }
}
node {
  name: "InceptionResnetV2/Mixed_5b/Branch_0/Conv2d_1x1/weights"
  op: "VariableV2"
  attr {
    key: "_class"
    value {
      list {
        s: "loc:@InceptionResnetV2/Mixed_5b/Branch_0/Conv2d_1x1/weights"
      }
    }
  }
  attr {
    key: "container"
    value {
      s: ""
    }
  }
  attr {
    key: "dtype"
    value {
      type: DT_FLOAT
    }
  }
  attr {
    key: "shape"
    value {
      shape {
        dim {
          size: 1
        }
        dim {
          size: 1
        }
        dim {
          size: 192
        }
        dim {
          size: 96
        }
      }
    }
  }
  attr {
    key: "shared_name"
    value {
      s: ""
    }
  }
}
node {
  name: "InceptionResnetV2/Mixed_5b/Branch_0/Conv2d_1x1/weights/Assign"
  op: "Assign"
  input: "InceptionResnetV2/Mixed_5b/Branch_0/Conv2d_1x1/weights"
  input: "InceptionResnetV2/Mixed_5b/Branch_0/Conv2d_1x1/weights/Initializer/random_uniform"
  attr {
    key: "T"
    value {
      type: DT_FLOAT
    }
  }
  attr {
    key: "_class"
    value {
      list {
        s: "loc:@InceptionResnetV2/Mixed_5b/Branch_0/Conv2d_1x1/weights"
      }
    }
  }
  attr {
    key: "use_locking"
    value {
      b: true
    }
  }
  attr {
    key: "validate_shape"
    value {
      b: true
    }
  }
}
node {
  name: "InceptionResnetV2/Mixed_5b/Branch_0/Conv2d_1x1/weights/read"
  op: "Identity"
  input: "InceptionResnetV2/Mixed_5b/Branch_0/Conv2d_1x1/weights"
  attr {
    key: "T"
    value {
      type: DT_FLOAT
    }
  }
  attr {
    key: "_class"
    value {
      list {
        s: "loc:@InceptionResnetV2/Mixed_5b/Branch_0/Conv2d_1x1/weights"
      }
    }
  }
}
node {
  name: "InceptionResnetV2/InceptionResnetV2/Mixed_5b/Branch_0/Conv2d_1x1/dilation_rate"
  op: "Const"
  attr {
    key: "dtype"
    value {
      type: DT_INT32
    }
  }
  attr {
    key: "value"
    value {
      tensor {
        dtype: DT_INT32
        tensor_shape {
          dim {
            size: 2
          }
        }
        tensor_content: "\001\000\000\000\001\000\000\000"
      }
    }
  }
}
node {
  name: "InceptionResnetV2/InceptionResnetV2/Mixed_5b/Branch_0/Conv2d_1x1/Conv2D"
  op: "Conv2D"
  input: "InceptionResnetV2/InceptionResnetV2/MaxPool_5a_3x3/MaxPool"
  input: "InceptionResnetV2/Mixed_5b/Branch_0/Conv2d_1x1/weights/read"
  attr {
    key: "T"
    value {
      type: DT_FLOAT
    }
  }
  attr {
    key: "data_format"
    value {
      s: "NHWC"
    }
  }
  attr {
    key: "dilations"
    value {
      list {
        i: 1
        i: 1
        i: 1
        i: 1
      }
    }
  }
  attr {
    key: "padding"
    value {
      s: "SAME"
    }
  }
  attr {
    key: "strides"
    value {
      list {
        i: 1
        i: 1
        i: 1
        i: 1
      }
    }
  }
  attr {
    key: "use_cudnn_on_gpu"
    value {
      b: true
    }
  }
}
node {
  name: "InceptionResnetV2/InceptionResnetV2/Mixed_5b/Branch_0/Conv2d_1x1/BatchNorm/Const"
  op: "Const"
  attr {
    key: "dtype"
    value {
      type: DT_FLOAT
    }
  }
  attr {
    key: "value"
    value {
      tensor {
        dtype: DT_FLOAT
        tensor_shape {
          dim {
            size: 96
          }
        }
        float_val: 1.0
      }
    }
  }
}
node {
  name: "InceptionResnetV2/Mixed_5b/Branch_0/Conv2d_1x1/BatchNorm/beta/Initializer/zeros"
  op: "Const"
  attr {
    key: "_class"
    value {
      list {
        s: "loc:@InceptionResnetV2/Mixed_5b/Branch_0/Conv2d_1x1/BatchNorm/beta"
      }
    }
  }
  attr {
    key: "dtype"
    value {
      type: DT_FLOAT
    }
  }
  attr {
    key: "value"
    value {
      tensor {
        dtype: DT_FLOAT
        tensor_shape {
          dim {
            size: 96
          }
        }
        float_val: 0.0
      }
    }
  }
}
node {
  name: "InceptionResnetV2/Mixed_5b/Branch_0/Conv2d_1x1/BatchNorm/beta"
  op: "VariableV2"
  attr {
    key: "_class"
    value {
      list {
        s: "loc:@InceptionResnetV2/Mixed_5b/Branch_0/Conv2d_1x1/BatchNorm/beta"
      }
    }
  }
  attr {
    key: "container"
    value {
      s: ""
    }
  }
  attr {
    key: "dtype"
    value {
      type: DT_FLOAT
    }
  }
  attr {
    key: "shape"
    value {
      shape {
        dim {
          size: 96
        }
      }
    }
  }
  attr {
    key: "shared_name"
    value {
      s: ""
    }
  }
}
node {
  name: "InceptionResnetV2/Mixed_5b/Branch_0/Conv2d_1x1/BatchNorm/beta/Assign"
  op: "Assign"
  input: "InceptionResnetV2/Mixed_5b/Branch_0/Conv2d_1x1/BatchNorm/beta"
  input: "InceptionResnetV2/Mixed_5b/Branch_0/Conv2d_1x1/BatchNorm/beta/Initializer/zeros"
  attr {
    key: "T"
    value {
      type: DT_FLOAT
    }
  }
  attr {
    key: "_class"
    value {
      list {
        s: "loc:@InceptionResnetV2/Mixed_5b/Branch_0/Conv2d_1x1/BatchNorm/beta"
      }
    }
  }
  attr {
    key: "use_locking"
    value {
      b: true
    }
  }
  attr {
    key: "validate_shape"
    value {
      b: true
    }
  }
}
node {
  name: "InceptionResnetV2/Mixed_5b/Branch_0/Conv2d_1x1/BatchNorm/beta/read"
  op: "Identity"
  input: "InceptionResnetV2/Mixed_5b/Branch_0/Conv2d_1x1/BatchNorm/beta"
  attr {
    key: "T"
    value {
      type: DT_FLOAT
    }
  }
  attr {
    key: "_class"
    value {
      list {
        s: "loc:@InceptionResnetV2/Mixed_5b/Branch_0/Conv2d_1x1/BatchNorm/beta"
      }
    }
  }
}
node {
  name: "InceptionResnetV2/Mixed_5b/Branch_0/Conv2d_1x1/BatchNorm/moving_mean/Initializer/zeros"
  op: "Const"
  attr {
    key: "_class"
    value {
      list {
        s: "loc:@InceptionResnetV2/Mixed_5b/Branch_0/Conv2d_1x1/BatchNorm/moving_mean"
      }
    }
  }
  attr {
    key: "dtype"
    value {
      type: DT_FLOAT
    }
  }
  attr {
    key: "value"
    value {
      tensor {
        dtype: DT_FLOAT
        tensor_shape {
          dim {
            size: 96
          }
        }
        float_val: 0.0
      }
    }
  }
}
node {
  name: "InceptionResnetV2/Mixed_5b/Branch_0/Conv2d_1x1/BatchNorm/moving_mean"
  op: "VariableV2"
  attr {
    key: "_class"
    value {
      list {
        s: "loc:@InceptionResnetV2/Mixed_5b/Branch_0/Conv2d_1x1/BatchNorm/moving_mean"
      }
    }
  }
  attr {
    key: "container"
    value {
      s: ""
    }
  }
  attr {
    key: "dtype"
    value {
      type: DT_FLOAT
    }
  }
  attr {
    key: "shape"
    value {
      shape {
        dim {
          size: 96
        }
      }
    }
  }
  attr {
    key: "shared_name"
    value {
      s: ""
    }
  }
}
node {
  name: "InceptionResnetV2/Mixed_5b/Branch_0/Conv2d_1x1/BatchNorm/moving_mean/Assign"
  op: "Assign"
  input: "InceptionResnetV2/Mixed_5b/Branch_0/Conv2d_1x1/BatchNorm/moving_mean"
  input: "InceptionResnetV2/Mixed_5b/Branch_0/Conv2d_1x1/BatchNorm/moving_mean/Initializer/zeros"
  attr {
    key: "T"
    value {
      type: DT_FLOAT
    }
  }
  attr {
    key: "_class"
    value {
      list {
        s: "loc:@InceptionResnetV2/Mixed_5b/Branch_0/Conv2d_1x1/BatchNorm/moving_mean"
      }
    }
  }
  attr {
    key: "use_locking"
    value {
      b: true
    }
  }
  attr {
    key: "validate_shape"
    value {
      b: true
    }
  }
}
node {
  name: "InceptionResnetV2/Mixed_5b/Branch_0/Conv2d_1x1/BatchNorm/moving_mean/read"
  op: "Identity"
  input: "InceptionResnetV2/Mixed_5b/Branch_0/Conv2d_1x1/BatchNorm/moving_mean"
  attr {
    key: "T"
    value {
      type: DT_FLOAT
    }
  }
  attr {
    key: "_class"
    value {
      list {
        s: "loc:@InceptionResnetV2/Mixed_5b/Branch_0/Conv2d_1x1/BatchNorm/moving_mean"
      }
    }
  }
}
node {
  name: "InceptionResnetV2/Mixed_5b/Branch_0/Conv2d_1x1/BatchNorm/moving_variance/Initializer/ones"
  op: "Const"
  attr {
    key: "_class"
    value {
      list {
        s: "loc:@InceptionResnetV2/Mixed_5b/Branch_0/Conv2d_1x1/BatchNorm/moving_variance"
      }
    }
  }
  attr {
    key: "dtype"
    value {
      type: DT_FLOAT
    }
  }
  attr {
    key: "value"
    value {
      tensor {
        dtype: DT_FLOAT
        tensor_shape {
          dim {
            size: 96
          }
        }
        float_val: 1.0
      }
    }
  }
}
node {
  name: "InceptionResnetV2/Mixed_5b/Branch_0/Conv2d_1x1/BatchNorm/moving_variance"
  op: "VariableV2"
  attr {
    key: "_class"
    value {
      list {
        s: "loc:@InceptionResnetV2/Mixed_5b/Branch_0/Conv2d_1x1/BatchNorm/moving_variance"
      }
    }
  }
  attr {
    key: "container"
    value {
      s: ""
    }
  }
  attr {
    key: "dtype"
    value {
      type: DT_FLOAT
    }
  }
  attr {
    key: "shape"
    value {
      shape {
        dim {
          size: 96
        }
      }
    }
  }
  attr {
    key: "shared_name"
    value {
      s: ""
    }
  }
}
node {
  name: "InceptionResnetV2/Mixed_5b/Branch_0/Conv2d_1x1/BatchNorm/moving_variance/Assign"
  op: "Assign"
  input: "InceptionResnetV2/Mixed_5b/Branch_0/Conv2d_1x1/BatchNorm/moving_variance"
  input: "InceptionResnetV2/Mixed_5b/Branch_0/Conv2d_1x1/BatchNorm/moving_variance/Initializer/ones"
  attr {
    key: "T"
    value {
      type: DT_FLOAT
    }
  }
  attr {
    key: "_class"
    value {
      list {
        s: "loc:@InceptionResnetV2/Mixed_5b/Branch_0/Conv2d_1x1/BatchNorm/moving_variance"
      }
    }
  }
  attr {
    key: "use_locking"
    value {
      b: true
    }
  }
  attr {
    key: "validate_shape"
    value {
      b: true
    }
  }
}
node {
  name: "InceptionResnetV2/Mixed_5b/Branch_0/Conv2d_1x1/BatchNorm/moving_variance/read"
  op: "Identity"
  input: "InceptionResnetV2/Mixed_5b/Branch_0/Conv2d_1x1/BatchNorm/moving_variance"
  attr {
    key: "T"
    value {
      type: DT_FLOAT
    }
  }
  attr {
    key: "_class"
    value {
      list {
        s: "loc:@InceptionResnetV2/Mixed_5b/Branch_0/Conv2d_1x1/BatchNorm/moving_variance"
      }
    }
  }
}
node {
  name: "InceptionResnetV2/InceptionResnetV2/Mixed_5b/Branch_0/Conv2d_1x1/BatchNorm/FusedBatchNorm"
  op: "FusedBatchNorm"
  input: "InceptionResnetV2/InceptionResnetV2/Mixed_5b/Branch_0/Conv2d_1x1/Conv2D"
  input: "InceptionResnetV2/InceptionResnetV2/Mixed_5b/Branch_0/Conv2d_1x1/BatchNorm/Const"
  input: "InceptionResnetV2/Mixed_5b/Branch_0/Conv2d_1x1/BatchNorm/beta/read"
  input: "InceptionResnetV2/Mixed_5b/Branch_0/Conv2d_1x1/BatchNorm/moving_mean/read"
  input: "InceptionResnetV2/Mixed_5b/Branch_0/Conv2d_1x1/BatchNorm/moving_variance/read"
  attr {
    key: "T"
    value {
      type: DT_FLOAT
    }
  }
  attr {
    key: "data_format"
    value {
      s: "NHWC"
    }
  }
  attr {
    key: "epsilon"
    value {
      f: 0.0010000000474974513
    }
  }
  attr {
    key: "is_training"
    value {
      b: false
    }
  }
}
node {
  name: "InceptionResnetV2/InceptionResnetV2/Mixed_5b/Branch_0/Conv2d_1x1/BatchNorm/Const_1"
  op: "Const"
  attr {
    key: "dtype"
    value {
      type: DT_FLOAT
    }
  }
  attr {
    key: "value"
    value {
      tensor {
        dtype: DT_FLOAT
        tensor_shape {
        }
        float_val: 0.9997000098228455
      }
    }
  }
}
node {
  name: "InceptionResnetV2/InceptionResnetV2/Mixed_5b/Branch_0/Conv2d_1x1/Relu"
  op: "Relu"
  input: "InceptionResnetV2/InceptionResnetV2/Mixed_5b/Branch_0/Conv2d_1x1/BatchNorm/FusedBatchNorm"
  attr {
    key: "T"
    value {
      type: DT_FLOAT
    }
  }
}
node {
  name: "InceptionResnetV2/Mixed_5b/Branch_1/Conv2d_0a_1x1/weights/Initializer/random_uniform/shape"
  op: "Const"
  attr {
    key: "_class"
    value {
      list {
        s: "loc:@InceptionResnetV2/Mixed_5b/Branch_1/Conv2d_0a_1x1/weights"
      }
    }
  }
  attr {
    key: "dtype"
    value {
      type: DT_INT32
    }
  }
  attr {
    key: "value"
    value {
      tensor {
        dtype: DT_INT32
        tensor_shape {
          dim {
            size: 4
          }
        }
        tensor_content: "\001\000\000\000\001\000\000\000\300\000\000\0000\000\000\000"
      }
    }
  }
}
node {
  name: "InceptionResnetV2/Mixed_5b/Branch_1/Conv2d_0a_1x1/weights/Initializer/random_uniform/min"
  op: "Const"
  attr {
    key: "_class"
    value {
      list {
        s: "loc:@InceptionResnetV2/Mixed_5b/Branch_1/Conv2d_0a_1x1/weights"
      }
    }
  }
  attr {
    key: "dtype"
    value {
      type: DT_FLOAT
    }
  }
  attr {
    key: "value"
    value {
      tensor {
        dtype: DT_FLOAT
        tensor_shape {
        }
        float_val: -0.15811388194561005
      }
    }
  }
}
node {
  name: "InceptionResnetV2/Mixed_5b/Branch_1/Conv2d_0a_1x1/weights/Initializer/random_uniform/max"
  op: "Const"
  attr {
    key: "_class"
    value {
      list {
        s: "loc:@InceptionResnetV2/Mixed_5b/Branch_1/Conv2d_0a_1x1/weights"
      }
    }
  }
  attr {
    key: "dtype"
    value {
      type: DT_FLOAT
    }
  }
  attr {
    key: "value"
    value {
      tensor {
        dtype: DT_FLOAT
        tensor_shape {
        }
        float_val: 0.15811388194561005
      }
    }
  }
}
node {
  name: "InceptionResnetV2/Mixed_5b/Branch_1/Conv2d_0a_1x1/weights/Initializer/random_uniform/RandomUniform"
  op: "RandomUniform"
  input: "InceptionResnetV2/Mixed_5b/Branch_1/Conv2d_0a_1x1/weights/Initializer/random_uniform/shape"
  attr {
    key: "T"
    value {
      type: DT_INT32
    }
  }
  attr {
    key: "_class"
    value {
      list {
        s: "loc:@InceptionResnetV2/Mixed_5b/Branch_1/Conv2d_0a_1x1/weights"
      }
    }
  }
  attr {
    key: "dtype"
    value {
      type: DT_FLOAT
    }
  }
  attr {
    key: "seed"
    value {
      i: 0
    }
  }
  attr {
    key: "seed2"
    value {
      i: 0
    }
  }
}
node {
  name: "InceptionResnetV2/Mixed_5b/Branch_1/Conv2d_0a_1x1/weights/Initializer/random_uniform/sub"
  op: "Sub"
  input: "InceptionResnetV2/Mixed_5b/Branch_1/Conv2d_0a_1x1/weights/Initializer/random_uniform/max"
  input: "InceptionResnetV2/Mixed_5b/Branch_1/Conv2d_0a_1x1/weights/Initializer/random_uniform/min"
  attr {
    key: "T"
    value {
      type: DT_FLOAT
    }
  }
  attr {
    key: "_class"
    value {
      list {
        s: "loc:@InceptionResnetV2/Mixed_5b/Branch_1/Conv2d_0a_1x1/weights"
      }
    }
  }
}
node {
  name: "InceptionResnetV2/Mixed_5b/Branch_1/Conv2d_0a_1x1/weights/Initializer/random_uniform/mul"
  op: "Mul"
  input: "InceptionResnetV2/Mixed_5b/Branch_1/Conv2d_0a_1x1/weights/Initializer/random_uniform/RandomUniform"
  input: "InceptionResnetV2/Mixed_5b/Branch_1/Conv2d_0a_1x1/weights/Initializer/random_uniform/sub"
  attr {
    key: "T"
    value {
      type: DT_FLOAT
    }
  }
  attr {
    key: "_class"
    value {
      list {
        s: "loc:@InceptionResnetV2/Mixed_5b/Branch_1/Conv2d_0a_1x1/weights"
      }
    }
  }
}
node {
  name: "InceptionResnetV2/Mixed_5b/Branch_1/Conv2d_0a_1x1/weights/Initializer/random_uniform"
  op: "Add"
  input: "InceptionResnetV2/Mixed_5b/Branch_1/Conv2d_0a_1x1/weights/Initializer/random_uniform/mul"
  input: "InceptionResnetV2/Mixed_5b/Branch_1/Conv2d_0a_1x1/weights/Initializer/random_uniform/min"
  attr {
    key: "T"
    value {
      type: DT_FLOAT
    }
  }
  attr {
    key: "_class"
    value {
      list {
        s: "loc:@InceptionResnetV2/Mixed_5b/Branch_1/Conv2d_0a_1x1/weights"
      }
    }
  }
}
node {
  name: "InceptionResnetV2/Mixed_5b/Branch_1/Conv2d_0a_1x1/weights"
  op: "VariableV2"
  attr {
    key: "_class"
    value {
      list {
        s: "loc:@InceptionResnetV2/Mixed_5b/Branch_1/Conv2d_0a_1x1/weights"
      }
    }
  }
  attr {
    key: "container"
    value {
      s: ""
    }
  }
  attr {
    key: "dtype"
    value {
      type: DT_FLOAT
    }
  }
  attr {
    key: "shape"
    value {
      shape {
        dim {
          size: 1
        }
        dim {
          size: 1
        }
        dim {
          size: 192
        }
        dim {
          size: 48
        }
      }
    }
  }
  attr {
    key: "shared_name"
    value {
      s: ""
    }
  }
}
node {
  name: "InceptionResnetV2/Mixed_5b/Branch_1/Conv2d_0a_1x1/weights/Assign"
  op: "Assign"
  input: "InceptionResnetV2/Mixed_5b/Branch_1/Conv2d_0a_1x1/weights"
  input: "InceptionResnetV2/Mixed_5b/Branch_1/Conv2d_0a_1x1/weights/Initializer/random_uniform"
  attr {
    key: "T"
    value {
      type: DT_FLOAT
    }
  }
  attr {
    key: "_class"
    value {
      list {
        s: "loc:@InceptionResnetV2/Mixed_5b/Branch_1/Conv2d_0a_1x1/weights"
      }
    }
  }
  attr {
    key: "use_locking"
    value {
      b: true
    }
  }
  attr {
    key: "validate_shape"
    value {
      b: true
    }
  }
}
node {
  name: "InceptionResnetV2/Mixed_5b/Branch_1/Conv2d_0a_1x1/weights/read"
  op: "Identity"
  input: "InceptionResnetV2/Mixed_5b/Branch_1/Conv2d_0a_1x1/weights"
  attr {
    key: "T"
    value {
      type: DT_FLOAT
    }
  }
  attr {
    key: "_class"
    value {
      list {
        s: "loc:@InceptionResnetV2/Mixed_5b/Branch_1/Conv2d_0a_1x1/weights"
      }
    }
  }
}
node {
  name: "InceptionResnetV2/InceptionResnetV2/Mixed_5b/Branch_1/Conv2d_0a_1x1/dilation_rate"
  op: "Const"
  attr {
    key: "dtype"
    value {
      type: DT_INT32
    }
  }
  attr {
    key: "value"
    value {
      tensor {
        dtype: DT_INT32
        tensor_shape {
          dim {
            size: 2
          }
        }
        tensor_content: "\001\000\000\000\001\000\000\000"
      }
    }
  }
}
node {
  name: "InceptionResnetV2/InceptionResnetV2/Mixed_5b/Branch_1/Conv2d_0a_1x1/Conv2D"
  op: "Conv2D"
  input: "InceptionResnetV2/InceptionResnetV2/MaxPool_5a_3x3/MaxPool"
  input: "InceptionResnetV2/Mixed_5b/Branch_1/Conv2d_0a_1x1/weights/read"
  attr {
    key: "T"
    value {
      type: DT_FLOAT
    }
  }
  attr {
    key: "data_format"
    value {
      s: "NHWC"
    }
  }
  attr {
    key: "dilations"
    value {
      list {
        i: 1
        i: 1
        i: 1
        i: 1
      }
    }
  }
  attr {
    key: "padding"
    value {
      s: "SAME"
    }
  }
  attr {
    key: "strides"
    value {
      list {
        i: 1
        i: 1
        i: 1
        i: 1
      }
    }
  }
  attr {
    key: "use_cudnn_on_gpu"
    value {
      b: true
    }
  }
}
node {
  name: "InceptionResnetV2/InceptionResnetV2/Mixed_5b/Branch_1/Conv2d_0a_1x1/BatchNorm/Const"
  op: "Const"
  attr {
    key: "dtype"
    value {
      type: DT_FLOAT
    }
  }
  attr {
    key: "value"
    value {
      tensor {
        dtype: DT_FLOAT
        tensor_shape {
          dim {
            size: 48
          }
        }
        float_val: 1.0
      }
    }
  }
}
node {
  name: "InceptionResnetV2/Mixed_5b/Branch_1/Conv2d_0a_1x1/BatchNorm/beta/Initializer/zeros"
  op: "Const"
  attr {
    key: "_class"
    value {
      list {
        s: "loc:@InceptionResnetV2/Mixed_5b/Branch_1/Conv2d_0a_1x1/BatchNorm/beta"
      }
    }
  }
  attr {
    key: "dtype"
    value {
      type: DT_FLOAT
    }
  }
  attr {
    key: "value"
    value {
      tensor {
        dtype: DT_FLOAT
        tensor_shape {
          dim {
            size: 48
          }
        }
        float_val: 0.0
      }
    }
  }
}
node {
  name: "InceptionResnetV2/Mixed_5b/Branch_1/Conv2d_0a_1x1/BatchNorm/beta"
  op: "VariableV2"
  attr {
    key: "_class"
    value {
      list {
        s: "loc:@InceptionResnetV2/Mixed_5b/Branch_1/Conv2d_0a_1x1/BatchNorm/beta"
      }
    }
  }
  attr {
    key: "container"
    value {
      s: ""
    }
  }
  attr {
    key: "dtype"
    value {
      type: DT_FLOAT
    }
  }
  attr {
    key: "shape"
    value {
      shape {
        dim {
          size: 48
        }
      }
    }
  }
  attr {
    key: "shared_name"
    value {
      s: ""
    }
  }
}
node {
  name: "InceptionResnetV2/Mixed_5b/Branch_1/Conv2d_0a_1x1/BatchNorm/beta/Assign"
  op: "Assign"
  input: "InceptionResnetV2/Mixed_5b/Branch_1/Conv2d_0a_1x1/BatchNorm/beta"
  input: "InceptionResnetV2/Mixed_5b/Branch_1/Conv2d_0a_1x1/BatchNorm/beta/Initializer/zeros"
  attr {
    key: "T"
    value {
      type: DT_FLOAT
    }
  }
  attr {
    key: "_class"
    value {
      list {
        s: "loc:@InceptionResnetV2/Mixed_5b/Branch_1/Conv2d_0a_1x1/BatchNorm/beta"
      }
    }
  }
  attr {
    key: "use_locking"
    value {
      b: true
    }
  }
  attr {
    key: "validate_shape"
    value {
      b: true
    }
  }
}
node {
  name: "InceptionResnetV2/Mixed_5b/Branch_1/Conv2d_0a_1x1/BatchNorm/beta/read"
  op: "Identity"
  input: "InceptionResnetV2/Mixed_5b/Branch_1/Conv2d_0a_1x1/BatchNorm/beta"
  attr {
    key: "T"
    value {
      type: DT_FLOAT
    }
  }
  attr {
    key: "_class"
    value {
      list {
        s: "loc:@InceptionResnetV2/Mixed_5b/Branch_1/Conv2d_0a_1x1/BatchNorm/beta"
      }
    }
  }
}
node {
  name: "InceptionResnetV2/Mixed_5b/Branch_1/Conv2d_0a_1x1/BatchNorm/moving_mean/Initializer/zeros"
  op: "Const"
  attr {
    key: "_class"
    value {
      list {
        s: "loc:@InceptionResnetV2/Mixed_5b/Branch_1/Conv2d_0a_1x1/BatchNorm/moving_mean"
      }
    }
  }
  attr {
    key: "dtype"
    value {
      type: DT_FLOAT
    }
  }
  attr {
    key: "value"
    value {
      tensor {
        dtype: DT_FLOAT
        tensor_shape {
          dim {
            size: 48
          }
        }
        float_val: 0.0
      }
    }
  }
}
node {
  name: "InceptionResnetV2/Mixed_5b/Branch_1/Conv2d_0a_1x1/BatchNorm/moving_mean"
  op: "VariableV2"
  attr {
    key: "_class"
    value {
      list {
        s: "loc:@InceptionResnetV2/Mixed_5b/Branch_1/Conv2d_0a_1x1/BatchNorm/moving_mean"
      }
    }
  }
  attr {
    key: "container"
    value {
      s: ""
    }
  }
  attr {
    key: "dtype"
    value {
      type: DT_FLOAT
    }
  }
  attr {
    key: "shape"
    value {
      shape {
        dim {
          size: 48
        }
      }
    }
  }
  attr {
    key: "shared_name"
    value {
      s: ""
    }
  }
}
node {
  name: "InceptionResnetV2/Mixed_5b/Branch_1/Conv2d_0a_1x1/BatchNorm/moving_mean/Assign"
  op: "Assign"
  input: "InceptionResnetV2/Mixed_5b/Branch_1/Conv2d_0a_1x1/BatchNorm/moving_mean"
  input: "InceptionResnetV2/Mixed_5b/Branch_1/Conv2d_0a_1x1/BatchNorm/moving_mean/Initializer/zeros"
  attr {
    key: "T"
    value {
      type: DT_FLOAT
    }
  }
  attr {
    key: "_class"
    value {
      list {
        s: "loc:@InceptionResnetV2/Mixed_5b/Branch_1/Conv2d_0a_1x1/BatchNorm/moving_mean"
      }
    }
  }
  attr {
    key: "use_locking"
    value {
      b: true
    }
  }
  attr {
    key: "validate_shape"
    value {
      b: true
    }
  }
}
node {
  name: "InceptionResnetV2/Mixed_5b/Branch_1/Conv2d_0a_1x1/BatchNorm/moving_mean/read"
  op: "Identity"
  input: "InceptionResnetV2/Mixed_5b/Branch_1/Conv2d_0a_1x1/BatchNorm/moving_mean"
  attr {
    key: "T"
    value {
      type: DT_FLOAT
    }
  }
  attr {
    key: "_class"
    value {
      list {
        s: "loc:@InceptionResnetV2/Mixed_5b/Branch_1/Conv2d_0a_1x1/BatchNorm/moving_mean"
      }
    }
  }
}
node {
  name: "InceptionResnetV2/Mixed_5b/Branch_1/Conv2d_0a_1x1/BatchNorm/moving_variance/Initializer/ones"
  op: "Const"
  attr {
    key: "_class"
    value {
      list {
        s: "loc:@InceptionResnetV2/Mixed_5b/Branch_1/Conv2d_0a_1x1/BatchNorm/moving_variance"
      }
    }
  }
  attr {
    key: "dtype"
    value {
      type: DT_FLOAT
    }
  }
  attr {
    key: "value"
    value {
      tensor {
        dtype: DT_FLOAT
        tensor_shape {
          dim {
            size: 48
          }
        }
        float_val: 1.0
      }
    }
  }
}
node {
  name: "InceptionResnetV2/Mixed_5b/Branch_1/Conv2d_0a_1x1/BatchNorm/moving_variance"
  op: "VariableV2"
  attr {
    key: "_class"
    value {
      list {
        s: "loc:@InceptionResnetV2/Mixed_5b/Branch_1/Conv2d_0a_1x1/BatchNorm/moving_variance"
      }
    }
  }
  attr {
    key: "container"
    value {
      s: ""
    }
  }
  attr {
    key: "dtype"
    value {
      type: DT_FLOAT
    }
  }
  attr {
    key: "shape"
    value {
      shape {
        dim {
          size: 48
        }
      }
    }
  }
  attr {
    key: "shared_name"
    value {
      s: ""
    }
  }
}
node {
  name: "InceptionResnetV2/Mixed_5b/Branch_1/Conv2d_0a_1x1/BatchNorm/moving_variance/Assign"
  op: "Assign"
  input: "InceptionResnetV2/Mixed_5b/Branch_1/Conv2d_0a_1x1/BatchNorm/moving_variance"
  input: "InceptionResnetV2/Mixed_5b/Branch_1/Conv2d_0a_1x1/BatchNorm/moving_variance/Initializer/ones"
  attr {
    key: "T"
    value {
      type: DT_FLOAT
    }
  }
  attr {
    key: "_class"
    value {
      list {
        s: "loc:@InceptionResnetV2/Mixed_5b/Branch_1/Conv2d_0a_1x1/BatchNorm/moving_variance"
      }
    }
  }
  attr {
    key: "use_locking"
    value {
      b: true
    }
  }
  attr {
    key: "validate_shape"
    value {
      b: true
    }
  }
}
node {
  name: "InceptionResnetV2/Mixed_5b/Branch_1/Conv2d_0a_1x1/BatchNorm/moving_variance/read"
  op: "Identity"
  input: "InceptionResnetV2/Mixed_5b/Branch_1/Conv2d_0a_1x1/BatchNorm/moving_variance"
  attr {
    key: "T"
    value {
      type: DT_FLOAT
    }
  }
  attr {
    key: "_class"
    value {
      list {
        s: "loc:@InceptionResnetV2/Mixed_5b/Branch_1/Conv2d_0a_1x1/BatchNorm/moving_variance"
      }
    }
  }
}
node {
  name: "InceptionResnetV2/InceptionResnetV2/Mixed_5b/Branch_1/Conv2d_0a_1x1/BatchNorm/FusedBatchNorm"
  op: "FusedBatchNorm"
  input: "InceptionResnetV2/InceptionResnetV2/Mixed_5b/Branch_1/Conv2d_0a_1x1/Conv2D"
  input: "InceptionResnetV2/InceptionResnetV2/Mixed_5b/Branch_1/Conv2d_0a_1x1/BatchNorm/Const"
  input: "InceptionResnetV2/Mixed_5b/Branch_1/Conv2d_0a_1x1/BatchNorm/beta/read"
  input: "InceptionResnetV2/Mixed_5b/Branch_1/Conv2d_0a_1x1/BatchNorm/moving_mean/read"
  input: "InceptionResnetV2/Mixed_5b/Branch_1/Conv2d_0a_1x1/BatchNorm/moving_variance/read"
  attr {
    key: "T"
    value {
      type: DT_FLOAT
    }
  }
  attr {
    key: "data_format"
    value {
      s: "NHWC"
    }
  }
  attr {
    key: "epsilon"
    value {
      f: 0.0010000000474974513
    }
  }
  attr {
    key: "is_training"
    value {
      b: false
    }
  }
}
node {
  name: "InceptionResnetV2/InceptionResnetV2/Mixed_5b/Branch_1/Conv2d_0a_1x1/BatchNorm/Const_1"
  op: "Const"
  attr {
    key: "dtype"
    value {
      type: DT_FLOAT
    }
  }
  attr {
    key: "value"
    value {
      tensor {
        dtype: DT_FLOAT
        tensor_shape {
        }
        float_val: 0.9997000098228455
      }
    }
  }
}
node {
  name: "InceptionResnetV2/InceptionResnetV2/Mixed_5b/Branch_1/Conv2d_0a_1x1/Relu"
  op: "Relu"
  input: "InceptionResnetV2/InceptionResnetV2/Mixed_5b/Branch_1/Conv2d_0a_1x1/BatchNorm/FusedBatchNorm"
  attr {
    key: "T"
    value {
      type: DT_FLOAT
    }
  }
}
node {
  name: "InceptionResnetV2/Mixed_5b/Branch_1/Conv2d_0b_5x5/weights/Initializer/random_uniform/shape"
  op: "Const"
  attr {
    key: "_class"
    value {
      list {
        s: "loc:@InceptionResnetV2/Mixed_5b/Branch_1/Conv2d_0b_5x5/weights"
      }
    }
  }
  attr {
    key: "dtype"
    value {
      type: DT_INT32
    }
  }
  attr {
    key: "value"
    value {
      tensor {
        dtype: DT_INT32
        tensor_shape {
          dim {
            size: 4
          }
        }
        tensor_content: "\005\000\000\000\005\000\000\0000\000\000\000@\000\000\000"
      }
    }
  }
}
node {
  name: "InceptionResnetV2/Mixed_5b/Branch_1/Conv2d_0b_5x5/weights/Initializer/random_uniform/min"
  op: "Const"
  attr {
    key: "_class"
    value {
      list {
        s: "loc:@InceptionResnetV2/Mixed_5b/Branch_1/Conv2d_0b_5x5/weights"
      }
    }
  }
  attr {
    key: "dtype"
    value {
      type: DT_FLOAT
    }
  }
  attr {
    key: "value"
    value {
      tensor {
        dtype: DT_FLOAT
        tensor_shape {
        }
        float_val: -0.04629100486636162
      }
    }
  }
}
node {
  name: "InceptionResnetV2/Mixed_5b/Branch_1/Conv2d_0b_5x5/weights/Initializer/random_uniform/max"
  op: "Const"
  attr {
    key: "_class"
    value {
      list {
        s: "loc:@InceptionResnetV2/Mixed_5b/Branch_1/Conv2d_0b_5x5/weights"
      }
    }
  }
  attr {
    key: "dtype"
    value {
      type: DT_FLOAT
    }
  }
  attr {
    key: "value"
    value {
      tensor {
        dtype: DT_FLOAT
        tensor_shape {
        }
        float_val: 0.04629100486636162
      }
    }
  }
}
node {
  name: "InceptionResnetV2/Mixed_5b/Branch_1/Conv2d_0b_5x5/weights/Initializer/random_uniform/RandomUniform"
  op: "RandomUniform"
  input: "InceptionResnetV2/Mixed_5b/Branch_1/Conv2d_0b_5x5/weights/Initializer/random_uniform/shape"
  attr {
    key: "T"
    value {
      type: DT_INT32
    }
  }
  attr {
    key: "_class"
    value {
      list {
        s: "loc:@InceptionResnetV2/Mixed_5b/Branch_1/Conv2d_0b_5x5/weights"
      }
    }
  }
  attr {
    key: "dtype"
    value {
      type: DT_FLOAT
    }
  }
  attr {
    key: "seed"
    value {
      i: 0
    }
  }
  attr {
    key: "seed2"
    value {
      i: 0
    }
  }
}
node {
  name: "InceptionResnetV2/Mixed_5b/Branch_1/Conv2d_0b_5x5/weights/Initializer/random_uniform/sub"
  op: "Sub"
  input: "InceptionResnetV2/Mixed_5b/Branch_1/Conv2d_0b_5x5/weights/Initializer/random_uniform/max"
  input: "InceptionResnetV2/Mixed_5b/Branch_1/Conv2d_0b_5x5/weights/Initializer/random_uniform/min"
  attr {
    key: "T"
    value {
      type: DT_FLOAT
    }
  }
  attr {
    key: "_class"
    value {
      list {
        s: "loc:@InceptionResnetV2/Mixed_5b/Branch_1/Conv2d_0b_5x5/weights"
      }
    }
  }
}
node {
  name: "InceptionResnetV2/Mixed_5b/Branch_1/Conv2d_0b_5x5/weights/Initializer/random_uniform/mul"
  op: "Mul"
  input: "InceptionResnetV2/Mixed_5b/Branch_1/Conv2d_0b_5x5/weights/Initializer/random_uniform/RandomUniform"
  input: "InceptionResnetV2/Mixed_5b/Branch_1/Conv2d_0b_5x5/weights/Initializer/random_uniform/sub"
  attr {
    key: "T"
    value {
      type: DT_FLOAT
    }
  }
  attr {
    key: "_class"
    value {
      list {
        s: "loc:@InceptionResnetV2/Mixed_5b/Branch_1/Conv2d_0b_5x5/weights"
      }
    }
  }
}
node {
  name: "InceptionResnetV2/Mixed_5b/Branch_1/Conv2d_0b_5x5/weights/Initializer/random_uniform"
  op: "Add"
  input: "InceptionResnetV2/Mixed_5b/Branch_1/Conv2d_0b_5x5/weights/Initializer/random_uniform/mul"
  input: "InceptionResnetV2/Mixed_5b/Branch_1/Conv2d_0b_5x5/weights/Initializer/random_uniform/min"
  attr {
    key: "T"
    value {
      type: DT_FLOAT
    }
  }
  attr {
    key: "_class"
    value {
      list {
        s: "loc:@InceptionResnetV2/Mixed_5b/Branch_1/Conv2d_0b_5x5/weights"
      }
    }
  }
}
node {
  name: "InceptionResnetV2/Mixed_5b/Branch_1/Conv2d_0b_5x5/weights"
  op: "VariableV2"
  attr {
    key: "_class"
    value {
      list {
        s: "loc:@InceptionResnetV2/Mixed_5b/Branch_1/Conv2d_0b_5x5/weights"
      }
    }
  }
  attr {
    key: "container"
    value {
      s: ""
    }
  }
  attr {
    key: "dtype"
    value {
      type: DT_FLOAT
    }
  }
  attr {
    key: "shape"
    value {
      shape {
        dim {
          size: 5
        }
        dim {
          size: 5
        }
        dim {
          size: 48
        }
        dim {
          size: 64
        }
      }
    }
  }
  attr {
    key: "shared_name"
    value {
      s: ""
    }
  }
}
node {
  name: "InceptionResnetV2/Mixed_5b/Branch_1/Conv2d_0b_5x5/weights/Assign"
  op: "Assign"
  input: "InceptionResnetV2/Mixed_5b/Branch_1/Conv2d_0b_5x5/weights"
  input: "InceptionResnetV2/Mixed_5b/Branch_1/Conv2d_0b_5x5/weights/Initializer/random_uniform"
  attr {
    key: "T"
    value {
      type: DT_FLOAT
    }
  }
  attr {
    key: "_class"
    value {
      list {
        s: "loc:@InceptionResnetV2/Mixed_5b/Branch_1/Conv2d_0b_5x5/weights"
      }
    }
  }
  attr {
    key: "use_locking"
    value {
      b: true
    }
  }
  attr {
    key: "validate_shape"
    value {
      b: true
    }
  }
}
node {
  name: "InceptionResnetV2/Mixed_5b/Branch_1/Conv2d_0b_5x5/weights/read"
  op: "Identity"
  input: "InceptionResnetV2/Mixed_5b/Branch_1/Conv2d_0b_5x5/weights"
  attr {
    key: "T"
    value {
      type: DT_FLOAT
    }
  }
  attr {
    key: "_class"
    value {
      list {
        s: "loc:@InceptionResnetV2/Mixed_5b/Branch_1/Conv2d_0b_5x5/weights"
      }
    }
  }
}
node {
  name: "InceptionResnetV2/InceptionResnetV2/Mixed_5b/Branch_1/Conv2d_0b_5x5/dilation_rate"
  op: "Const"
  attr {
    key: "dtype"
    value {
      type: DT_INT32
    }
  }
  attr {
    key: "value"
    value {
      tensor {
        dtype: DT_INT32
        tensor_shape {
          dim {
            size: 2
          }
        }
        tensor_content: "\001\000\000\000\001\000\000\000"
      }
    }
  }
}
node {
  name: "InceptionResnetV2/InceptionResnetV2/Mixed_5b/Branch_1/Conv2d_0b_5x5/Conv2D"
  op: "Conv2D"
  input: "InceptionResnetV2/InceptionResnetV2/Mixed_5b/Branch_1/Conv2d_0a_1x1/Relu"
  input: "InceptionResnetV2/Mixed_5b/Branch_1/Conv2d_0b_5x5/weights/read"
  attr {
    key: "T"
    value {
      type: DT_FLOAT
    }
  }
  attr {
    key: "data_format"
    value {
      s: "NHWC"
    }
  }
  attr {
    key: "dilations"
    value {
      list {
        i: 1
        i: 1
        i: 1
        i: 1
      }
    }
  }
  attr {
    key: "padding"
    value {
      s: "SAME"
    }
  }
  attr {
    key: "strides"
    value {
      list {
        i: 1
        i: 1
        i: 1
        i: 1
      }
    }
  }
  attr {
    key: "use_cudnn_on_gpu"
    value {
      b: true
    }
  }
}
node {
  name: "InceptionResnetV2/InceptionResnetV2/Mixed_5b/Branch_1/Conv2d_0b_5x5/BatchNorm/Const"
  op: "Const"
  attr {
    key: "dtype"
    value {
      type: DT_FLOAT
    }
  }
  attr {
    key: "value"
    value {
      tensor {
        dtype: DT_FLOAT
        tensor_shape {
          dim {
            size: 64
          }
        }
        float_val: 1.0
      }
    }
  }
}
node {
  name: "InceptionResnetV2/Mixed_5b/Branch_1/Conv2d_0b_5x5/BatchNorm/beta/Initializer/zeros"
  op: "Const"
  attr {
    key: "_class"
    value {
      list {
        s: "loc:@InceptionResnetV2/Mixed_5b/Branch_1/Conv2d_0b_5x5/BatchNorm/beta"
      }
    }
  }
  attr {
    key: "dtype"
    value {
      type: DT_FLOAT
    }
  }
  attr {
    key: "value"
    value {
      tensor {
        dtype: DT_FLOAT
        tensor_shape {
          dim {
            size: 64
          }
        }
        float_val: 0.0
      }
    }
  }
}
node {
  name: "InceptionResnetV2/Mixed_5b/Branch_1/Conv2d_0b_5x5/BatchNorm/beta"
  op: "VariableV2"
  attr {
    key: "_class"
    value {
      list {
        s: "loc:@InceptionResnetV2/Mixed_5b/Branch_1/Conv2d_0b_5x5/BatchNorm/beta"
      }
    }
  }
  attr {
    key: "container"
    value {
      s: ""
    }
  }
  attr {
    key: "dtype"
    value {
      type: DT_FLOAT
    }
  }
  attr {
    key: "shape"
    value {
      shape {
        dim {
          size: 64
        }
      }
    }
  }
  attr {
    key: "shared_name"
    value {
      s: ""
    }
  }
}
node {
  name: "InceptionResnetV2/Mixed_5b/Branch_1/Conv2d_0b_5x5/BatchNorm/beta/Assign"
  op: "Assign"
  input: "InceptionResnetV2/Mixed_5b/Branch_1/Conv2d_0b_5x5/BatchNorm/beta"
  input: "InceptionResnetV2/Mixed_5b/Branch_1/Conv2d_0b_5x5/BatchNorm/beta/Initializer/zeros"
  attr {
    key: "T"
    value {
      type: DT_FLOAT
    }
  }
  attr {
    key: "_class"
    value {
      list {
        s: "loc:@InceptionResnetV2/Mixed_5b/Branch_1/Conv2d_0b_5x5/BatchNorm/beta"
      }
    }
  }
  attr {
    key: "use_locking"
    value {
      b: true
    }
  }
  attr {
    key: "validate_shape"
    value {
      b: true
    }
  }
}
node {
  name: "InceptionResnetV2/Mixed_5b/Branch_1/Conv2d_0b_5x5/BatchNorm/beta/read"
  op: "Identity"
  input: "InceptionResnetV2/Mixed_5b/Branch_1/Conv2d_0b_5x5/BatchNorm/beta"
  attr {
    key: "T"
    value {
      type: DT_FLOAT
    }
  }
  attr {
    key: "_class"
    value {
      list {
        s: "loc:@InceptionResnetV2/Mixed_5b/Branch_1/Conv2d_0b_5x5/BatchNorm/beta"
      }
    }
  }
}
node {
  name: "InceptionResnetV2/Mixed_5b/Branch_1/Conv2d_0b_5x5/BatchNorm/moving_mean/Initializer/zeros"
  op: "Const"
  attr {
    key: "_class"
    value {
      list {
        s: "loc:@InceptionResnetV2/Mixed_5b/Branch_1/Conv2d_0b_5x5/BatchNorm/moving_mean"
      }
    }
  }
  attr {
    key: "dtype"
    value {
      type: DT_FLOAT
    }
  }
  attr {
    key: "value"
    value {
      tensor {
        dtype: DT_FLOAT
        tensor_shape {
          dim {
            size: 64
          }
        }
        float_val: 0.0
      }
    }
  }
}
node {
  name: "InceptionResnetV2/Mixed_5b/Branch_1/Conv2d_0b_5x5/BatchNorm/moving_mean"
  op: "VariableV2"
  attr {
    key: "_class"
    value {
      list {
        s: "loc:@InceptionResnetV2/Mixed_5b/Branch_1/Conv2d_0b_5x5/BatchNorm/moving_mean"
      }
    }
  }
  attr {
    key: "container"
    value {
      s: ""
    }
  }
  attr {
    key: "dtype"
    value {
      type: DT_FLOAT
    }
  }
  attr {
    key: "shape"
    value {
      shape {
        dim {
          size: 64
        }
      }
    }
  }
  attr {
    key: "shared_name"
    value {
      s: ""
    }
  }
}
node {
  name: "InceptionResnetV2/Mixed_5b/Branch_1/Conv2d_0b_5x5/BatchNorm/moving_mean/Assign"
  op: "Assign"
  input: "InceptionResnetV2/Mixed_5b/Branch_1/Conv2d_0b_5x5/BatchNorm/moving_mean"
  input: "InceptionResnetV2/Mixed_5b/Branch_1/Conv2d_0b_5x5/BatchNorm/moving_mean/Initializer/zeros"
  attr {
    key: "T"
    value {
      type: DT_FLOAT
    }
  }
  attr {
    key: "_class"
    value {
      list {
        s: "loc:@InceptionResnetV2/Mixed_5b/Branch_1/Conv2d_0b_5x5/BatchNorm/moving_mean"
      }
    }
  }
  attr {
    key: "use_locking"
    value {
      b: true
    }
  }
  attr {
    key: "validate_shape"
    value {
      b: true
    }
  }
}
node {
  name: "InceptionResnetV2/Mixed_5b/Branch_1/Conv2d_0b_5x5/BatchNorm/moving_mean/read"
  op: "Identity"
  input: "InceptionResnetV2/Mixed_5b/Branch_1/Conv2d_0b_5x5/BatchNorm/moving_mean"
  attr {
    key: "T"
    value {
      type: DT_FLOAT
    }
  }
  attr {
    key: "_class"
    value {
      list {
        s: "loc:@InceptionResnetV2/Mixed_5b/Branch_1/Conv2d_0b_5x5/BatchNorm/moving_mean"
      }
    }
  }
}
node {
  name: "InceptionResnetV2/Mixed_5b/Branch_1/Conv2d_0b_5x5/BatchNorm/moving_variance/Initializer/ones"
  op: "Const"
  attr {
    key: "_class"
    value {
      list {
        s: "loc:@InceptionResnetV2/Mixed_5b/Branch_1/Conv2d_0b_5x5/BatchNorm/moving_variance"
      }
    }
  }
  attr {
    key: "dtype"
    value {
      type: DT_FLOAT
    }
  }
  attr {
    key: "value"
    value {
      tensor {
        dtype: DT_FLOAT
        tensor_shape {
          dim {
            size: 64
          }
        }
        float_val: 1.0
      }
    }
  }
}
node {
  name: "InceptionResnetV2/Mixed_5b/Branch_1/Conv2d_0b_5x5/BatchNorm/moving_variance"
  op: "VariableV2"
  attr {
    key: "_class"
    value {
      list {
        s: "loc:@InceptionResnetV2/Mixed_5b/Branch_1/Conv2d_0b_5x5/BatchNorm/moving_variance"
      }
    }
  }
  attr {
    key: "container"
    value {
      s: ""
    }
  }
  attr {
    key: "dtype"
    value {
      type: DT_FLOAT
    }
  }
  attr {
    key: "shape"
    value {
      shape {
        dim {
          size: 64
        }
      }
    }
  }
  attr {
    key: "shared_name"
    value {
      s: ""
    }
  }
}
node {
  name: "InceptionResnetV2/Mixed_5b/Branch_1/Conv2d_0b_5x5/BatchNorm/moving_variance/Assign"
  op: "Assign"
  input: "InceptionResnetV2/Mixed_5b/Branch_1/Conv2d_0b_5x5/BatchNorm/moving_variance"
  input: "InceptionResnetV2/Mixed_5b/Branch_1/Conv2d_0b_5x5/BatchNorm/moving_variance/Initializer/ones"
  attr {
    key: "T"
    value {
      type: DT_FLOAT
    }
  }
  attr {
    key: "_class"
    value {
      list {
        s: "loc:@InceptionResnetV2/Mixed_5b/Branch_1/Conv2d_0b_5x5/BatchNorm/moving_variance"
      }
    }
  }
  attr {
    key: "use_locking"
    value {
      b: true
    }
  }
  attr {
    key: "validate_shape"
    value {
      b: true
    }
  }
}
node {
  name: "InceptionResnetV2/Mixed_5b/Branch_1/Conv2d_0b_5x5/BatchNorm/moving_variance/read"
  op: "Identity"
  input: "InceptionResnetV2/Mixed_5b/Branch_1/Conv2d_0b_5x5/BatchNorm/moving_variance"
  attr {
    key: "T"
    value {
      type: DT_FLOAT
    }
  }
  attr {
    key: "_class"
    value {
      list {
        s: "loc:@InceptionResnetV2/Mixed_5b/Branch_1/Conv2d_0b_5x5/BatchNorm/moving_variance"
      }
    }
  }
}
node {
  name: "InceptionResnetV2/InceptionResnetV2/Mixed_5b/Branch_1/Conv2d_0b_5x5/BatchNorm/FusedBatchNorm"
  op: "FusedBatchNorm"
  input: "InceptionResnetV2/InceptionResnetV2/Mixed_5b/Branch_1/Conv2d_0b_5x5/Conv2D"
  input: "InceptionResnetV2/InceptionResnetV2/Mixed_5b/Branch_1/Conv2d_0b_5x5/BatchNorm/Const"
  input: "InceptionResnetV2/Mixed_5b/Branch_1/Conv2d_0b_5x5/BatchNorm/beta/read"
  input: "InceptionResnetV2/Mixed_5b/Branch_1/Conv2d_0b_5x5/BatchNorm/moving_mean/read"
  input: "InceptionResnetV2/Mixed_5b/Branch_1/Conv2d_0b_5x5/BatchNorm/moving_variance/read"
  attr {
    key: "T"
    value {
      type: DT_FLOAT
    }
  }
  attr {
    key: "data_format"
    value {
      s: "NHWC"
    }
  }
  attr {
    key: "epsilon"
    value {
      f: 0.0010000000474974513
    }
  }
  attr {
    key: "is_training"
    value {
      b: false
    }
  }
}
node {
  name: "InceptionResnetV2/InceptionResnetV2/Mixed_5b/Branch_1/Conv2d_0b_5x5/BatchNorm/Const_1"
  op: "Const"
  attr {
    key: "dtype"
    value {
      type: DT_FLOAT
    }
  }
  attr {
    key: "value"
    value {
      tensor {
        dtype: DT_FLOAT
        tensor_shape {
        }
        float_val: 0.9997000098228455
      }
    }
  }
}
node {
  name: "InceptionResnetV2/InceptionResnetV2/Mixed_5b/Branch_1/Conv2d_0b_5x5/Relu"
  op: "Relu"
  input: "InceptionResnetV2/InceptionResnetV2/Mixed_5b/Branch_1/Conv2d_0b_5x5/BatchNorm/FusedBatchNorm"
  attr {
    key: "T"
    value {
      type: DT_FLOAT
    }
  }
}
node {
  name: "InceptionResnetV2/Mixed_5b/Branch_2/Conv2d_0a_1x1/weights/Initializer/random_uniform/shape"
  op: "Const"
  attr {
    key: "_class"
    value {
      list {
        s: "loc:@InceptionResnetV2/Mixed_5b/Branch_2/Conv2d_0a_1x1/weights"
      }
    }
  }
  attr {
    key: "dtype"
    value {
      type: DT_INT32
    }
  }
  attr {
    key: "value"
    value {
      tensor {
        dtype: DT_INT32
        tensor_shape {
          dim {
            size: 4
          }
        }
        tensor_content: "\001\000\000\000\001\000\000\000\300\000\000\000@\000\000\000"
      }
    }
  }
}
node {
  name: "InceptionResnetV2/Mixed_5b/Branch_2/Conv2d_0a_1x1/weights/Initializer/random_uniform/min"
  op: "Const"
  attr {
    key: "_class"
    value {
      list {
        s: "loc:@InceptionResnetV2/Mixed_5b/Branch_2/Conv2d_0a_1x1/weights"
      }
    }
  }
  attr {
    key: "dtype"
    value {
      type: DT_FLOAT
    }
  }
  attr {
    key: "value"
    value {
      tensor {
        dtype: DT_FLOAT
        tensor_shape {
        }
        float_val: -0.1530931144952774
      }
    }
  }
}
node {
  name: "InceptionResnetV2/Mixed_5b/Branch_2/Conv2d_0a_1x1/weights/Initializer/random_uniform/max"
  op: "Const"
  attr {
    key: "_class"
    value {
      list {
        s: "loc:@InceptionResnetV2/Mixed_5b/Branch_2/Conv2d_0a_1x1/weights"
      }
    }
  }
  attr {
    key: "dtype"
    value {
      type: DT_FLOAT
    }
  }
  attr {
    key: "value"
    value {
      tensor {
        dtype: DT_FLOAT
        tensor_shape {
        }
        float_val: 0.1530931144952774
      }
    }
  }
}
node {
  name: "InceptionResnetV2/Mixed_5b/Branch_2/Conv2d_0a_1x1/weights/Initializer/random_uniform/RandomUniform"
  op: "RandomUniform"
  input: "InceptionResnetV2/Mixed_5b/Branch_2/Conv2d_0a_1x1/weights/Initializer/random_uniform/shape"
  attr {
    key: "T"
    value {
      type: DT_INT32
    }
  }
  attr {
    key: "_class"
    value {
      list {
        s: "loc:@InceptionResnetV2/Mixed_5b/Branch_2/Conv2d_0a_1x1/weights"
      }
    }
  }
  attr {
    key: "dtype"
    value {
      type: DT_FLOAT
    }
  }
  attr {
    key: "seed"
    value {
      i: 0
    }
  }
  attr {
    key: "seed2"
    value {
      i: 0
    }
  }
}
node {
  name: "InceptionResnetV2/Mixed_5b/Branch_2/Conv2d_0a_1x1/weights/Initializer/random_uniform/sub"
  op: "Sub"
  input: "InceptionResnetV2/Mixed_5b/Branch_2/Conv2d_0a_1x1/weights/Initializer/random_uniform/max"
  input: "InceptionResnetV2/Mixed_5b/Branch_2/Conv2d_0a_1x1/weights/Initializer/random_uniform/min"
  attr {
    key: "T"
    value {
      type: DT_FLOAT
    }
  }
  attr {
    key: "_class"
    value {
      list {
        s: "loc:@InceptionResnetV2/Mixed_5b/Branch_2/Conv2d_0a_1x1/weights"
      }
    }
  }
}
node {
  name: "InceptionResnetV2/Mixed_5b/Branch_2/Conv2d_0a_1x1/weights/Initializer/random_uniform/mul"
  op: "Mul"
  input: "InceptionResnetV2/Mixed_5b/Branch_2/Conv2d_0a_1x1/weights/Initializer/random_uniform/RandomUniform"
  input: "InceptionResnetV2/Mixed_5b/Branch_2/Conv2d_0a_1x1/weights/Initializer/random_uniform/sub"
  attr {
    key: "T"
    value {
      type: DT_FLOAT
    }
  }
  attr {
    key: "_class"
    value {
      list {
        s: "loc:@InceptionResnetV2/Mixed_5b/Branch_2/Conv2d_0a_1x1/weights"
      }
    }
  }
}
node {
  name: "InceptionResnetV2/Mixed_5b/Branch_2/Conv2d_0a_1x1/weights/Initializer/random_uniform"
  op: "Add"
  input: "InceptionResnetV2/Mixed_5b/Branch_2/Conv2d_0a_1x1/weights/Initializer/random_uniform/mul"
  input: "InceptionResnetV2/Mixed_5b/Branch_2/Conv2d_0a_1x1/weights/Initializer/random_uniform/min"
  attr {
    key: "T"
    value {
      type: DT_FLOAT
    }
  }
  attr {
    key: "_class"
    value {
      list {
        s: "loc:@InceptionResnetV2/Mixed_5b/Branch_2/Conv2d_0a_1x1/weights"
      }
    }
  }
}
node {
  name: "InceptionResnetV2/Mixed_5b/Branch_2/Conv2d_0a_1x1/weights"
  op: "VariableV2"
  attr {
    key: "_class"
    value {
      list {
        s: "loc:@InceptionResnetV2/Mixed_5b/Branch_2/Conv2d_0a_1x1/weights"
      }
    }
  }
  attr {
    key: "container"
    value {
      s: ""
    }
  }
  attr {
    key: "dtype"
    value {
      type: DT_FLOAT
    }
  }
  attr {
    key: "shape"
    value {
      shape {
        dim {
          size: 1
        }
        dim {
          size: 1
        }
        dim {
          size: 192
        }
        dim {
          size: 64
        }
      }
    }
  }
  attr {
    key: "shared_name"
    value {
      s: ""
    }
  }
}
node {
  name: "InceptionResnetV2/Mixed_5b/Branch_2/Conv2d_0a_1x1/weights/Assign"
  op: "Assign"
  input: "InceptionResnetV2/Mixed_5b/Branch_2/Conv2d_0a_1x1/weights"
  input: "InceptionResnetV2/Mixed_5b/Branch_2/Conv2d_0a_1x1/weights/Initializer/random_uniform"
  attr {
    key: "T"
    value {
      type: DT_FLOAT
    }
  }
  attr {
    key: "_class"
    value {
      list {
        s: "loc:@InceptionResnetV2/Mixed_5b/Branch_2/Conv2d_0a_1x1/weights"
      }
    }
  }
  attr {
    key: "use_locking"
    value {
      b: true
    }
  }
  attr {
    key: "validate_shape"
    value {
      b: true
    }
  }
}
node {
  name: "InceptionResnetV2/Mixed_5b/Branch_2/Conv2d_0a_1x1/weights/read"
  op: "Identity"
  input: "InceptionResnetV2/Mixed_5b/Branch_2/Conv2d_0a_1x1/weights"
  attr {
    key: "T"
    value {
      type: DT_FLOAT
    }
  }
  attr {
    key: "_class"
    value {
      list {
        s: "loc:@InceptionResnetV2/Mixed_5b/Branch_2/Conv2d_0a_1x1/weights"
      }
    }
  }
}
node {
  name: "InceptionResnetV2/InceptionResnetV2/Mixed_5b/Branch_2/Conv2d_0a_1x1/dilation_rate"
  op: "Const"
  attr {
    key: "dtype"
    value {
      type: DT_INT32
    }
  }
  attr {
    key: "value"
    value {
      tensor {
        dtype: DT_INT32
        tensor_shape {
          dim {
            size: 2
          }
        }
        tensor_content: "\001\000\000\000\001\000\000\000"
      }
    }
  }
}
node {
  name: "InceptionResnetV2/InceptionResnetV2/Mixed_5b/Branch_2/Conv2d_0a_1x1/Conv2D"
  op: "Conv2D"
  input: "InceptionResnetV2/InceptionResnetV2/MaxPool_5a_3x3/MaxPool"
  input: "InceptionResnetV2/Mixed_5b/Branch_2/Conv2d_0a_1x1/weights/read"
  attr {
    key: "T"
    value {
      type: DT_FLOAT
    }
  }
  attr {
    key: "data_format"
    value {
      s: "NHWC"
    }
  }
  attr {
    key: "dilations"
    value {
      list {
        i: 1
        i: 1
        i: 1
        i: 1
      }
    }
  }
  attr {
    key: "padding"
    value {
      s: "SAME"
    }
  }
  attr {
    key: "strides"
    value {
      list {
        i: 1
        i: 1
        i: 1
        i: 1
      }
    }
  }
  attr {
    key: "use_cudnn_on_gpu"
    value {
      b: true
    }
  }
}
node {
  name: "InceptionResnetV2/InceptionResnetV2/Mixed_5b/Branch_2/Conv2d_0a_1x1/BatchNorm/Const"
  op: "Const"
  attr {
    key: "dtype"
    value {
      type: DT_FLOAT
    }
  }
  attr {
    key: "value"
    value {
      tensor {
        dtype: DT_FLOAT
        tensor_shape {
          dim {
            size: 64
          }
        }
        float_val: 1.0
      }
    }
  }
}
node {
  name: "InceptionResnetV2/Mixed_5b/Branch_2/Conv2d_0a_1x1/BatchNorm/beta/Initializer/zeros"
  op: "Const"
  attr {
    key: "_class"
    value {
      list {
        s: "loc:@InceptionResnetV2/Mixed_5b/Branch_2/Conv2d_0a_1x1/BatchNorm/beta"
      }
    }
  }
  attr {
    key: "dtype"
    value {
      type: DT_FLOAT
    }
  }
  attr {
    key: "value"
    value {
      tensor {
        dtype: DT_FLOAT
        tensor_shape {
          dim {
            size: 64
          }
        }
        float_val: 0.0
      }
    }
  }
}
node {
  name: "InceptionResnetV2/Mixed_5b/Branch_2/Conv2d_0a_1x1/BatchNorm/beta"
  op: "VariableV2"
  attr {
    key: "_class"
    value {
      list {
        s: "loc:@InceptionResnetV2/Mixed_5b/Branch_2/Conv2d_0a_1x1/BatchNorm/beta"
      }
    }
  }
  attr {
    key: "container"
    value {
      s: ""
    }
  }
  attr {
    key: "dtype"
    value {
      type: DT_FLOAT
    }
  }
  attr {
    key: "shape"
    value {
      shape {
        dim {
          size: 64
        }
      }
    }
  }
  attr {
    key: "shared_name"
    value {
      s: ""
    }
  }
}
node {
  name: "InceptionResnetV2/Mixed_5b/Branch_2/Conv2d_0a_1x1/BatchNorm/beta/Assign"
  op: "Assign"
  input: "InceptionResnetV2/Mixed_5b/Branch_2/Conv2d_0a_1x1/BatchNorm/beta"
  input: "InceptionResnetV2/Mixed_5b/Branch_2/Conv2d_0a_1x1/BatchNorm/beta/Initializer/zeros"
  attr {
    key: "T"
    value {
      type: DT_FLOAT
    }
  }
  attr {
    key: "_class"
    value {
      list {
        s: "loc:@InceptionResnetV2/Mixed_5b/Branch_2/Conv2d_0a_1x1/BatchNorm/beta"
      }
    }
  }
  attr {
    key: "use_locking"
    value {
      b: true
    }
  }
  attr {
    key: "validate_shape"
    value {
      b: true
    }
  }
}
node {
  name: "InceptionResnetV2/Mixed_5b/Branch_2/Conv2d_0a_1x1/BatchNorm/beta/read"
  op: "Identity"
  input: "InceptionResnetV2/Mixed_5b/Branch_2/Conv2d_0a_1x1/BatchNorm/beta"
  attr {
    key: "T"
    value {
      type: DT_FLOAT
    }
  }
  attr {
    key: "_class"
    value {
      list {
        s: "loc:@InceptionResnetV2/Mixed_5b/Branch_2/Conv2d_0a_1x1/BatchNorm/beta"
      }
    }
  }
}
node {
  name: "InceptionResnetV2/Mixed_5b/Branch_2/Conv2d_0a_1x1/BatchNorm/moving_mean/Initializer/zeros"
  op: "Const"
  attr {
    key: "_class"
    value {
      list {
        s: "loc:@InceptionResnetV2/Mixed_5b/Branch_2/Conv2d_0a_1x1/BatchNorm/moving_mean"
      }
    }
  }
  attr {
    key: "dtype"
    value {
      type: DT_FLOAT
    }
  }
  attr {
    key: "value"
    value {
      tensor {
        dtype: DT_FLOAT
        tensor_shape {
          dim {
            size: 64
          }
        }
        float_val: 0.0
      }
    }
  }
}
node {
  name: "InceptionResnetV2/Mixed_5b/Branch_2/Conv2d_0a_1x1/BatchNorm/moving_mean"
  op: "VariableV2"
  attr {
    key: "_class"
    value {
      list {
        s: "loc:@InceptionResnetV2/Mixed_5b/Branch_2/Conv2d_0a_1x1/BatchNorm/moving_mean"
      }
    }
  }
  attr {
    key: "container"
    value {
      s: ""
    }
  }
  attr {
    key: "dtype"
    value {
      type: DT_FLOAT
    }
  }
  attr {
    key: "shape"
    value {
      shape {
        dim {
          size: 64
        }
      }
    }
  }
  attr {
    key: "shared_name"
    value {
      s: ""
    }
  }
}
node {
  name: "InceptionResnetV2/Mixed_5b/Branch_2/Conv2d_0a_1x1/BatchNorm/moving_mean/Assign"
  op: "Assign"
  input: "InceptionResnetV2/Mixed_5b/Branch_2/Conv2d_0a_1x1/BatchNorm/moving_mean"
  input: "InceptionResnetV2/Mixed_5b/Branch_2/Conv2d_0a_1x1/BatchNorm/moving_mean/Initializer/zeros"
  attr {
    key: "T"
    value {
      type: DT_FLOAT
    }
  }
  attr {
    key: "_class"
    value {
      list {
        s: "loc:@InceptionResnetV2/Mixed_5b/Branch_2/Conv2d_0a_1x1/BatchNorm/moving_mean"
      }
    }
  }
  attr {
    key: "use_locking"
    value {
      b: true
    }
  }
  attr {
    key: "validate_shape"
    value {
      b: true
    }
  }
}
node {
  name: "InceptionResnetV2/Mixed_5b/Branch_2/Conv2d_0a_1x1/BatchNorm/moving_mean/read"
  op: "Identity"
  input: "InceptionResnetV2/Mixed_5b/Branch_2/Conv2d_0a_1x1/BatchNorm/moving_mean"
  attr {
    key: "T"
    value {
      type: DT_FLOAT
    }
  }
  attr {
    key: "_class"
    value {
      list {
        s: "loc:@InceptionResnetV2/Mixed_5b/Branch_2/Conv2d_0a_1x1/BatchNorm/moving_mean"
      }
    }
  }
}
node {
  name: "InceptionResnetV2/Mixed_5b/Branch_2/Conv2d_0a_1x1/BatchNorm/moving_variance/Initializer/ones"
  op: "Const"
  attr {
    key: "_class"
    value {
      list {
        s: "loc:@InceptionResnetV2/Mixed_5b/Branch_2/Conv2d_0a_1x1/BatchNorm/moving_variance"
      }
    }
  }
  attr {
    key: "dtype"
    value {
      type: DT_FLOAT
    }
  }
  attr {
    key: "value"
    value {
      tensor {
        dtype: DT_FLOAT
        tensor_shape {
          dim {
            size: 64
          }
        }
        float_val: 1.0
      }
    }
  }
}
node {
  name: "InceptionResnetV2/Mixed_5b/Branch_2/Conv2d_0a_1x1/BatchNorm/moving_variance"
  op: "VariableV2"
  attr {
    key: "_class"
    value {
      list {
        s: "loc:@InceptionResnetV2/Mixed_5b/Branch_2/Conv2d_0a_1x1/BatchNorm/moving_variance"
      }
    }
  }
  attr {
    key: "container"
    value {
      s: ""
    }
  }
  attr {
    key: "dtype"
    value {
      type: DT_FLOAT
    }
  }
  attr {
    key: "shape"
    value {
      shape {
        dim {
          size: 64
        }
      }
    }
  }
  attr {
    key: "shared_name"
    value {
      s: ""
    }
  }
}
node {
  name: "InceptionResnetV2/Mixed_5b/Branch_2/Conv2d_0a_1x1/BatchNorm/moving_variance/Assign"
  op: "Assign"
  input: "InceptionResnetV2/Mixed_5b/Branch_2/Conv2d_0a_1x1/BatchNorm/moving_variance"
  input: "InceptionResnetV2/Mixed_5b/Branch_2/Conv2d_0a_1x1/BatchNorm/moving_variance/Initializer/ones"
  attr {
    key: "T"
    value {
      type: DT_FLOAT
    }
  }
  attr {
    key: "_class"
    value {
      list {
        s: "loc:@InceptionResnetV2/Mixed_5b/Branch_2/Conv2d_0a_1x1/BatchNorm/moving_variance"
      }
    }
  }
  attr {
    key: "use_locking"
    value {
      b: true
    }
  }
  attr {
    key: "validate_shape"
    value {
      b: true
    }
  }
}
node {
  name: "InceptionResnetV2/Mixed_5b/Branch_2/Conv2d_0a_1x1/BatchNorm/moving_variance/read"
  op: "Identity"
  input: "InceptionResnetV2/Mixed_5b/Branch_2/Conv2d_0a_1x1/BatchNorm/moving_variance"
  attr {
    key: "T"
    value {
      type: DT_FLOAT
    }
  }
  attr {
    key: "_class"
    value {
      list {
        s: "loc:@InceptionResnetV2/Mixed_5b/Branch_2/Conv2d_0a_1x1/BatchNorm/moving_variance"
      }
    }
  }
}
node {
  name: "InceptionResnetV2/InceptionResnetV2/Mixed_5b/Branch_2/Conv2d_0a_1x1/BatchNorm/FusedBatchNorm"
  op: "FusedBatchNorm"
  input: "InceptionResnetV2/InceptionResnetV2/Mixed_5b/Branch_2/Conv2d_0a_1x1/Conv2D"
  input: "InceptionResnetV2/InceptionResnetV2/Mixed_5b/Branch_2/Conv2d_0a_1x1/BatchNorm/Const"
  input: "InceptionResnetV2/Mixed_5b/Branch_2/Conv2d_0a_1x1/BatchNorm/beta/read"
  input: "InceptionResnetV2/Mixed_5b/Branch_2/Conv2d_0a_1x1/BatchNorm/moving_mean/read"
  input: "InceptionResnetV2/Mixed_5b/Branch_2/Conv2d_0a_1x1/BatchNorm/moving_variance/read"
  attr {
    key: "T"
    value {
      type: DT_FLOAT
    }
  }
  attr {
    key: "data_format"
    value {
      s: "NHWC"
    }
  }
  attr {
    key: "epsilon"
    value {
      f: 0.0010000000474974513
    }
  }
  attr {
    key: "is_training"
    value {
      b: false
    }
  }
}
node {
  name: "InceptionResnetV2/InceptionResnetV2/Mixed_5b/Branch_2/Conv2d_0a_1x1/BatchNorm/Const_1"
  op: "Const"
  attr {
    key: "dtype"
    value {
      type: DT_FLOAT
    }
  }
  attr {
    key: "value"
    value {
      tensor {
        dtype: DT_FLOAT
        tensor_shape {
        }
        float_val: 0.9997000098228455
      }
    }
  }
}
node {
  name: "InceptionResnetV2/InceptionResnetV2/Mixed_5b/Branch_2/Conv2d_0a_1x1/Relu"
  op: "Relu"
  input: "InceptionResnetV2/InceptionResnetV2/Mixed_5b/Branch_2/Conv2d_0a_1x1/BatchNorm/FusedBatchNorm"
  attr {
    key: "T"
    value {
      type: DT_FLOAT
    }
  }
}
node {
  name: "InceptionResnetV2/Mixed_5b/Branch_2/Conv2d_0b_3x3/weights/Initializer/random_uniform/shape"
  op: "Const"
  attr {
    key: "_class"
    value {
      list {
        s: "loc:@InceptionResnetV2/Mixed_5b/Branch_2/Conv2d_0b_3x3/weights"
      }
    }
  }
  attr {
    key: "dtype"
    value {
      type: DT_INT32
    }
  }
  attr {
    key: "value"
    value {
      tensor {
        dtype: DT_INT32
        tensor_shape {
          dim {
            size: 4
          }
        }
        tensor_content: "\003\000\000\000\003\000\000\000@\000\000\000`\000\000\000"
      }
    }
  }
}
node {
  name: "InceptionResnetV2/Mixed_5b/Branch_2/Conv2d_0b_3x3/weights/Initializer/random_uniform/min"
  op: "Const"
  attr {
    key: "_class"
    value {
      list {
        s: "loc:@InceptionResnetV2/Mixed_5b/Branch_2/Conv2d_0b_3x3/weights"
      }
    }
  }
  attr {
    key: "dtype"
    value {
      type: DT_FLOAT
    }
  }
  attr {
    key: "value"
    value {
      tensor {
        dtype: DT_FLOAT
        tensor_shape {
        }
        float_val: -0.06454972177743912
      }
    }
  }
}
node {
  name: "InceptionResnetV2/Mixed_5b/Branch_2/Conv2d_0b_3x3/weights/Initializer/random_uniform/max"
  op: "Const"
  attr {
    key: "_class"
    value {
      list {
        s: "loc:@InceptionResnetV2/Mixed_5b/Branch_2/Conv2d_0b_3x3/weights"
      }
    }
  }
  attr {
    key: "dtype"
    value {
      type: DT_FLOAT
    }
  }
  attr {
    key: "value"
    value {
      tensor {
        dtype: DT_FLOAT
        tensor_shape {
        }
        float_val: 0.06454972177743912
      }
    }
  }
}
node {
  name: "InceptionResnetV2/Mixed_5b/Branch_2/Conv2d_0b_3x3/weights/Initializer/random_uniform/RandomUniform"
  op: "RandomUniform"
  input: "InceptionResnetV2/Mixed_5b/Branch_2/Conv2d_0b_3x3/weights/Initializer/random_uniform/shape"
  attr {
    key: "T"
    value {
      type: DT_INT32
    }
  }
  attr {
    key: "_class"
    value {
      list {
        s: "loc:@InceptionResnetV2/Mixed_5b/Branch_2/Conv2d_0b_3x3/weights"
      }
    }
  }
  attr {
    key: "dtype"
    value {
      type: DT_FLOAT
    }
  }
  attr {
    key: "seed"
    value {
      i: 0
    }
  }
  attr {
    key: "seed2"
    value {
      i: 0
    }
  }
}
node {
  name: "InceptionResnetV2/Mixed_5b/Branch_2/Conv2d_0b_3x3/weights/Initializer/random_uniform/sub"
  op: "Sub"
  input: "InceptionResnetV2/Mixed_5b/Branch_2/Conv2d_0b_3x3/weights/Initializer/random_uniform/max"
  input: "InceptionResnetV2/Mixed_5b/Branch_2/Conv2d_0b_3x3/weights/Initializer/random_uniform/min"
  attr {
    key: "T"
    value {
      type: DT_FLOAT
    }
  }
  attr {
    key: "_class"
    value {
      list {
        s: "loc:@InceptionResnetV2/Mixed_5b/Branch_2/Conv2d_0b_3x3/weights"
      }
    }
  }
}
node {
  name: "InceptionResnetV2/Mixed_5b/Branch_2/Conv2d_0b_3x3/weights/Initializer/random_uniform/mul"
  op: "Mul"
  input: "InceptionResnetV2/Mixed_5b/Branch_2/Conv2d_0b_3x3/weights/Initializer/random_uniform/RandomUniform"
  input: "InceptionResnetV2/Mixed_5b/Branch_2/Conv2d_0b_3x3/weights/Initializer/random_uniform/sub"
  attr {
    key: "T"
    value {
      type: DT_FLOAT
    }
  }
  attr {
    key: "_class"
    value {
      list {
        s: "loc:@InceptionResnetV2/Mixed_5b/Branch_2/Conv2d_0b_3x3/weights"
      }
    }
  }
}
node {
  name: "InceptionResnetV2/Mixed_5b/Branch_2/Conv2d_0b_3x3/weights/Initializer/random_uniform"
  op: "Add"
  input: "InceptionResnetV2/Mixed_5b/Branch_2/Conv2d_0b_3x3/weights/Initializer/random_uniform/mul"
  input: "InceptionResnetV2/Mixed_5b/Branch_2/Conv2d_0b_3x3/weights/Initializer/random_uniform/min"
  attr {
    key: "T"
    value {
      type: DT_FLOAT
    }
  }
  attr {
    key: "_class"
    value {
      list {
        s: "loc:@InceptionResnetV2/Mixed_5b/Branch_2/Conv2d_0b_3x3/weights"
      }
    }
  }
}
node {
  name: "InceptionResnetV2/Mixed_5b/Branch_2/Conv2d_0b_3x3/weights"
  op: "VariableV2"
  attr {
    key: "_class"
    value {
      list {
        s: "loc:@InceptionResnetV2/Mixed_5b/Branch_2/Conv2d_0b_3x3/weights"
      }
    }
  }
  attr {
    key: "container"
    value {
      s: ""
    }
  }
  attr {
    key: "dtype"
    value {
      type: DT_FLOAT
    }
  }
  attr {
    key: "shape"
    value {
      shape {
        dim {
          size: 3
        }
        dim {
          size: 3
        }
        dim {
          size: 64
        }
        dim {
          size: 96
        }
      }
    }
  }
  attr {
    key: "shared_name"
    value {
      s: ""
    }
  }
}
node {
  name: "InceptionResnetV2/Mixed_5b/Branch_2/Conv2d_0b_3x3/weights/Assign"
  op: "Assign"
  input: "InceptionResnetV2/Mixed_5b/Branch_2/Conv2d_0b_3x3/weights"
  input: "InceptionResnetV2/Mixed_5b/Branch_2/Conv2d_0b_3x3/weights/Initializer/random_uniform"
  attr {
    key: "T"
    value {
      type: DT_FLOAT
    }
  }
  attr {
    key: "_class"
    value {
      list {
        s: "loc:@InceptionResnetV2/Mixed_5b/Branch_2/Conv2d_0b_3x3/weights"
      }
    }
  }
  attr {
    key: "use_locking"
    value {
      b: true
    }
  }
  attr {
    key: "validate_shape"
    value {
      b: true
    }
  }
}
node {
  name: "InceptionResnetV2/Mixed_5b/Branch_2/Conv2d_0b_3x3/weights/read"
  op: "Identity"
  input: "InceptionResnetV2/Mixed_5b/Branch_2/Conv2d_0b_3x3/weights"
  attr {
    key: "T"
    value {
      type: DT_FLOAT
    }
  }
  attr {
    key: "_class"
    value {
      list {
        s: "loc:@InceptionResnetV2/Mixed_5b/Branch_2/Conv2d_0b_3x3/weights"
      }
    }
  }
}
node {
  name: "InceptionResnetV2/InceptionResnetV2/Mixed_5b/Branch_2/Conv2d_0b_3x3/dilation_rate"
  op: "Const"
  attr {
    key: "dtype"
    value {
      type: DT_INT32
    }
  }
  attr {
    key: "value"
    value {
      tensor {
        dtype: DT_INT32
        tensor_shape {
          dim {
            size: 2
          }
        }
        tensor_content: "\001\000\000\000\001\000\000\000"
      }
    }
  }
}
node {
  name: "InceptionResnetV2/InceptionResnetV2/Mixed_5b/Branch_2/Conv2d_0b_3x3/Conv2D"
  op: "Conv2D"
  input: "InceptionResnetV2/InceptionResnetV2/Mixed_5b/Branch_2/Conv2d_0a_1x1/Relu"
  input: "InceptionResnetV2/Mixed_5b/Branch_2/Conv2d_0b_3x3/weights/read"
  attr {
    key: "T"
    value {
      type: DT_FLOAT
    }
  }
  attr {
    key: "data_format"
    value {
      s: "NHWC"
    }
  }
  attr {
    key: "dilations"
    value {
      list {
        i: 1
        i: 1
        i: 1
        i: 1
      }
    }
  }
  attr {
    key: "padding"
    value {
      s: "SAME"
    }
  }
  attr {
    key: "strides"
    value {
      list {
        i: 1
        i: 1
        i: 1
        i: 1
      }
    }
  }
  attr {
    key: "use_cudnn_on_gpu"
    value {
      b: true
    }
  }
}
node {
  name: "InceptionResnetV2/InceptionResnetV2/Mixed_5b/Branch_2/Conv2d_0b_3x3/BatchNorm/Const"
  op: "Const"
  attr {
    key: "dtype"
    value {
      type: DT_FLOAT
    }
  }
  attr {
    key: "value"
    value {
      tensor {
        dtype: DT_FLOAT
        tensor_shape {
          dim {
            size: 96
          }
        }
        float_val: 1.0
      }
    }
  }
}
node {
  name: "InceptionResnetV2/Mixed_5b/Branch_2/Conv2d_0b_3x3/BatchNorm/beta/Initializer/zeros"
  op: "Const"
  attr {
    key: "_class"
    value {
      list {
        s: "loc:@InceptionResnetV2/Mixed_5b/Branch_2/Conv2d_0b_3x3/BatchNorm/beta"
      }
    }
  }
  attr {
    key: "dtype"
    value {
      type: DT_FLOAT
    }
  }
  attr {
    key: "value"
    value {
      tensor {
        dtype: DT_FLOAT
        tensor_shape {
          dim {
            size: 96
          }
        }
        float_val: 0.0
      }
    }
  }
}
node {
  name: "InceptionResnetV2/Mixed_5b/Branch_2/Conv2d_0b_3x3/BatchNorm/beta"
  op: "VariableV2"
  attr {
    key: "_class"
    value {
      list {
        s: "loc:@InceptionResnetV2/Mixed_5b/Branch_2/Conv2d_0b_3x3/BatchNorm/beta"
      }
    }
  }
  attr {
    key: "container"
    value {
      s: ""
    }
  }
  attr {
    key: "dtype"
    value {
      type: DT_FLOAT
    }
  }
  attr {
    key: "shape"
    value {
      shape {
        dim {
          size: 96
        }
      }
    }
  }
  attr {
    key: "shared_name"
    value {
      s: ""
    }
  }
}
node {
  name: "InceptionResnetV2/Mixed_5b/Branch_2/Conv2d_0b_3x3/BatchNorm/beta/Assign"
  op: "Assign"
  input: "InceptionResnetV2/Mixed_5b/Branch_2/Conv2d_0b_3x3/BatchNorm/beta"
  input: "InceptionResnetV2/Mixed_5b/Branch_2/Conv2d_0b_3x3/BatchNorm/beta/Initializer/zeros"
  attr {
    key: "T"
    value {
      type: DT_FLOAT
    }
  }
  attr {
    key: "_class"
    value {
      list {
        s: "loc:@InceptionResnetV2/Mixed_5b/Branch_2/Conv2d_0b_3x3/BatchNorm/beta"
      }
    }
  }
  attr {
    key: "use_locking"
    value {
      b: true
    }
  }
  attr {
    key: "validate_shape"
    value {
      b: true
    }
  }
}
node {
  name: "InceptionResnetV2/Mixed_5b/Branch_2/Conv2d_0b_3x3/BatchNorm/beta/read"
  op: "Identity"
  input: "InceptionResnetV2/Mixed_5b/Branch_2/Conv2d_0b_3x3/BatchNorm/beta"
  attr {
    key: "T"
    value {
      type: DT_FLOAT
    }
  }
  attr {
    key: "_class"
    value {
      list {
        s: "loc:@InceptionResnetV2/Mixed_5b/Branch_2/Conv2d_0b_3x3/BatchNorm/beta"
      }
    }
  }
}
node {
  name: "InceptionResnetV2/Mixed_5b/Branch_2/Conv2d_0b_3x3/BatchNorm/moving_mean/Initializer/zeros"
  op: "Const"
  attr {
    key: "_class"
    value {
      list {
        s: "loc:@InceptionResnetV2/Mixed_5b/Branch_2/Conv2d_0b_3x3/BatchNorm/moving_mean"
      }
    }
  }
  attr {
    key: "dtype"
    value {
      type: DT_FLOAT
    }
  }
  attr {
    key: "value"
    value {
      tensor {
        dtype: DT_FLOAT
        tensor_shape {
          dim {
            size: 96
          }
        }
        float_val: 0.0
      }
    }
  }
}
node {
  name: "InceptionResnetV2/Mixed_5b/Branch_2/Conv2d_0b_3x3/BatchNorm/moving_mean"
  op: "VariableV2"
  attr {
    key: "_class"
    value {
      list {
        s: "loc:@InceptionResnetV2/Mixed_5b/Branch_2/Conv2d_0b_3x3/BatchNorm/moving_mean"
      }
    }
  }
  attr {
    key: "container"
    value {
      s: ""
    }
  }
  attr {
    key: "dtype"
    value {
      type: DT_FLOAT
    }
  }
  attr {
    key: "shape"
    value {
      shape {
        dim {
          size: 96
        }
      }
    }
  }
  attr {
    key: "shared_name"
    value {
      s: ""
    }
  }
}
node {
  name: "InceptionResnetV2/Mixed_5b/Branch_2/Conv2d_0b_3x3/BatchNorm/moving_mean/Assign"
  op: "Assign"
  input: "InceptionResnetV2/Mixed_5b/Branch_2/Conv2d_0b_3x3/BatchNorm/moving_mean"
  input: "InceptionResnetV2/Mixed_5b/Branch_2/Conv2d_0b_3x3/BatchNorm/moving_mean/Initializer/zeros"
  attr {
    key: "T"
    value {
      type: DT_FLOAT
    }
  }
  attr {
    key: "_class"
    value {
      list {
        s: "loc:@InceptionResnetV2/Mixed_5b/Branch_2/Conv2d_0b_3x3/BatchNorm/moving_mean"
      }
    }
  }
  attr {
    key: "use_locking"
    value {
      b: true
    }
  }
  attr {
    key: "validate_shape"
    value {
      b: true
    }
  }
}
node {
  name: "InceptionResnetV2/Mixed_5b/Branch_2/Conv2d_0b_3x3/BatchNorm/moving_mean/read"
  op: "Identity"
  input: "InceptionResnetV2/Mixed_5b/Branch_2/Conv2d_0b_3x3/BatchNorm/moving_mean"
  attr {
    key: "T"
    value {
      type: DT_FLOAT
    }
  }
  attr {
    key: "_class"
    value {
      list {
        s: "loc:@InceptionResnetV2/Mixed_5b/Branch_2/Conv2d_0b_3x3/BatchNorm/moving_mean"
      }
    }
  }
}
node {
  name: "InceptionResnetV2/Mixed_5b/Branch_2/Conv2d_0b_3x3/BatchNorm/moving_variance/Initializer/ones"
  op: "Const"
  attr {
    key: "_class"
    value {
      list {
        s: "loc:@InceptionResnetV2/Mixed_5b/Branch_2/Conv2d_0b_3x3/BatchNorm/moving_variance"
      }
    }
  }
  attr {
    key: "dtype"
    value {
      type: DT_FLOAT
    }
  }
  attr {
    key: "value"
    value {
      tensor {
        dtype: DT_FLOAT
        tensor_shape {
          dim {
            size: 96
          }
        }
        float_val: 1.0
      }
    }
  }
}
node {
  name: "InceptionResnetV2/Mixed_5b/Branch_2/Conv2d_0b_3x3/BatchNorm/moving_variance"
  op: "VariableV2"
  attr {
    key: "_class"
    value {
      list {
        s: "loc:@InceptionResnetV2/Mixed_5b/Branch_2/Conv2d_0b_3x3/BatchNorm/moving_variance"
      }
    }
  }
  attr {
    key: "container"
    value {
      s: ""
    }
  }
  attr {
    key: "dtype"
    value {
      type: DT_FLOAT
    }
  }
  attr {
    key: "shape"
    value {
      shape {
        dim {
          size: 96
        }
      }
    }
  }
  attr {
    key: "shared_name"
    value {
      s: ""
    }
  }
}
node {
  name: "InceptionResnetV2/Mixed_5b/Branch_2/Conv2d_0b_3x3/BatchNorm/moving_variance/Assign"
  op: "Assign"
  input: "InceptionResnetV2/Mixed_5b/Branch_2/Conv2d_0b_3x3/BatchNorm/moving_variance"
  input: "InceptionResnetV2/Mixed_5b/Branch_2/Conv2d_0b_3x3/BatchNorm/moving_variance/Initializer/ones"
  attr {
    key: "T"
    value {
      type: DT_FLOAT
    }
  }
  attr {
    key: "_class"
    value {
      list {
        s: "loc:@InceptionResnetV2/Mixed_5b/Branch_2/Conv2d_0b_3x3/BatchNorm/moving_variance"
      }
    }
  }
  attr {
    key: "use_locking"
    value {
      b: true
    }
  }
  attr {
    key: "validate_shape"
    value {
      b: true
    }
  }
}
node {
  name: "InceptionResnetV2/Mixed_5b/Branch_2/Conv2d_0b_3x3/BatchNorm/moving_variance/read"
  op: "Identity"
  input: "InceptionResnetV2/Mixed_5b/Branch_2/Conv2d_0b_3x3/BatchNorm/moving_variance"
  attr {
    key: "T"
    value {
      type: DT_FLOAT
    }
  }
  attr {
    key: "_class"
    value {
      list {
        s: "loc:@InceptionResnetV2/Mixed_5b/Branch_2/Conv2d_0b_3x3/BatchNorm/moving_variance"
      }
    }
  }
}
node {
  name: "InceptionResnetV2/InceptionResnetV2/Mixed_5b/Branch_2/Conv2d_0b_3x3/BatchNorm/FusedBatchNorm"
  op: "FusedBatchNorm"
  input: "InceptionResnetV2/InceptionResnetV2/Mixed_5b/Branch_2/Conv2d_0b_3x3/Conv2D"
  input: "InceptionResnetV2/InceptionResnetV2/Mixed_5b/Branch_2/Conv2d_0b_3x3/BatchNorm/Const"
  input: "InceptionResnetV2/Mixed_5b/Branch_2/Conv2d_0b_3x3/BatchNorm/beta/read"
  input: "InceptionResnetV2/Mixed_5b/Branch_2/Conv2d_0b_3x3/BatchNorm/moving_mean/read"
  input: "InceptionResnetV2/Mixed_5b/Branch_2/Conv2d_0b_3x3/BatchNorm/moving_variance/read"
  attr {
    key: "T"
    value {
      type: DT_FLOAT
    }
  }
  attr {
    key: "data_format"
    value {
      s: "NHWC"
    }
  }
  attr {
    key: "epsilon"
    value {
      f: 0.0010000000474974513
    }
  }
  attr {
    key: "is_training"
    value {
      b: false
    }
  }
}
node {
  name: "InceptionResnetV2/InceptionResnetV2/Mixed_5b/Branch_2/Conv2d_0b_3x3/BatchNorm/Const_1"
  op: "Const"
  attr {
    key: "dtype"
    value {
      type: DT_FLOAT
    }
  }
  attr {
    key: "value"
    value {
      tensor {
        dtype: DT_FLOAT
        tensor_shape {
        }
        float_val: 0.9997000098228455
      }
    }
  }
}
node {
  name: "InceptionResnetV2/InceptionResnetV2/Mixed_5b/Branch_2/Conv2d_0b_3x3/Relu"
  op: "Relu"
  input: "InceptionResnetV2/InceptionResnetV2/Mixed_5b/Branch_2/Conv2d_0b_3x3/BatchNorm/FusedBatchNorm"
  attr {
    key: "T"
    value {
      type: DT_FLOAT
    }
  }
}
node {
  name: "InceptionResnetV2/Mixed_5b/Branch_2/Conv2d_0c_3x3/weights/Initializer/random_uniform/shape"
  op: "Const"
  attr {
    key: "_class"
    value {
      list {
        s: "loc:@InceptionResnetV2/Mixed_5b/Branch_2/Conv2d_0c_3x3/weights"
      }
    }
  }
  attr {
    key: "dtype"
    value {
      type: DT_INT32
    }
  }
  attr {
    key: "value"
    value {
      tensor {
        dtype: DT_INT32
        tensor_shape {
          dim {
            size: 4
          }
        }
        tensor_content: "\003\000\000\000\003\000\000\000`\000\000\000`\000\000\000"
      }
    }
  }
}
node {
  name: "InceptionResnetV2/Mixed_5b/Branch_2/Conv2d_0c_3x3/weights/Initializer/random_uniform/min"
  op: "Const"
  attr {
    key: "_class"
    value {
      list {
        s: "loc:@InceptionResnetV2/Mixed_5b/Branch_2/Conv2d_0c_3x3/weights"
      }
    }
  }
  attr {
    key: "dtype"
    value {
      type: DT_FLOAT
    }
  }
  attr {
    key: "value"
    value {
      tensor {
        dtype: DT_FLOAT
        tensor_shape {
        }
        float_val: -0.0589255653321743
      }
    }
  }
}
node {
  name: "InceptionResnetV2/Mixed_5b/Branch_2/Conv2d_0c_3x3/weights/Initializer/random_uniform/max"
  op: "Const"
  attr {
    key: "_class"
    value {
      list {
        s: "loc:@InceptionResnetV2/Mixed_5b/Branch_2/Conv2d_0c_3x3/weights"
      }
    }
  }
  attr {
    key: "dtype"
    value {
      type: DT_FLOAT
    }
  }
  attr {
    key: "value"
    value {
      tensor {
        dtype: DT_FLOAT
        tensor_shape {
        }
        float_val: 0.0589255653321743
      }
    }
  }
}
node {
  name: "InceptionResnetV2/Mixed_5b/Branch_2/Conv2d_0c_3x3/weights/Initializer/random_uniform/RandomUniform"
  op: "RandomUniform"
  input: "InceptionResnetV2/Mixed_5b/Branch_2/Conv2d_0c_3x3/weights/Initializer/random_uniform/shape"
  attr {
    key: "T"
    value {
      type: DT_INT32
    }
  }
  attr {
    key: "_class"
    value {
      list {
        s: "loc:@InceptionResnetV2/Mixed_5b/Branch_2/Conv2d_0c_3x3/weights"
      }
    }
  }
  attr {
    key: "dtype"
    value {
      type: DT_FLOAT
    }
  }
  attr {
    key: "seed"
    value {
      i: 0
    }
  }
  attr {
    key: "seed2"
    value {
      i: 0
    }
  }
}
node {
  name: "InceptionResnetV2/Mixed_5b/Branch_2/Conv2d_0c_3x3/weights/Initializer/random_uniform/sub"
  op: "Sub"
  input: "InceptionResnetV2/Mixed_5b/Branch_2/Conv2d_0c_3x3/weights/Initializer/random_uniform/max"
  input: "InceptionResnetV2/Mixed_5b/Branch_2/Conv2d_0c_3x3/weights/Initializer/random_uniform/min"
  attr {
    key: "T"
    value {
      type: DT_FLOAT
    }
  }
  attr {
    key: "_class"
    value {
      list {
        s: "loc:@InceptionResnetV2/Mixed_5b/Branch_2/Conv2d_0c_3x3/weights"
      }
    }
  }
}
node {
  name: "InceptionResnetV2/Mixed_5b/Branch_2/Conv2d_0c_3x3/weights/Initializer/random_uniform/mul"
  op: "Mul"
  input: "InceptionResnetV2/Mixed_5b/Branch_2/Conv2d_0c_3x3/weights/Initializer/random_uniform/RandomUniform"
  input: "InceptionResnetV2/Mixed_5b/Branch_2/Conv2d_0c_3x3/weights/Initializer/random_uniform/sub"
  attr {
    key: "T"
    value {
      type: DT_FLOAT
    }
  }
  attr {
    key: "_class"
    value {
      list {
        s: "loc:@InceptionResnetV2/Mixed_5b/Branch_2/Conv2d_0c_3x3/weights"
      }
    }
  }
}
node {
  name: "InceptionResnetV2/Mixed_5b/Branch_2/Conv2d_0c_3x3/weights/Initializer/random_uniform"
  op: "Add"
…
  input: "InceptionResnetV2/AuxLogits/Conv2d_1b_1x1/weights/Initializer/random_uniform/mul"
  input: "InceptionResnetV2/AuxLogits/Conv2d_1b_1x1/weights/Initializer/random_uniform/min"
  attr {
    key: "T"
    value {
      type: DT_FLOAT
    }
  }
  attr {
    key: "_class"
    value {
      list {
        s: "loc:@InceptionResnetV2/AuxLogits/Conv2d_1b_1x1/weights"
      }
    }
  }
}
node {
  name: "InceptionResnetV2/AuxLogits/Conv2d_1b_1x1/weights"
  op: "VariableV2"
  attr {
    key: "_class"
    value {
      list {
        s: "loc:@InceptionResnetV2/AuxLogits/Conv2d_1b_1x1/weights"
      }
    }
  }
  attr {
    key: "container"
    value {
      s: ""
    }
  }
  attr {
    key: "dtype"
    value {
      type: DT_FLOAT
    }
  }
  attr {
    key: "shape"
    value {
      shape {
        dim {
          size: 1
        }
        dim {
          size: 1
        }
        dim {
          size: 1088
        }
        dim {
          size: 128
        }
      }
    }
  }
  attr {
    key: "shared_name"
    value {
      s: ""
    }
  }
}
node {
  name: "InceptionResnetV2/AuxLogits/Conv2d_1b_1x1/weights/Assign"
  op: "Assign"
  input: "InceptionResnetV2/AuxLogits/Conv2d_1b_1x1/weights"
  input: "InceptionResnetV2/AuxLogits/Conv2d_1b_1x1/weights/Initializer/random_uniform"
  attr {
    key: "T"
    value {
      type: DT_FLOAT
    }
  }
  attr {
    key: "_class"
    value {
      list {
        s: "loc:@InceptionResnetV2/AuxLogits/Conv2d_1b_1x1/weights"
      }
    }
  }
  attr {
    key: "use_locking"
    value {
      b: true
    }
  }
  attr {
    key: "validate_shape"
    value {
      b: true
    }
  }
}
node {
  name: "InceptionResnetV2/AuxLogits/Conv2d_1b_1x1/weights/read"
  op: "Identity"
  input: "InceptionResnetV2/AuxLogits/Conv2d_1b_1x1/weights"
  attr {
    key: "T"
    value {
      type: DT_FLOAT
    }
  }
  attr {
    key: "_class"
    value {
      list {
        s: "loc:@InceptionResnetV2/AuxLogits/Conv2d_1b_1x1/weights"
      }
    }
  }
}
node {
  name: "InceptionResnetV2/AuxLogits/Conv2d_1b_1x1/dilation_rate"
  op: "Const"
  attr {
    key: "dtype"
    value {
      type: DT_INT32
    }
  }
  attr {
    key: "value"
    value {
      tensor {
        dtype: DT_INT32
        tensor_shape {
          dim {
            size: 2
          }
        }
        tensor_content: "\001\000\000\000\001\000\000\000"
      }
    }
  }
}
node {
  name: "InceptionResnetV2/AuxLogits/Conv2d_1b_1x1/Conv2D"
  op: "Conv2D"
  input: "InceptionResnetV2/AuxLogits/Conv2d_1a_3x3/AvgPool"
  input: "InceptionResnetV2/AuxLogits/Conv2d_1b_1x1/weights/read"
  attr {
    key: "T"
    value {
      type: DT_FLOAT
    }
  }
  attr {
    key: "data_format"
    value {
      s: "NHWC"
    }
  }
  attr {
    key: "dilations"
    value {
      list {
        i: 1
        i: 1
        i: 1
        i: 1
      }
    }
  }
  attr {
    key: "padding"
    value {
      s: "SAME"
    }
  }
  attr {
    key: "strides"
    value {
      list {
        i: 1
        i: 1
        i: 1
        i: 1
      }
    }
  }
  attr {
    key: "use_cudnn_on_gpu"
    value {
      b: true
    }
  }
}
node {
  name: "InceptionResnetV2/AuxLogits/Conv2d_1b_1x1/BatchNorm/Const"
  op: "Const"
  attr {
    key: "dtype"
    value {
      type: DT_FLOAT
    }
  }
  attr {
    key: "value"
    value {
      tensor {
        dtype: DT_FLOAT
        tensor_shape {
          dim {
            size: 128
          }
        }
        float_val: 1.0
      }
    }
  }
}
node {
  name: "InceptionResnetV2/AuxLogits/Conv2d_1b_1x1/BatchNorm/beta/Initializer/zeros"
  op: "Const"
  attr {
    key: "_class"
    value {
      list {
        s: "loc:@InceptionResnetV2/AuxLogits/Conv2d_1b_1x1/BatchNorm/beta"
      }
    }
  }
  attr {
    key: "dtype"
    value {
      type: DT_FLOAT
    }
  }
  attr {
    key: "value"
    value {
      tensor {
        dtype: DT_FLOAT
        tensor_shape {
          dim {
            size: 128
          }
        }
        float_val: 0.0
      }
    }
  }
}
node {
  name: "InceptionResnetV2/AuxLogits/Conv2d_1b_1x1/BatchNorm/beta"
  op: "VariableV2"
  attr {
    key: "_class"
    value {
      list {
        s: "loc:@InceptionResnetV2/AuxLogits/Conv2d_1b_1x1/BatchNorm/beta"
      }
    }
  }
  attr {
    key: "container"
    value {
      s: ""
    }
  }
  attr {
    key: "dtype"
    value {
      type: DT_FLOAT
    }
  }
  attr {
    key: "shape"
    value {
      shape {
        dim {
          size: 128
        }
      }
    }
  }
  attr {
    key: "shared_name"
    value {
      s: ""
    }
  }
}
node {
  name: "InceptionResnetV2/AuxLogits/Conv2d_1b_1x1/BatchNorm/beta/Assign"
  op: "Assign"
  input: "InceptionResnetV2/AuxLogits/Conv2d_1b_1x1/BatchNorm/beta"
  input: "InceptionResnetV2/AuxLogits/Conv2d_1b_1x1/BatchNorm/beta/Initializer/zeros"
  attr {
    key: "T"
    value {
      type: DT_FLOAT
    }
  }
  attr {
    key: "_class"
    value {
      list {
        s: "loc:@InceptionResnetV2/AuxLogits/Conv2d_1b_1x1/BatchNorm/beta"
      }
    }
  }
  attr {
    key: "use_locking"
    value {
      b: true
    }
  }
  attr {
    key: "validate_shape"
    value {
      b: true
    }
  }
}
node {
  name: "InceptionResnetV2/AuxLogits/Conv2d_1b_1x1/BatchNorm/beta/read"
  op: "Identity"
  input: "InceptionResnetV2/AuxLogits/Conv2d_1b_1x1/BatchNorm/beta"
  attr {
    key: "T"
    value {
      type: DT_FLOAT
    }
  }
  attr {
    key: "_class"
    value {
      list {
        s: "loc:@InceptionResnetV2/AuxLogits/Conv2d_1b_1x1/BatchNorm/beta"
      }
    }
  }
}
node {
  name: "InceptionResnetV2/AuxLogits/Conv2d_1b_1x1/BatchNorm/moving_mean/Initializer/zeros"
  op: "Const"
  attr {
    key: "_class"
    value {
      list {
        s: "loc:@InceptionResnetV2/AuxLogits/Conv2d_1b_1x1/BatchNorm/moving_mean"
      }
    }
  }
  attr {
    key: "dtype"
    value {
      type: DT_FLOAT
    }
  }
  attr {
    key: "value"
    value {
      tensor {
        dtype: DT_FLOAT
        tensor_shape {
          dim {
            size: 128
          }
        }
        float_val: 0.0
      }
    }
  }
}
node {
  name: "InceptionResnetV2/AuxLogits/Conv2d_1b_1x1/BatchNorm/moving_mean"
  op: "VariableV2"
  attr {
    key: "_class"
    value {
      list {
        s: "loc:@InceptionResnetV2/AuxLogits/Conv2d_1b_1x1/BatchNorm/moving_mean"
      }
    }
  }
  attr {
    key: "container"
    value {
      s: ""
    }
  }
  attr {
    key: "dtype"
    value {
      type: DT_FLOAT
    }
  }
  attr {
    key: "shape"
    value {
      shape {
        dim {
          size: 128
        }
      }
    }
  }
  attr {
    key: "shared_name"
    value {
      s: ""
    }
  }
}
node {
  name: "InceptionResnetV2/AuxLogits/Conv2d_1b_1x1/BatchNorm/moving_mean/Assign"
  op: "Assign"
  input: "InceptionResnetV2/AuxLogits/Conv2d_1b_1x1/BatchNorm/moving_mean"
  input: "InceptionResnetV2/AuxLogits/Conv2d_1b_1x1/BatchNorm/moving_mean/Initializer/zeros"
  attr {
    key: "T"
    value {
      type: DT_FLOAT
    }
  }
  attr {
    key: "_class"
    value {
      list {
        s: "loc:@InceptionResnetV2/AuxLogits/Conv2d_1b_1x1/BatchNorm/moving_mean"
      }
    }
  }
  attr {
    key: "use_locking"
    value {
      b: true
    }
  }
  attr {
    key: "validate_shape"
    value {
      b: true
    }
  }
}
node {
  name: "InceptionResnetV2/AuxLogits/Conv2d_1b_1x1/BatchNorm/moving_mean/read"
  op: "Identity"
  input: "InceptionResnetV2/AuxLogits/Conv2d_1b_1x1/BatchNorm/moving_mean"
  attr {
    key: "T"
    value {
      type: DT_FLOAT
    }
  }
  attr {
    key: "_class"
    value {
      list {
        s: "loc:@InceptionResnetV2/AuxLogits/Conv2d_1b_1x1/BatchNorm/moving_mean"
      }
    }
  }
}
node {
  name: "InceptionResnetV2/AuxLogits/Conv2d_1b_1x1/BatchNorm/moving_variance/Initializer/ones"
  op: "Const"
  attr {
    key: "_class"
    value {
      list {
        s: "loc:@InceptionResnetV2/AuxLogits/Conv2d_1b_1x1/BatchNorm/moving_variance"
      }
    }
  }
  attr {
    key: "dtype"
    value {
      type: DT_FLOAT
    }
  }
  attr {
    key: "value"
    value {
      tensor {
        dtype: DT_FLOAT
        tensor_shape {
          dim {
            size: 128
          }
        }
        float_val: 1.0
      }
    }
  }
}
node {
  name: "InceptionResnetV2/AuxLogits/Conv2d_1b_1x1/BatchNorm/moving_variance"
  op: "VariableV2"
  attr {
    key: "_class"
    value {
      list {
        s: "loc:@InceptionResnetV2/AuxLogits/Conv2d_1b_1x1/BatchNorm/moving_variance"
      }
    }
  }
  attr {
    key: "container"
    value {
      s: ""
    }
  }
  attr {
    key: "dtype"
    value {
      type: DT_FLOAT
    }
  }
  attr {
    key: "shape"
    value {
      shape {
        dim {
          size: 128
        }
      }
    }
  }
  attr {
    key: "shared_name"
    value {
      s: ""
    }
  }
}
node {
  name: "InceptionResnetV2/AuxLogits/Conv2d_1b_1x1/BatchNorm/moving_variance/Assign"
  op: "Assign"
  input: "InceptionResnetV2/AuxLogits/Conv2d_1b_1x1/BatchNorm/moving_variance"
  input: "InceptionResnetV2/AuxLogits/Conv2d_1b_1x1/BatchNorm/moving_variance/Initializer/ones"
  attr {
    key: "T"
    value {
      type: DT_FLOAT
    }
  }
  attr {
    key: "_class"
    value {
      list {
        s: "loc:@InceptionResnetV2/AuxLogits/Conv2d_1b_1x1/BatchNorm/moving_variance"
      }
    }
  }
  attr {
    key: "use_locking"
    value {
      b: true
    }
  }
  attr {
    key: "validate_shape"
    value {
      b: true
    }
  }
}
node {
  name: "InceptionResnetV2/AuxLogits/Conv2d_1b_1x1/BatchNorm/moving_variance/read"
  op: "Identity"
  input: "InceptionResnetV2/AuxLogits/Conv2d_1b_1x1/BatchNorm/moving_variance"
  attr {
    key: "T"
    value {
      type: DT_FLOAT
    }
  }
  attr {
    key: "_class"
    value {
      list {
        s: "loc:@InceptionResnetV2/AuxLogits/Conv2d_1b_1x1/BatchNorm/moving_variance"
      }
    }
  }
}
node {
  name: "InceptionResnetV2/AuxLogits/Conv2d_1b_1x1/BatchNorm/FusedBatchNorm"
  op: "FusedBatchNorm"
  input: "InceptionResnetV2/AuxLogits/Conv2d_1b_1x1/Conv2D"
  input: "InceptionResnetV2/AuxLogits/Conv2d_1b_1x1/BatchNorm/Const"
  input: "InceptionResnetV2/AuxLogits/Conv2d_1b_1x1/BatchNorm/beta/read"
  input: "InceptionResnetV2/AuxLogits/Conv2d_1b_1x1/BatchNorm/moving_mean/read"
  input: "InceptionResnetV2/AuxLogits/Conv2d_1b_1x1/BatchNorm/moving_variance/read"
  attr {
    key: "T"
    value {
      type: DT_FLOAT
    }
  }
  attr {
    key: "data_format"
    value {
      s: "NHWC"
    }
  }
  attr {
    key: "epsilon"
    value {
      f: 0.0010000000474974513
    }
  }
  attr {
    key: "is_training"
    value {
      b: false
    }
  }
}
node {
  name: "InceptionResnetV2/AuxLogits/Conv2d_1b_1x1/BatchNorm/Const_1"
  op: "Const"
  attr {
    key: "dtype"
    value {
      type: DT_FLOAT
    }
  }
  attr {
    key: "value"
    value {
      tensor {
        dtype: DT_FLOAT
        tensor_shape {
        }
        float_val: 0.9997000098228455
      }
    }
  }
}
node {
  name: "InceptionResnetV2/AuxLogits/Conv2d_1b_1x1/Relu"
  op: "Relu"
  input: "InceptionResnetV2/AuxLogits/Conv2d_1b_1x1/BatchNorm/FusedBatchNorm"
  attr {
    key: "T"
    value {
      type: DT_FLOAT
    }
  }
}
node {
  name: "InceptionResnetV2/AuxLogits/Conv2d_2a_5x5/weights/Initializer/random_uniform/shape"
  op: "Const"
  attr {
    key: "_class"
    value {
      list {
        s: "loc:@InceptionResnetV2/AuxLogits/Conv2d_2a_5x5/weights"
      }
    }
  }
  attr {
    key: "dtype"
    value {
      type: DT_INT32
    }
  }
  attr {
    key: "value"
    value {
      tensor {
        dtype: DT_INT32
        tensor_shape {
          dim {
            size: 4
          }
        }
        tensor_content: "\005\000\000\000\005\000\000\000\200\000\000\000\000\003\000\000"
      }
    }
  }
}
node {
  name: "InceptionResnetV2/AuxLogits/Conv2d_2a_5x5/weights/Initializer/random_uniform/min"
  op: "Const"
  attr {
    key: "_class"
    value {
      list {
        s: "loc:@InceptionResnetV2/AuxLogits/Conv2d_2a_5x5/weights"
      }
    }
  }
  attr {
    key: "dtype"
    value {
      type: DT_FLOAT
    }
  }
  attr {
    key: "value"
    value {
      tensor {
        dtype: DT_FLOAT
        tensor_shape {
        }
        float_val: -0.016366342082619667
      }
    }
  }
}
node {
  name: "InceptionResnetV2/AuxLogits/Conv2d_2a_5x5/weights/Initializer/random_uniform/max"
  op: "Const"
  attr {
    key: "_class"
    value {
      list {
        s: "loc:@InceptionResnetV2/AuxLogits/Conv2d_2a_5x5/weights"
      }
    }
  }
  attr {
    key: "dtype"
    value {
      type: DT_FLOAT
    }
  }
  attr {
    key: "value"
    value {
      tensor {
        dtype: DT_FLOAT
        tensor_shape {
        }
        float_val: 0.016366342082619667
      }
    }
  }
}
node {
  name: "InceptionResnetV2/AuxLogits/Conv2d_2a_5x5/weights/Initializer/random_uniform/RandomUniform"
  op: "RandomUniform"
  input: "InceptionResnetV2/AuxLogits/Conv2d_2a_5x5/weights/Initializer/random_uniform/shape"
  attr {
    key: "T"
    value {
      type: DT_INT32
    }
  }
  attr {
    key: "_class"
    value {
      list {
        s: "loc:@InceptionResnetV2/AuxLogits/Conv2d_2a_5x5/weights"
      }
    }
  }
  attr {
    key: "dtype"
    value {
      type: DT_FLOAT
    }
  }
  attr {
    key: "seed"
    value {
      i: 0
    }
  }
  attr {
    key: "seed2"
    value {
      i: 0
    }
  }
}
node {
  name: "InceptionResnetV2/AuxLogits/Conv2d_2a_5x5/weights/Initializer/random_uniform/sub"
  op: "Sub"
  input: "InceptionResnetV2/AuxLogits/Conv2d_2a_5x5/weights/Initializer/random_uniform/max"
  input: "InceptionResnetV2/AuxLogits/Conv2d_2a_5x5/weights/Initializer/random_uniform/min"
  attr {
    key: "T"
    value {
      type: DT_FLOAT
    }
  }
  attr {
    key: "_class"
    value {
      list {
        s: "loc:@InceptionResnetV2/AuxLogits/Conv2d_2a_5x5/weights"
      }
    }
  }
}
node {
  name: "InceptionResnetV2/AuxLogits/Conv2d_2a_5x5/weights/Initializer/random_uniform/mul"
  op: "Mul"
  input: "InceptionResnetV2/AuxLogits/Conv2d_2a_5x5/weights/Initializer/random_uniform/RandomUniform"
  input: "InceptionResnetV2/AuxLogits/Conv2d_2a_5x5/weights/Initializer/random_uniform/sub"
  attr {
    key: "T"
    value {
      type: DT_FLOAT
    }
  }
  attr {
    key: "_class"
    value {
      list {
        s: "loc:@InceptionResnetV2/AuxLogits/Conv2d_2a_5x5/weights"
      }
    }
  }
}
node {
  name: "InceptionResnetV2/AuxLogits/Conv2d_2a_5x5/weights/Initializer/random_uniform"
  op: "Add"
  input: "InceptionResnetV2/AuxLogits/Conv2d_2a_5x5/weights/Initializer/random_uniform/mul"
  input: "InceptionResnetV2/AuxLogits/Conv2d_2a_5x5/weights/Initializer/random_uniform/min"
  attr {
    key: "T"
    value {
      type: DT_FLOAT
    }
  }
  attr {
    key: "_class"
    value {
      list {
        s: "loc:@InceptionResnetV2/AuxLogits/Conv2d_2a_5x5/weights"
      }
    }
  }
}
node {
  name: "InceptionResnetV2/AuxLogits/Conv2d_2a_5x5/weights"
  op: "VariableV2"
  attr {
    key: "_class"
    value {
      list {
        s: "loc:@InceptionResnetV2/AuxLogits/Conv2d_2a_5x5/weights"
      }
    }
  }
  attr {
    key: "container"
    value {
      s: ""
    }
  }
  attr {
    key: "dtype"
    value {
      type: DT_FLOAT
    }
  }
  attr {
    key: "shape"
    value {
      shape {
        dim {
          size: 5
        }
        dim {
          size: 5
        }
        dim {
          size: 128
        }
        dim {
          size: 768
        }
      }
    }
  }
  attr {
    key: "shared_name"
    value {
      s: ""
    }
  }
}
node {
  name: "InceptionResnetV2/AuxLogits/Conv2d_2a_5x5/weights/Assign"
  op: "Assign"
  input: "InceptionResnetV2/AuxLogits/Conv2d_2a_5x5/weights"
  input: "InceptionResnetV2/AuxLogits/Conv2d_2a_5x5/weights/Initializer/random_uniform"
  attr {
    key: "T"
    value {
      type: DT_FLOAT
    }
  }
  attr {
    key: "_class"
    value {
      list {
        s: "loc:@InceptionResnetV2/AuxLogits/Conv2d_2a_5x5/weights"
      }
    }
  }
  attr {
    key: "use_locking"
    value {
      b: true
    }
  }
  attr {
    key: "validate_shape"
    value {
      b: true
    }
  }
}
node {
  name: "InceptionResnetV2/AuxLogits/Conv2d_2a_5x5/weights/read"
  op: "Identity"
  input: "InceptionResnetV2/AuxLogits/Conv2d_2a_5x5/weights"
  attr {
    key: "T"
    value {
      type: DT_FLOAT
    }
  }
  attr {
    key: "_class"
    value {
      list {
        s: "loc:@InceptionResnetV2/AuxLogits/Conv2d_2a_5x5/weights"
      }
    }
  }
}
node {
  name: "InceptionResnetV2/AuxLogits/Conv2d_2a_5x5/dilation_rate"
  op: "Const"
  attr {
    key: "dtype"
    value {
      type: DT_INT32
    }
  }
  attr {
    key: "value"
    value {
      tensor {
        dtype: DT_INT32
        tensor_shape {
          dim {
            size: 2
          }
        }
        tensor_content: "\001\000\000\000\001\000\000\000"
      }
    }
  }
}
node {
  name: "InceptionResnetV2/AuxLogits/Conv2d_2a_5x5/Conv2D"
  op: "Conv2D"
  input: "InceptionResnetV2/AuxLogits/Conv2d_1b_1x1/Relu"
  input: "InceptionResnetV2/AuxLogits/Conv2d_2a_5x5/weights/read"
  attr {
    key: "T"
    value {
      type: DT_FLOAT
    }
  }
  attr {
    key: "data_format"
    value {
      s: "NHWC"
    }
  }
  attr {
    key: "dilations"
    value {
      list {
        i: 1
        i: 1
        i: 1
        i: 1
      }
    }
  }
  attr {
    key: "padding"
    value {
      s: "VALID"
    }
  }
  attr {
    key: "strides"
    value {
      list {
        i: 1
        i: 1
        i: 1
        i: 1
      }
    }
  }
  attr {
    key: "use_cudnn_on_gpu"
    value {
      b: true
    }
  }
}
node {
  name: "InceptionResnetV2/AuxLogits/Conv2d_2a_5x5/BatchNorm/Const"
  op: "Const"
  attr {
    key: "dtype"
    value {
      type: DT_FLOAT
    }
  }
  attr {
    key: "value"
    value {
      tensor {
        dtype: DT_FLOAT
        tensor_shape {
          dim {
            size: 768
          }
        }
        float_val: 1.0
      }
    }
  }
}
node {
  name: "InceptionResnetV2/AuxLogits/Conv2d_2a_5x5/BatchNorm/beta/Initializer/zeros"
  op: "Const"
  attr {
    key: "_class"
    value {
      list {
        s: "loc:@InceptionResnetV2/AuxLogits/Conv2d_2a_5x5/BatchNorm/beta"
      }
    }
  }
  attr {
    key: "dtype"
    value {
      type: DT_FLOAT
    }
  }
  attr {
    key: "value"
    value {
      tensor {
        dtype: DT_FLOAT
        tensor_shape {
          dim {
            size: 768
          }
        }
        float_val: 0.0
      }
    }
  }
}
node {
  name: "InceptionResnetV2/AuxLogits/Conv2d_2a_5x5/BatchNorm/beta"
  op: "VariableV2"
  attr {
    key: "_class"
    value {
      list {
        s: "loc:@InceptionResnetV2/AuxLogits/Conv2d_2a_5x5/BatchNorm/beta"
      }
    }
  }
  attr {
    key: "container"
    value {
      s: ""
    }
  }
  attr {
    key: "dtype"
    value {
      type: DT_FLOAT
    }
  }
  attr {
    key: "shape"
    value {
      shape {
        dim {
          size: 768
        }
      }
    }
  }
  attr {
    key: "shared_name"
    value {
      s: ""
    }
  }
}
node {
  name: "InceptionResnetV2/AuxLogits/Conv2d_2a_5x5/BatchNorm/beta/Assign"
  op: "Assign"
  input: "InceptionResnetV2/AuxLogits/Conv2d_2a_5x5/BatchNorm/beta"
  input: "InceptionResnetV2/AuxLogits/Conv2d_2a_5x5/BatchNorm/beta/Initializer/zeros"
  attr {
    key: "T"
    value {
      type: DT_FLOAT
    }
  }
  attr {
    key: "_class"
    value {
      list {
        s: "loc:@InceptionResnetV2/AuxLogits/Conv2d_2a_5x5/BatchNorm/beta"
      }
    }
  }
  attr {
    key: "use_locking"
    value {
      b: true
    }
  }
  attr {
    key: "validate_shape"
    value {
      b: true
    }
  }
}
node {
  name: "InceptionResnetV2/AuxLogits/Conv2d_2a_5x5/BatchNorm/beta/read"
  op: "Identity"
  input: "InceptionResnetV2/AuxLogits/Conv2d_2a_5x5/BatchNorm/beta"
  attr {
    key: "T"
    value {
      type: DT_FLOAT
    }
  }
  attr {
    key: "_class"
    value {
      list {
        s: "loc:@InceptionResnetV2/AuxLogits/Conv2d_2a_5x5/BatchNorm/beta"
      }
    }
  }
}
node {
  name: "InceptionResnetV2/AuxLogits/Conv2d_2a_5x5/BatchNorm/moving_mean/Initializer/zeros"
  op: "Const"
  attr {
    key: "_class"
    value {
      list {
        s: "loc:@InceptionResnetV2/AuxLogits/Conv2d_2a_5x5/BatchNorm/moving_mean"
      }
    }
  }
  attr {
    key: "dtype"
    value {
      type: DT_FLOAT
    }
  }
  attr {
    key: "value"
    value {
      tensor {
        dtype: DT_FLOAT
        tensor_shape {
          dim {
            size: 768
          }
        }
        float_val: 0.0
      }
    }
  }
}
node {
  name: "InceptionResnetV2/AuxLogits/Conv2d_2a_5x5/BatchNorm/moving_mean"
  op: "VariableV2"
  attr {
    key: "_class"
    value {
      list {
        s: "loc:@InceptionResnetV2/AuxLogits/Conv2d_2a_5x5/BatchNorm/moving_mean"
      }
    }
  }
  attr {
    key: "container"
    value {
      s: ""
    }
  }
  attr {
    key: "dtype"
    value {
      type: DT_FLOAT
    }
  }
  attr {
    key: "shape"
    value {
      shape {
        dim {
          size: 768
        }
      }
    }
  }
  attr {
    key: "shared_name"
    value {
      s: ""
    }
  }
}
node {
  name: "InceptionResnetV2/AuxLogits/Conv2d_2a_5x5/BatchNorm/moving_mean/Assign"
  op: "Assign"
  input: "InceptionResnetV2/AuxLogits/Conv2d_2a_5x5/BatchNorm/moving_mean"
  input: "InceptionResnetV2/AuxLogits/Conv2d_2a_5x5/BatchNorm/moving_mean/Initializer/zeros"
  attr {
    key: "T"
    value {
      type: DT_FLOAT
    }
  }
  attr {
    key: "_class"
    value {
      list {
        s: "loc:@InceptionResnetV2/AuxLogits/Conv2d_2a_5x5/BatchNorm/moving_mean"
      }
    }
  }
  attr {
    key: "use_locking"
    value {
      b: true
    }
  }
  attr {
    key: "validate_shape"
    value {
      b: true
    }
  }
}
node {
  name: "InceptionResnetV2/AuxLogits/Conv2d_2a_5x5/BatchNorm/moving_mean/read"
  op: "Identity"
  input: "InceptionResnetV2/AuxLogits/Conv2d_2a_5x5/BatchNorm/moving_mean"
  attr {
    key: "T"
    value {
      type: DT_FLOAT
    }
  }
  attr {
    key: "_class"
    value {
      list {
        s: "loc:@InceptionResnetV2/AuxLogits/Conv2d_2a_5x5/BatchNorm/moving_mean"
      }
    }
  }
}
node {
  name: "InceptionResnetV2/AuxLogits/Conv2d_2a_5x5/BatchNorm/moving_variance/Initializer/ones"
  op: "Const"
  attr {
    key: "_class"
    value {
      list {
        s: "loc:@InceptionResnetV2/AuxLogits/Conv2d_2a_5x5/BatchNorm/moving_variance"
      }
    }
  }
  attr {
    key: "dtype"
    value {
      type: DT_FLOAT
    }
  }
  attr {
    key: "value"
    value {
      tensor {
        dtype: DT_FLOAT
        tensor_shape {
          dim {
            size: 768
          }
        }
        float_val: 1.0
      }
    }
  }
}
node {
  name: "InceptionResnetV2/AuxLogits/Conv2d_2a_5x5/BatchNorm/moving_variance"
  op: "VariableV2"
  attr {
    key: "_class"
    value {
      list {
        s: "loc:@InceptionResnetV2/AuxLogits/Conv2d_2a_5x5/BatchNorm/moving_variance"
      }
    }
  }
  attr {
    key: "container"
    value {
      s: ""
    }
  }
  attr {
    key: "dtype"
    value {
      type: DT_FLOAT
    }
  }
  attr {
    key: "shape"
    value {
      shape {
        dim {
          size: 768
        }
      }
    }
  }
  attr {
    key: "shared_name"
    value {
      s: ""
    }
  }
}
node {
  name: "InceptionResnetV2/AuxLogits/Conv2d_2a_5x5/BatchNorm/moving_variance/Assign"
  op: "Assign"
  input: "InceptionResnetV2/AuxLogits/Conv2d_2a_5x5/BatchNorm/moving_variance"
  input: "InceptionResnetV2/AuxLogits/Conv2d_2a_5x5/BatchNorm/moving_variance/Initializer/ones"
  attr {
    key: "T"
    value {
      type: DT_FLOAT
    }
  }
  attr {
    key: "_class"
    value {
      list {
        s: "loc:@InceptionResnetV2/AuxLogits/Conv2d_2a_5x5/BatchNorm/moving_variance"
      }
    }
  }
  attr {
    key: "use_locking"
    value {
      b: true
    }
  }
  attr {
    key: "validate_shape"
    value {
      b: true
    }
  }
}
node {
  name: "InceptionResnetV2/AuxLogits/Conv2d_2a_5x5/BatchNorm/moving_variance/read"
  op: "Identity"
  input: "InceptionResnetV2/AuxLogits/Conv2d_2a_5x5/BatchNorm/moving_variance"
  attr {
    key: "T"
    value {
      type: DT_FLOAT
    }
  }
  attr {
    key: "_class"
    value {
      list {
        s: "loc:@InceptionResnetV2/AuxLogits/Conv2d_2a_5x5/BatchNorm/moving_variance"
      }
    }
  }
}
node {
  name: "InceptionResnetV2/AuxLogits/Conv2d_2a_5x5/BatchNorm/FusedBatchNorm"
  op: "FusedBatchNorm"
  input: "InceptionResnetV2/AuxLogits/Conv2d_2a_5x5/Conv2D"
  input: "InceptionResnetV2/AuxLogits/Conv2d_2a_5x5/BatchNorm/Const"
  input: "InceptionResnetV2/AuxLogits/Conv2d_2a_5x5/BatchNorm/beta/read"
  input: "InceptionResnetV2/AuxLogits/Conv2d_2a_5x5/BatchNorm/moving_mean/read"
  input: "InceptionResnetV2/AuxLogits/Conv2d_2a_5x5/BatchNorm/moving_variance/read"
  attr {
    key: "T"
    value {
      type: DT_FLOAT
    }
  }
  attr {
    key: "data_format"
    value {
      s: "NHWC"
    }
  }
  attr {
    key: "epsilon"
    value {
      f: 0.0010000000474974513
    }
  }
  attr {
    key: "is_training"
    value {
      b: false
    }
  }
}
node {
  name: "InceptionResnetV2/AuxLogits/Conv2d_2a_5x5/BatchNorm/Const_1"
  op: "Const"
  attr {
    key: "dtype"
    value {
      type: DT_FLOAT
    }
  }
  attr {
    key: "value"
    value {
      tensor {
        dtype: DT_FLOAT
        tensor_shape {
        }
        float_val: 0.9997000098228455
      }
    }
  }
}
node {
  name: "InceptionResnetV2/AuxLogits/Conv2d_2a_5x5/Relu"
  op: "Relu"
  input: "InceptionResnetV2/AuxLogits/Conv2d_2a_5x5/BatchNorm/FusedBatchNorm"
  attr {
    key: "T"
    value {
      type: DT_FLOAT
    }
  }
}
node {
  name: "InceptionResnetV2/AuxLogits/Flatten/flatten/Shape"
  op: "Shape"
  input: "InceptionResnetV2/AuxLogits/Conv2d_2a_5x5/Relu"
  attr {
    key: "T"
    value {
      type: DT_FLOAT
    }
  }
  attr {
    key: "out_type"
    value {
      type: DT_INT32
    }
  }
}
node {
  name: "InceptionResnetV2/AuxLogits/Flatten/flatten/strided_slice/stack"
  op: "Const"
  attr {
    key: "dtype"
    value {
      type: DT_INT32
    }
  }
  attr {
    key: "value"
    value {
      tensor {
        dtype: DT_INT32
        tensor_shape {
          dim {
            size: 1
          }
        }
        int_val: 0
      }
    }
  }
}
node {
  name: "InceptionResnetV2/AuxLogits/Flatten/flatten/strided_slice/stack_1"
  op: "Const"
  attr {
    key: "dtype"
    value {
      type: DT_INT32
    }
  }
  attr {
    key: "value"
    value {
      tensor {
        dtype: DT_INT32
        tensor_shape {
          dim {
            size: 1
          }
        }
        int_val: 1
      }
    }
  }
}
node {
  name: "InceptionResnetV2/AuxLogits/Flatten/flatten/strided_slice/stack_2"
  op: "Const"
  attr {
    key: "dtype"
    value {
      type: DT_INT32
    }
  }
  attr {
    key: "value"
    value {
      tensor {
        dtype: DT_INT32
        tensor_shape {
          dim {
            size: 1
          }
        }
        int_val: 1
      }
    }
  }
}
node {
  name: "InceptionResnetV2/AuxLogits/Flatten/flatten/strided_slice"
  op: "StridedSlice"
  input: "InceptionResnetV2/AuxLogits/Flatten/flatten/Shape"
  input: "InceptionResnetV2/AuxLogits/Flatten/flatten/strided_slice/stack"
  input: "InceptionResnetV2/AuxLogits/Flatten/flatten/strided_slice/stack_1"
  input: "InceptionResnetV2/AuxLogits/Flatten/flatten/strided_slice/stack_2"
  attr {
    key: "Index"
    value {
      type: DT_INT32
    }
  }
  attr {
    key: "T"
    value {
      type: DT_INT32
    }
  }
  attr {
    key: "begin_mask"
    value {
      i: 0
    }
  }
  attr {
    key: "ellipsis_mask"
    value {
      i: 0
    }
  }
  attr {
    key: "end_mask"
    value {
      i: 0
    }
  }
  attr {
    key: "new_axis_mask"
    value {
      i: 0
    }
  }
  attr {
    key: "shrink_axis_mask"
    value {
      i: 1
    }
  }
}
node {
  name: "InceptionResnetV2/AuxLogits/Flatten/flatten/Reshape/shape/1"
  op: "Const"
  attr {
    key: "dtype"
    value {
      type: DT_INT32
    }
  }
  attr {
    key: "value"
    value {
      tensor {
        dtype: DT_INT32
        tensor_shape {
        }
        int_val: -1
      }
    }
  }
}
node {
  name: "InceptionResnetV2/AuxLogits/Flatten/flatten/Reshape/shape"
  op: "Pack"
  input: "InceptionResnetV2/AuxLogits/Flatten/flatten/strided_slice"
  input: "InceptionResnetV2/AuxLogits/Flatten/flatten/Reshape/shape/1"
  attr {
    key: "N"
    value {
      i: 2
    }
  }
  attr {
    key: "T"
    value {
      type: DT_INT32
    }
  }
  attr {
    key: "axis"
    value {
      i: 0
    }
  }
}
node {
  name: "InceptionResnetV2/AuxLogits/Flatten/flatten/Reshape"
  op: "Reshape"
  input: "InceptionResnetV2/AuxLogits/Conv2d_2a_5x5/Relu"
  input: "InceptionResnetV2/AuxLogits/Flatten/flatten/Reshape/shape"
  attr {
    key: "T"
    value {
      type: DT_FLOAT
    }
  }
  attr {
    key: "Tshape"
    value {
      type: DT_INT32
    }
  }
}
node {
  name: "InceptionResnetV2/AuxLogits/Logits/weights/Initializer/random_uniform/shape"
  op: "Const"
  attr {
    key: "_class"
    value {
      list {
        s: "loc:@InceptionResnetV2/AuxLogits/Logits/weights"
      }
    }
  }
  attr {
    key: "dtype"
    value {
      type: DT_INT32
    }
  }
  attr {
    key: "value"
    value {
      tensor {
        dtype: DT_INT32
        tensor_shape {
          dim {
            size: 2
          }
        }
        tensor_content: "\000\003\000\000\351\003\000\000"
      }
    }
  }
}
node {
  name: "InceptionResnetV2/AuxLogits/Logits/weights/Initializer/random_uniform/min"
  op: "Const"
  attr {
    key: "_class"
    value {
      list {
        s: "loc:@InceptionResnetV2/AuxLogits/Logits/weights"
      }
    }
  }
  attr {
    key: "dtype"
    value {
      type: DT_FLOAT
    }
  }
  attr {
    key: "value"
    value {
      tensor {
        dtype: DT_FLOAT
        tensor_shape {
        }
        float_val: -0.05823870375752449
      }
    }
  }
}
node {
  name: "InceptionResnetV2/AuxLogits/Logits/weights/Initializer/random_uniform/max"
  op: "Const"
  attr {
    key: "_class"
    value {
      list {
        s: "loc:@InceptionResnetV2/AuxLogits/Logits/weights"
      }
    }
  }
  attr {
    key: "dtype"
    value {
      type: DT_FLOAT
    }
  }
  attr {
    key: "value"
    value {
      tensor {
        dtype: DT_FLOAT
        tensor_shape {
        }
        float_val: 0.05823870375752449
      }
    }
  }
}
node {
  name: "InceptionResnetV2/AuxLogits/Logits/weights/Initializer/random_uniform/RandomUniform"
  op: "RandomUniform"
  input: "InceptionResnetV2/AuxLogits/Logits/weights/Initializer/random_uniform/shape"
  attr {
    key: "T"
    value {
      type: DT_INT32
    }
  }
  attr {
    key: "_class"
    value {
      list {
        s: "loc:@InceptionResnetV2/AuxLogits/Logits/weights"
      }
    }
  }
  attr {
    key: "dtype"
    value {
      type: DT_FLOAT
    }
  }
  attr {
    key: "seed"
    value {
      i: 0
    }
  }
  attr {
    key: "seed2"
    value {
      i: 0
    }
  }
}
node {
  name: "InceptionResnetV2/AuxLogits/Logits/weights/Initializer/random_uniform/sub"
  op: "Sub"
  input: "InceptionResnetV2/AuxLogits/Logits/weights/Initializer/random_uniform/max"
  input: "InceptionResnetV2/AuxLogits/Logits/weights/Initializer/random_uniform/min"
  attr {
    key: "T"
    value {
      type: DT_FLOAT
    }
  }
  attr {
    key: "_class"
    value {
      list {
        s: "loc:@InceptionResnetV2/AuxLogits/Logits/weights"
      }
    }
  }
}
node {
  name: "InceptionResnetV2/AuxLogits/Logits/weights/Initializer/random_uniform/mul"
  op: "Mul"
  input: "InceptionResnetV2/AuxLogits/Logits/weights/Initializer/random_uniform/RandomUniform"
  input: "InceptionResnetV2/AuxLogits/Logits/weights/Initializer/random_uniform/sub"
  attr {
    key: "T"
    value {
      type: DT_FLOAT
    }
  }
  attr {
    key: "_class"
    value {
      list {
        s: "loc:@InceptionResnetV2/AuxLogits/Logits/weights"
      }
    }
  }
}
node {
  name: "InceptionResnetV2/AuxLogits/Logits/weights/Initializer/random_uniform"
  op: "Add"
  input: "InceptionResnetV2/AuxLogits/Logits/weights/Initializer/random_uniform/mul"
  input: "InceptionResnetV2/AuxLogits/Logits/weights/Initializer/random_uniform/min"
  attr {
    key: "T"
    value {
      type: DT_FLOAT
    }
  }
  attr {
    key: "_class"
    value {
      list {
        s: "loc:@InceptionResnetV2/AuxLogits/Logits/weights"
      }
    }
  }
}
node {
  name: "InceptionResnetV2/AuxLogits/Logits/weights"
  op: "VariableV2"
  attr {
    key: "_class"
    value {
      list {
        s: "loc:@InceptionResnetV2/AuxLogits/Logits/weights"
      }
    }
  }
  attr {
    key: "container"
    value {
      s: ""
    }
  }
  attr {
    key: "dtype"
    value {
      type: DT_FLOAT
    }
  }
  attr {
    key: "shape"
    value {
      shape {
        dim {
          size: 768
        }
        dim {
          size: 1001
        }
      }
    }
  }
  attr {
    key: "shared_name"
    value {
      s: ""
    }
  }
}
node {
  name: "InceptionResnetV2/AuxLogits/Logits/weights/Assign"
  op: "Assign"
  input: "InceptionResnetV2/AuxLogits/Logits/weights"
  input: "InceptionResnetV2/AuxLogits/Logits/weights/Initializer/random_uniform"
  attr {
    key: "T"
    value {
      type: DT_FLOAT
    }
  }
  attr {
    key: "_class"
    value {
      list {
        s: "loc:@InceptionResnetV2/AuxLogits/Logits/weights"
      }
    }
  }
  attr {
    key: "use_locking"
    value {
      b: true
    }
  }
  attr {
    key: "validate_shape"
    value {
      b: true
    }
  }
}
node {
  name: "InceptionResnetV2/AuxLogits/Logits/weights/read"
  op: "Identity"
  input: "InceptionResnetV2/AuxLogits/Logits/weights"
  attr {
    key: "T"
    value {
      type: DT_FLOAT
    }
  }
  attr {
    key: "_class"
    value {
      list {
        s: "loc:@InceptionResnetV2/AuxLogits/Logits/weights"
      }
    }
  }
}
node {
  name: "InceptionResnetV2/AuxLogits/Logits/biases/Initializer/zeros/shape_as_tensor"
  op: "Const"
  attr {
    key: "_class"
    value {
      list {
        s: "loc:@InceptionResnetV2/AuxLogits/Logits/biases"
      }
    }
  }
  attr {
    key: "dtype"
    value {
      type: DT_INT32
    }
  }
  attr {
    key: "value"
    value {
      tensor {
        dtype: DT_INT32
        tensor_shape {
          dim {
            size: 1
          }
        }
        int_val: 1001
      }
    }
  }
}
node {
  name: "InceptionResnetV2/AuxLogits/Logits/biases/Initializer/zeros/Const"
  op: "Const"
  attr {
    key: "_class"
    value {
      list {
        s: "loc:@InceptionResnetV2/AuxLogits/Logits/biases"
      }
    }
  }
  attr {
    key: "dtype"
    value {
      type: DT_FLOAT
    }
  }
  attr {
    key: "value"
    value {
      tensor {
        dtype: DT_FLOAT
        tensor_shape {
        }
        float_val: 0.0
      }
    }
  }
}
node {
  name: "InceptionResnetV2/AuxLogits/Logits/biases/Initializer/zeros"
  op: "Fill"
  input: "InceptionResnetV2/AuxLogits/Logits/biases/Initializer/zeros/shape_as_tensor"
  input: "InceptionResnetV2/AuxLogits/Logits/biases/Initializer/zeros/Const"
  attr {
    key: "T"
    value {
      type: DT_FLOAT
    }
  }
  attr {
    key: "_class"
    value {
      list {
        s: "loc:@InceptionResnetV2/AuxLogits/Logits/biases"
      }
    }
  }
  attr {
    key: "index_type"
    value {
      type: DT_INT32
    }
  }
}
node {
  name: "InceptionResnetV2/AuxLogits/Logits/biases"
  op: "VariableV2"
  attr {
    key: "_class"
    value {
      list {
        s: "loc:@InceptionResnetV2/AuxLogits/Logits/biases"
      }
    }
  }
  attr {
    key: "container"
    value {
      s: ""
    }
  }
  attr {
    key: "dtype"
    value {
      type: DT_FLOAT
    }
  }
  attr {
    key: "shape"
    value {
      shape {
        dim {
          size: 1001
        }
      }
    }
  }
  attr {
    key: "shared_name"
    value {
      s: ""
    }
  }
}
node {
  name: "InceptionResnetV2/AuxLogits/Logits/biases/Assign"
  op: "Assign"
  input: "InceptionResnetV2/AuxLogits/Logits/biases"
  input: "InceptionResnetV2/AuxLogits/Logits/biases/Initializer/zeros"
  attr {
    key: "T"
    value {
      type: DT_FLOAT
    }
  }
  attr {
    key: "_class"
    value {
      list {
        s: "loc:@InceptionResnetV2/AuxLogits/Logits/biases"
      }
    }
  }
  attr {
    key: "use_locking"
    value {
      b: true
    }
  }
  attr {
    key: "validate_shape"
    value {
      b: true
    }
  }
}
node {
  name: "InceptionResnetV2/AuxLogits/Logits/biases/read"
  op: "Identity"
  input: "InceptionResnetV2/AuxLogits/Logits/biases"
  attr {
    key: "T"
    value {
      type: DT_FLOAT
    }
  }
  attr {
    key: "_class"
    value {
      list {
        s: "loc:@InceptionResnetV2/AuxLogits/Logits/biases"
      }
    }
  }
}
node {
  name: "InceptionResnetV2/AuxLogits/Logits/MatMul"
  op: "MatMul"
  input: "InceptionResnetV2/AuxLogits/Flatten/flatten/Reshape"
  input: "InceptionResnetV2/AuxLogits/Logits/weights/read"
  attr {
    key: "T"
    value {
      type: DT_FLOAT
    }
  }
  attr {
    key: "transpose_a"
    value {
      b: false
    }
  }
  attr {
    key: "transpose_b"
    value {
      b: false
    }
  }
}
node {
  name: "InceptionResnetV2/AuxLogits/Logits/BiasAdd"
  op: "BiasAdd"
  input: "InceptionResnetV2/AuxLogits/Logits/MatMul"
  input: "InceptionResnetV2/AuxLogits/Logits/biases/read"
  attr {
    key: "T"
    value {
      type: DT_FLOAT
    }
  }
  attr {
    key: "data_format"
    value {
      s: "NHWC"
    }
  }
}
node {
  name: "InceptionResnetV2/Logits/AvgPool_1a_8x8/AvgPool"
  op: "AvgPool"
  input: "InceptionResnetV2/InceptionResnetV2/Conv2d_7b_1x1/Relu"
  attr {
    key: "T"
    value {
      type: DT_FLOAT
    }
  }
  attr {
    key: "data_format"
    value {
      s: "NHWC"
    }
  }
  attr {
    key: "ksize"
    value {
      list {
        i: 1
        i: 8
        i: 8
        i: 1
      }
    }
  }
  attr {
    key: "padding"
    value {
      s: "VALID"
    }
  }
  attr {
    key: "strides"
    value {
      list {
        i: 1
        i: 2
        i: 2
        i: 1
      }
    }
  }
}
node {
  name: "InceptionResnetV2/Logits/Flatten/flatten/Shape"
  op: "Shape"
  input: "InceptionResnetV2/Logits/AvgPool_1a_8x8/AvgPool"
  attr {
    key: "T"
    value {
      type: DT_FLOAT
    }
  }
  attr {
    key: "out_type"
    value {
      type: DT_INT32
    }
  }
}
node {
  name: "InceptionResnetV2/Logits/Flatten/flatten/strided_slice/stack"
  op: "Const"
  attr {
    key: "dtype"
    value {
      type: DT_INT32
    }
  }
  attr {
    key: "value"
    value {
      tensor {
        dtype: DT_INT32
        tensor_shape {
          dim {
            size: 1
          }
        }
        int_val: 0
      }
    }
  }
}
node {
  name: "InceptionResnetV2/Logits/Flatten/flatten/strided_slice/stack_1"
  op: "Const"
  attr {
    key: "dtype"
    value {
      type: DT_INT32
    }
  }
  attr {
    key: "value"
    value {
      tensor {
        dtype: DT_INT32
        tensor_shape {
          dim {
            size: 1
          }
        }
        int_val: 1
      }
    }
  }
}
node {
  name: "InceptionResnetV2/Logits/Flatten/flatten/strided_slice/stack_2"
  op: "Const"
  attr {
    key: "dtype"
    value {
      type: DT_INT32
    }
  }
  attr {
    key: "value"
    value {
      tensor {
        dtype: DT_INT32
        tensor_shape {
          dim {
            size: 1
          }
        }
        int_val: 1
      }
    }
  }
}
node {
  name: "InceptionResnetV2/Logits/Flatten/flatten/strided_slice"
  op: "StridedSlice"
  input: "InceptionResnetV2/Logits/Flatten/flatten/Shape"
  input: "InceptionResnetV2/Logits/Flatten/flatten/strided_slice/stack"
  input: "InceptionResnetV2/Logits/Flatten/flatten/strided_slice/stack_1"
  input: "InceptionResnetV2/Logits/Flatten/flatten/strided_slice/stack_2"
  attr {
    key: "Index"
    value {
      type: DT_INT32
    }
  }
  attr {
    key: "T"
    value {
      type: DT_INT32
    }
  }
  attr {
    key: "begin_mask"
    value {
      i: 0
    }
  }
  attr {
    key: "ellipsis_mask"
    value {
      i: 0
    }
  }
  attr {
    key: "end_mask"
    value {
      i: 0
    }
  }
  attr {
    key: "new_axis_mask"
    value {
      i: 0
    }
  }
  attr {
    key: "shrink_axis_mask"
    value {
      i: 1
    }
  }
}
node {
  name: "InceptionResnetV2/Logits/Flatten/flatten/Reshape/shape/1"
  op: "Const"
  attr {
    key: "dtype"
    value {
      type: DT_INT32
    }
  }
  attr {
    key: "value"
    value {
      tensor {
        dtype: DT_INT32
        tensor_shape {
        }
        int_val: -1
      }
    }
  }
}
node {
  name: "InceptionResnetV2/Logits/Flatten/flatten/Reshape/shape"
  op: "Pack"
  input: "InceptionResnetV2/Logits/Flatten/flatten/strided_slice"
  input: "InceptionResnetV2/Logits/Flatten/flatten/Reshape/shape/1"
  attr {
    key: "N"
    value {
      i: 2
    }
  }
  attr {
    key: "T"
    value {
      type: DT_INT32
    }
  }
  attr {
    key: "axis"
    value {
      i: 0
    }
  }
}
node {
  name: "InceptionResnetV2/Logits/Flatten/flatten/Reshape"
  op: "Reshape"
  input: "InceptionResnetV2/Logits/AvgPool_1a_8x8/AvgPool"
  input: "InceptionResnetV2/Logits/Flatten/flatten/Reshape/shape"
  attr {
    key: "T"
    value {
      type: DT_FLOAT
    }
  }
  attr {
    key: "Tshape"
    value {
      type: DT_INT32
    }
  }
}
node {
  name: "InceptionResnetV2/Logits/Dropout/Identity"
  op: "Identity"
  input: "InceptionResnetV2/Logits/Flatten/flatten/Reshape"
  attr {
    key: "T"
    value {
      type: DT_FLOAT
    }
  }
}
node {
  name: "InceptionResnetV2/Logits/Logits/weights/Initializer/random_uniform/shape"
  op: "Const"
  attr {
    key: "_class"
    value {
      list {
        s: "loc:@InceptionResnetV2/Logits/Logits/weights"
      }
    }
  }
  attr {
    key: "dtype"
    value {
      type: DT_INT32
    }
  }
  attr {
    key: "value"
    value {
      tensor {
        dtype: DT_INT32
        tensor_shape {
          dim {
            size: 2
          }
        }
        tensor_content: "\000\006\000\000\351\003\000\000"
      }
    }
  }
}
node {
  name: "InceptionResnetV2/Logits/Logits/weights/Initializer/random_uniform/min"
  op: "Const"
  attr {
    key: "_class"
    value {
      list {
        s: "loc:@InceptionResnetV2/Logits/Logits/weights"
      }
    }
  }
  attr {
    key: "dtype"
    value {
      type: DT_FLOAT
    }
  }
  attr {
    key: "value"
    value {
      tensor {
        dtype: DT_FLOAT
        tensor_shape {
        }
        float_val: -0.048631247133016586
      }
    }
  }
}
node {
  name: "InceptionResnetV2/Logits/Logits/weights/Initializer/random_uniform/max"
  op: "Const"
  attr {
    key: "_class"
    value {
      list {
        s: "loc:@InceptionResnetV2/Logits/Logits/weights"
      }
    }
  }
  attr {
    key: "dtype"
    value {
      type: DT_FLOAT
    }
  }
  attr {
    key: "value"
    value {
      tensor {
        dtype: DT_FLOAT
        tensor_shape {
        }
        float_val: 0.048631247133016586
      }
    }
  }
}
node {
  name: "InceptionResnetV2/Logits/Logits/weights/Initializer/random_uniform/RandomUniform"
  op: "RandomUniform"
  input: "InceptionResnetV2/Logits/Logits/weights/Initializer/random_uniform/shape"
  attr {
    key: "T"
    value {
      type: DT_INT32
    }
  }
  attr {
    key: "_class"
    value {
      list {
        s: "loc:@InceptionResnetV2/Logits/Logits/weights"
      }
    }
  }
  attr {
    key: "dtype"
    value {
      type: DT_FLOAT
    }
  }
  attr {
    key: "seed"
    value {
      i: 0
    }
  }
  attr {
    key: "seed2"
    value {
      i: 0
    }
  }
}
node {
  name: "InceptionResnetV2/Logits/Logits/weights/Initializer/random_uniform/sub"
  op: "Sub"
  input: "InceptionResnetV2/Logits/Logits/weights/Initializer/random_uniform/max"
  input: "InceptionResnetV2/Logits/Logits/weights/Initializer/random_uniform/min"
  attr {
    key: "T"
    value {
      type: DT_FLOAT
    }
  }
  attr {
    key: "_class"
    value {
      list {
        s: "loc:@InceptionResnetV2/Logits/Logits/weights"
      }
    }
  }
}
node {
  name: "InceptionResnetV2/Logits/Logits/weights/Initializer/random_uniform/mul"
  op: "Mul"
  input: "InceptionResnetV2/Logits/Logits/weights/Initializer/random_uniform/RandomUniform"
  input: "InceptionResnetV2/Logits/Logits/weights/Initializer/random_uniform/sub"
  attr {
    key: "T"
    value {
      type: DT_FLOAT
    }
  }
  attr {
    key: "_class"
    value {
      list {
        s: "loc:@InceptionResnetV2/Logits/Logits/weights"
      }
    }
  }
}
node {
  name: "InceptionResnetV2/Logits/Logits/weights/Initializer/random_uniform"
  op: "Add"
  input: "InceptionResnetV2/Logits/Logits/weights/Initializer/random_uniform/mul"
  input: "InceptionResnetV2/Logits/Logits/weights/Initializer/random_uniform/min"
  attr {
    key: "T"
    value {
      type: DT_FLOAT
    }
  }
  attr {
    key: "_class"
    value {
      list {
        s: "loc:@InceptionResnetV2/Logits/Logits/weights"
      }
    }
  }
}
node {
  name: "InceptionResnetV2/Logits/Logits/weights"
  op: "VariableV2"
  attr {
    key: "_class"
    value {
      list {
        s: "loc:@InceptionResnetV2/Logits/Logits/weights"
      }
    }
  }
  attr {
    key: "container"
    value {
      s: ""
    }
  }
  attr {
    key: "dtype"
    value {
      type: DT_FLOAT
    }
  }
  attr {
    key: "shape"
    value {
      shape {
        dim {
          size: 1536
        }
        dim {
          size: 1001
        }
      }
    }
  }
  attr {
    key: "shared_name"
    value {
      s: ""
    }
  }
}
node {
  name: "InceptionResnetV2/Logits/Logits/weights/Assign"
  op: "Assign"
  input: "InceptionResnetV2/Logits/Logits/weights"
  input: "InceptionResnetV2/Logits/Logits/weights/Initializer/random_uniform"
  attr {
    key: "T"
    value {
      type: DT_FLOAT
    }
  }
  attr {
    key: "_class"
    value {
      list {
        s: "loc:@InceptionResnetV2/Logits/Logits/weights"
      }
    }
  }
  attr {
    key: "use_locking"
    value {
      b: true
    }
  }
  attr {
    key: "validate_shape"
    value {
      b: true
    }
  }
}
node {
  name: "InceptionResnetV2/Logits/Logits/weights/read"
  op: "Identity"
  input: "InceptionResnetV2/Logits/Logits/weights"
  attr {
    key: "T"
    value {
      type: DT_FLOAT
    }
  }
  attr {
    key: "_class"
    value {
      list {
        s: "loc:@InceptionResnetV2/Logits/Logits/weights"
      }
    }
  }
}
node {
  name: "InceptionResnetV2/Logits/Logits/biases/Initializer/zeros/shape_as_tensor"
  op: "Const"
  attr {
    key: "_class"
    value {
      list {
        s: "loc:@InceptionResnetV2/Logits/Logits/biases"
      }
    }
  }
  attr {
    key: "dtype"
    value {
      type: DT_INT32
    }
  }
  attr {
    key: "value"
    value {
      tensor {
        dtype: DT_INT32
        tensor_shape {
          dim {
            size: 1
          }
        }
        int_val: 1001
      }
    }
  }
}
node {
  name: "InceptionResnetV2/Logits/Logits/biases/Initializer/zeros/Const"
  op: "Const"
  attr {
    key: "_class"
    value {
      list {
        s: "loc:@InceptionResnetV2/Logits/Logits/biases"
      }
    }
  }
  attr {
    key: "dtype"
    value {
      type: DT_FLOAT
    }
  }
  attr {
    key: "value"
    value {
      tensor {
        dtype: DT_FLOAT
        tensor_shape {
        }
        float_val: 0.0
      }
    }
  }
}
node {
  name: "InceptionResnetV2/Logits/Logits/biases/Initializer/zeros"
  op: "Fill"
  input: "InceptionResnetV2/Logits/Logits/biases/Initializer/zeros/shape_as_tensor"
  input: "InceptionResnetV2/Logits/Logits/biases/Initializer/zeros/Const"
  attr {
    key: "T"
    value {
      type: DT_FLOAT
    }
  }
  attr {
    key: "_class"
    value {
      list {
        s: "loc:@InceptionResnetV2/Logits/Logits/biases"
      }
    }
  }
  attr {
    key: "index_type"
    value {
      type: DT_INT32
    }
  }
}
node {
  name: "InceptionResnetV2/Logits/Logits/biases"
  op: "VariableV2"
  attr {
    key: "_class"
    value {
      list {
        s: "loc:@InceptionResnetV2/Logits/Logits/biases"
      }
    }
  }
  attr {
    key: "container"
    value {
      s: ""
    }
  }
  attr {
    key: "dtype"
    value {
      type: DT_FLOAT
    }
  }
  attr {
    key: "shape"
    value {
      shape {
        dim {
          size: 1001
        }
      }
    }
  }
  attr {
    key: "shared_name"
    value {
      s: ""
    }
  }
}
node {
  name: "InceptionResnetV2/Logits/Logits/biases/Assign"
  op: "Assign"
  input: "InceptionResnetV2/Logits/Logits/biases"
  input: "InceptionResnetV2/Logits/Logits/biases/Initializer/zeros"
  attr {
    key: "T"
    value {
      type: DT_FLOAT
    }
  }
  attr {
    key: "_class"
    value {
      list {
        s: "loc:@InceptionResnetV2/Logits/Logits/biases"
      }
    }
  }
  attr {
    key: "use_locking"
    value {
      b: true
    }
  }
  attr {
    key: "validate_shape"
    value {
      b: true
    }
  }
}
node {
  name: "InceptionResnetV2/Logits/Logits/biases/read"
  op: "Identity"
  input: "InceptionResnetV2/Logits/Logits/biases"
  attr {
    key: "T"
    value {
      type: DT_FLOAT
    }
  }
  attr {
    key: "_class"
    value {
      list {
        s: "loc:@InceptionResnetV2/Logits/Logits/biases"
      }
    }
  }
}
node {
  name: "InceptionResnetV2/Logits/Logits/MatMul"
  op: "MatMul"
  input: "InceptionResnetV2/Logits/Dropout/Identity"
  input: "InceptionResnetV2/Logits/Logits/weights/read"
  attr {
    key: "T"
    value {
      type: DT_FLOAT
    }
  }
  attr {
    key: "transpose_a"
    value {
      b: false
    }
  }
  attr {
    key: "transpose_b"
    value {
      b: false
    }
  }
}
node {
  name: "InceptionResnetV2/Logits/Logits/BiasAdd"
  op: "BiasAdd"
  input: "InceptionResnetV2/Logits/Logits/MatMul"
  input: "InceptionResnetV2/Logits/Logits/biases/read"
  attr {
    key: "T"
    value {
      type: DT_FLOAT
    }
  }
  attr {
    key: "data_format"
    value {
      s: "NHWC"
    }
  }
}
node {
  name: "InceptionResnetV2/Logits/Predictions"
  op: "Softmax"
  input: "InceptionResnetV2/Logits/Logits/BiasAdd"
  attr {
    key: "T"
    value {
      type: DT_FLOAT
    }
  }
}
versions {
  producer: 27
}
