node {
  name: "input"
  op: "Placeholder"
  attr {
    key: "dtype"
    value {
      type: DT_FLOAT
    }
  }
  attr {
    key: "shape"
    value {
      shape {
        dim {
          size: -1
        }
        dim {
          size: 224
        }
        dim {
          size: 224
        }
        dim {
          size: 3
        }
      }
    }
  }
}
node {
  name: "vgg_19/conv1/conv1_1/weights/Initializer/random_uniform/shape"
  op: "Const"
  attr {
    key: "_class"
    value {
      list {
        s: "loc:@vgg_19/conv1/conv1_1/weights"
      }
    }
  }
  attr {
    key: "dtype"
    value {
      type: DT_INT32
    }
  }
  attr {
    key: "value"
    value {
      tensor {
        dtype: DT_INT32
        tensor_shape {
          dim {
            size: 4
          }
        }
        tensor_content: "\003\000\000\000\003\000\000\000\003\000\000\000@\000\000\000"
      }
    }
  }
}
node {
  name: "vgg_19/conv1/conv1_1/weights/Initializer/random_uniform/min"
  op: "Const"
  attr {
    key: "_class"
    value {
      list {
        s: "loc:@vgg_19/conv1/conv1_1/weights"
      }
    }
  }
  attr {
    key: "dtype"
    value {
      type: DT_FLOAT
    }
  }
  attr {
    key: "value"
    value {
      tensor {
        dtype: DT_FLOAT
        tensor_shape {
        }
        float_val: -0.09975093603134155
      }
    }
  }
}
node {
  name: "vgg_19/conv1/conv1_1/weights/Initializer/random_uniform/max"
  op: "Const"
  attr {
    key: "_class"
    value {
      list {
        s: "loc:@vgg_19/conv1/conv1_1/weights"
      }
    }
  }
  attr {
    key: "dtype"
    value {
      type: DT_FLOAT
    }
  }
  attr {
    key: "value"
    value {
      tensor {
        dtype: DT_FLOAT
        tensor_shape {
        }
        float_val: 0.09975093603134155
      }
    }
  }
}
node {
  name: "vgg_19/conv1/conv1_1/weights/Initializer/random_uniform/RandomUniform"
  op: "RandomUniform"
  input: "vgg_19/conv1/conv1_1/weights/Initializer/random_uniform/shape"
  attr {
    key: "T"
    value {
      type: DT_INT32
    }
  }
  attr {
    key: "_class"
    value {
      list {
        s: "loc:@vgg_19/conv1/conv1_1/weights"
      }
    }
  }
  attr {
    key: "dtype"
    value {
      type: DT_FLOAT
    }
  }
  attr {
    key: "seed"
    value {
      i: 0
    }
  }
  attr {
    key: "seed2"
    value {
      i: 0
    }
  }
}
node {
  name: "vgg_19/conv1/conv1_1/weights/Initializer/random_uniform/sub"
  op: "Sub"
  input: "vgg_19/conv1/conv1_1/weights/Initializer/random_uniform/max"
  input: "vgg_19/conv1/conv1_1/weights/Initializer/random_uniform/min"
  attr {
    key: "T"
    value {
      type: DT_FLOAT
    }
  }
  attr {
    key: "_class"
    value {
      list {
        s: "loc:@vgg_19/conv1/conv1_1/weights"
      }
    }
  }
}
node {
  name: "vgg_19/conv1/conv1_1/weights/Initializer/random_uniform/mul"
  op: "Mul"
  input: "vgg_19/conv1/conv1_1/weights/Initializer/random_uniform/RandomUniform"
  input: "vgg_19/conv1/conv1_1/weights/Initializer/random_uniform/sub"
  attr {
    key: "T"
    value {
      type: DT_FLOAT
    }
  }
  attr {
    key: "_class"
    value {
      list {
        s: "loc:@vgg_19/conv1/conv1_1/weights"
      }
    }
  }
}
node {
  name: "vgg_19/conv1/conv1_1/weights/Initializer/random_uniform"
  op: "Add"
  input: "vgg_19/conv1/conv1_1/weights/Initializer/random_uniform/mul"
  input: "vgg_19/conv1/conv1_1/weights/Initializer/random_uniform/min"
  attr {
    key: "T"
    value {
      type: DT_FLOAT
    }
  }
  attr {
    key: "_class"
    value {
      list {
        s: "loc:@vgg_19/conv1/conv1_1/weights"
      }
    }
  }
}
node {
  name: "vgg_19/conv1/conv1_1/weights"
  op: "VariableV2"
  attr {
    key: "_class"
    value {
      list {
        s: "loc:@vgg_19/conv1/conv1_1/weights"
      }
    }
  }
  attr {
    key: "container"
    value {
      s: ""
    }
  }
  attr {
    key: "dtype"
    value {
      type: DT_FLOAT
    }
  }
  attr {
    key: "shape"
    value {
      shape {
        dim {
          size: 3
        }
        dim {
          size: 3
        }
        dim {
          size: 3
        }
        dim {
          size: 64
        }
      }
    }
  }
  attr {
    key: "shared_name"
    value {
      s: ""
    }
  }
}
node {
  name: "vgg_19/conv1/conv1_1/weights/Assign"
  op: "Assign"
  input: "vgg_19/conv1/conv1_1/weights"
  input: "vgg_19/conv1/conv1_1/weights/Initializer/random_uniform"
  attr {
    key: "T"
    value {
      type: DT_FLOAT
    }
  }
  attr {
    key: "_class"
    value {
      list {
        s: "loc:@vgg_19/conv1/conv1_1/weights"
      }
    }
  }
  attr {
    key: "use_locking"
    value {
      b: true
    }
  }
  attr {
    key: "validate_shape"
    value {
      b: true
    }
  }
}
node {
  name: "vgg_19/conv1/conv1_1/weights/read"
  op: "Identity"
  input: "vgg_19/conv1/conv1_1/weights"
  attr {
    key: "T"
    value {
      type: DT_FLOAT
    }
  }
  attr {
    key: "_class"
    value {
      list {
        s: "loc:@vgg_19/conv1/conv1_1/weights"
      }
    }
  }
}
node {
  name: "vgg_19/conv1/conv1_1/biases/Initializer/zeros"
  op: "Const"
  attr {
    key: "_class"
    value {
      list {
        s: "loc:@vgg_19/conv1/conv1_1/biases"
      }
    }
  }
  attr {
    key: "dtype"
    value {
      type: DT_FLOAT
    }
  }
  attr {
    key: "value"
    value {
      tensor {
        dtype: DT_FLOAT
        tensor_shape {
          dim {
            size: 64
          }
        }
        float_val: 0.0
      }
    }
  }
}
node {
  name: "vgg_19/conv1/conv1_1/biases"
  op: "VariableV2"
  attr {
    key: "_class"
    value {
      list {
        s: "loc:@vgg_19/conv1/conv1_1/biases"
      }
    }
  }
  attr {
    key: "container"
    value {
      s: ""
    }
  }
  attr {
    key: "dtype"
    value {
      type: DT_FLOAT
    }
  }
  attr {
    key: "shape"
    value {
      shape {
        dim {
          size: 64
        }
      }
    }
  }
  attr {
    key: "shared_name"
    value {
      s: ""
    }
  }
}
node {
  name: "vgg_19/conv1/conv1_1/biases/Assign"
  op: "Assign"
  input: "vgg_19/conv1/conv1_1/biases"
  input: "vgg_19/conv1/conv1_1/biases/Initializer/zeros"
  attr {
    key: "T"
    value {
      type: DT_FLOAT
    }
  }
  attr {
    key: "_class"
    value {
      list {
        s: "loc:@vgg_19/conv1/conv1_1/biases"
      }
    }
  }
  attr {
    key: "use_locking"
    value {
      b: true
    }
  }
  attr {
    key: "validate_shape"
    value {
      b: true
    }
  }
}
node {
  name: "vgg_19/conv1/conv1_1/biases/read"
  op: "Identity"
  input: "vgg_19/conv1/conv1_1/biases"
  attr {
    key: "T"
    value {
      type: DT_FLOAT
    }
  }
  attr {
    key: "_class"
    value {
      list {
        s: "loc:@vgg_19/conv1/conv1_1/biases"
      }
    }
  }
}
node {
  name: "vgg_19/conv1/conv1_1/dilation_rate"
  op: "Const"
  attr {
    key: "dtype"
    value {
      type: DT_INT32
    }
  }
  attr {
    key: "value"
    value {
      tensor {
        dtype: DT_INT32
        tensor_shape {
          dim {
            size: 2
          }
        }
        tensor_content: "\001\000\000\000\001\000\000\000"
      }
    }
  }
}
node {
  name: "vgg_19/conv1/conv1_1/Conv2D"
  op: "Conv2D"
  input: "input"
  input: "vgg_19/conv1/conv1_1/weights/read"
  attr {
    key: "T"
    value {
      type: DT_FLOAT
    }
  }
  attr {
    key: "data_format"
    value {
      s: "NHWC"
    }
  }
  attr {
    key: "dilations"
    value {
      list {
        i: 1
        i: 1
        i: 1
        i: 1
      }
    }
  }
  attr {
    key: "padding"
    value {
      s: "SAME"
    }
  }
  attr {
    key: "strides"
    value {
      list {
        i: 1
        i: 1
        i: 1
        i: 1
      }
    }
  }
  attr {
    key: "use_cudnn_on_gpu"
    value {
      b: true
    }
  }
}
node {
  name: "vgg_19/conv1/conv1_1/BiasAdd"
  op: "BiasAdd"
  input: "vgg_19/conv1/conv1_1/Conv2D"
  input: "vgg_19/conv1/conv1_1/biases/read"
  attr {
    key: "T"
    value {
      type: DT_FLOAT
    }
  }
  attr {
    key: "data_format"
    value {
      s: "NHWC"
    }
  }
}
node {
  name: "vgg_19/conv1/conv1_1/Relu"
  op: "Relu"
  input: "vgg_19/conv1/conv1_1/BiasAdd"
  attr {
    key: "T"
    value {
      type: DT_FLOAT
    }
  }
}
node {
  name: "vgg_19/conv1/conv1_2/weights/Initializer/random_uniform/shape"
  op: "Const"
  attr {
    key: "_class"
    value {
      list {
        s: "loc:@vgg_19/conv1/conv1_2/weights"
      }
    }
  }
  attr {
    key: "dtype"
    value {
      type: DT_INT32
    }
  }
  attr {
    key: "value"
    value {
      tensor {
        dtype: DT_INT32
        tensor_shape {
          dim {
            size: 4
          }
        }
        tensor_content: "\003\000\000\000\003\000\000\000@\000\000\000@\000\000\000"
      }
    }
  }
}
node {
  name: "vgg_19/conv1/conv1_2/weights/Initializer/random_uniform/min"
  op: "Const"
  attr {
    key: "_class"
    value {
      list {
        s: "loc:@vgg_19/conv1/conv1_2/weights"
      }
    }
  }
  attr {
    key: "dtype"
    value {
      type: DT_FLOAT
    }
  }
  attr {
    key: "value"
    value {
      tensor {
        dtype: DT_FLOAT
        tensor_shape {
        }
        float_val: -0.07216878235340118
      }
    }
  }
}
node {
  name: "vgg_19/conv1/conv1_2/weights/Initializer/random_uniform/max"
  op: "Const"
  attr {
    key: "_class"
    value {
      list {
        s: "loc:@vgg_19/conv1/conv1_2/weights"
      }
    }
  }
  attr {
    key: "dtype"
    value {
      type: DT_FLOAT
    }
  }
  attr {
    key: "value"
    value {
      tensor {
        dtype: DT_FLOAT
        tensor_shape {
        }
        float_val: 0.07216878235340118
      }
    }
  }
}
node {
  name: "vgg_19/conv1/conv1_2/weights/Initializer/random_uniform/RandomUniform"
  op: "RandomUniform"
  input: "vgg_19/conv1/conv1_2/weights/Initializer/random_uniform/shape"
  attr {
    key: "T"
    value {
      type: DT_INT32
    }
  }
  attr {
    key: "_class"
    value {
      list {
        s: "loc:@vgg_19/conv1/conv1_2/weights"
      }
    }
  }
  attr {
    key: "dtype"
    value {
      type: DT_FLOAT
    }
  }
  attr {
    key: "seed"
    value {
      i: 0
    }
  }
  attr {
    key: "seed2"
    value {
      i: 0
    }
  }
}
node {
  name: "vgg_19/conv1/conv1_2/weights/Initializer/random_uniform/sub"
  op: "Sub"
  input: "vgg_19/conv1/conv1_2/weights/Initializer/random_uniform/max"
  input: "vgg_19/conv1/conv1_2/weights/Initializer/random_uniform/min"
  attr {
    key: "T"
    value {
      type: DT_FLOAT
    }
  }
  attr {
    key: "_class"
    value {
      list {
        s: "loc:@vgg_19/conv1/conv1_2/weights"
      }
    }
  }
}
node {
  name: "vgg_19/conv1/conv1_2/weights/Initializer/random_uniform/mul"
  op: "Mul"
  input: "vgg_19/conv1/conv1_2/weights/Initializer/random_uniform/RandomUniform"
  input: "vgg_19/conv1/conv1_2/weights/Initializer/random_uniform/sub"
  attr {
    key: "T"
    value {
      type: DT_FLOAT
    }
  }
  attr {
    key: "_class"
    value {
      list {
        s: "loc:@vgg_19/conv1/conv1_2/weights"
      }
    }
  }
}
node {
  name: "vgg_19/conv1/conv1_2/weights/Initializer/random_uniform"
  op: "Add"
  input: "vgg_19/conv1/conv1_2/weights/Initializer/random_uniform/mul"
  input: "vgg_19/conv1/conv1_2/weights/Initializer/random_uniform/min"
  attr {
    key: "T"
    value {
      type: DT_FLOAT
    }
  }
  attr {
    key: "_class"
    value {
      list {
        s: "loc:@vgg_19/conv1/conv1_2/weights"
      }
    }
  }
}
node {
  name: "vgg_19/conv1/conv1_2/weights"
  op: "VariableV2"
  attr {
    key: "_class"
    value {
      list {
        s: "loc:@vgg_19/conv1/conv1_2/weights"
      }
    }
  }
  attr {
    key: "container"
    value {
      s: ""
    }
  }
  attr {
    key: "dtype"
    value {
      type: DT_FLOAT
    }
  }
  attr {
    key: "shape"
    value {
      shape {
        dim {
          size: 3
        }
        dim {
          size: 3
        }
        dim {
          size: 64
        }
        dim {
          size: 64
        }
      }
    }
  }
  attr {
    key: "shared_name"
    value {
      s: ""
    }
  }
}
node {
  name: "vgg_19/conv1/conv1_2/weights/Assign"
  op: "Assign"
  input: "vgg_19/conv1/conv1_2/weights"
  input: "vgg_19/conv1/conv1_2/weights/Initializer/random_uniform"
  attr {
    key: "T"
    value {
      type: DT_FLOAT
    }
  }
  attr {
    key: "_class"
    value {
      list {
        s: "loc:@vgg_19/conv1/conv1_2/weights"
      }
    }
  }
  attr {
    key: "use_locking"
    value {
      b: true
    }
  }
  attr {
    key: "validate_shape"
    value {
      b: true
    }
  }
}
node {
  name: "vgg_19/conv1/conv1_2/weights/read"
  op: "Identity"
  input: "vgg_19/conv1/conv1_2/weights"
  attr {
    key: "T"
    value {
      type: DT_FLOAT
    }
  }
  attr {
    key: "_class"
    value {
      list {
        s: "loc:@vgg_19/conv1/conv1_2/weights"
      }
    }
  }
}
node {
  name: "vgg_19/conv1/conv1_2/biases/Initializer/zeros"
  op: "Const"
  attr {
    key: "_class"
    value {
      list {
        s: "loc:@vgg_19/conv1/conv1_2/biases"
      }
    }
  }
  attr {
    key: "dtype"
    value {
      type: DT_FLOAT
    }
  }
  attr {
    key: "value"
    value {
      tensor {
        dtype: DT_FLOAT
        tensor_shape {
          dim {
            size: 64
          }
        }
        float_val: 0.0
      }
    }
  }
}
node {
  name: "vgg_19/conv1/conv1_2/biases"
  op: "VariableV2"
  attr {
    key: "_class"
    value {
      list {
        s: "loc:@vgg_19/conv1/conv1_2/biases"
      }
    }
  }
  attr {
    key: "container"
    value {
      s: ""
    }
  }
  attr {
    key: "dtype"
    value {
      type: DT_FLOAT
    }
  }
  attr {
    key: "shape"
    value {
      shape {
        dim {
          size: 64
        }
      }
    }
  }
  attr {
    key: "shared_name"
    value {
      s: ""
    }
  }
}
node {
  name: "vgg_19/conv1/conv1_2/biases/Assign"
  op: "Assign"
  input: "vgg_19/conv1/conv1_2/biases"
  input: "vgg_19/conv1/conv1_2/biases/Initializer/zeros"
  attr {
    key: "T"
    value {
      type: DT_FLOAT
    }
  }
  attr {
    key: "_class"
    value {
      list {
        s: "loc:@vgg_19/conv1/conv1_2/biases"
      }
    }
  }
  attr {
    key: "use_locking"
    value {
      b: true
    }
  }
  attr {
    key: "validate_shape"
    value {
      b: true
    }
  }
}
node {
  name: "vgg_19/conv1/conv1_2/biases/read"
  op: "Identity"
  input: "vgg_19/conv1/conv1_2/biases"
  attr {
    key: "T"
    value {
      type: DT_FLOAT
    }
  }
  attr {
    key: "_class"
    value {
      list {
        s: "loc:@vgg_19/conv1/conv1_2/biases"
      }
    }
  }
}
node {
  name: "vgg_19/conv1/conv1_2/dilation_rate"
  op: "Const"
  attr {
    key: "dtype"
    value {
      type: DT_INT32
    }
  }
  attr {
    key: "value"
    value {
      tensor {
        dtype: DT_INT32
        tensor_shape {
          dim {
            size: 2
          }
        }
        tensor_content: "\001\000\000\000\001\000\000\000"
      }
    }
  }
}
node {
  name: "vgg_19/conv1/conv1_2/Conv2D"
  op: "Conv2D"
  input: "vgg_19/conv1/conv1_1/Relu"
  input: "vgg_19/conv1/conv1_2/weights/read"
  attr {
    key: "T"
    value {
      type: DT_FLOAT
    }
  }
  attr {
    key: "data_format"
    value {
      s: "NHWC"
    }
  }
  attr {
    key: "dilations"
    value {
      list {
        i: 1
        i: 1
        i: 1
        i: 1
      }
    }
  }
  attr {
    key: "padding"
    value {
      s: "SAME"
    }
  }
  attr {
    key: "strides"
    value {
      list {
        i: 1
        i: 1
        i: 1
        i: 1
      }
    }
  }
  attr {
    key: "use_cudnn_on_gpu"
    value {
      b: true
    }
  }
}
node {
  name: "vgg_19/conv1/conv1_2/BiasAdd"
  op: "BiasAdd"
  input: "vgg_19/conv1/conv1_2/Conv2D"
  input: "vgg_19/conv1/conv1_2/biases/read"
  attr {
    key: "T"
    value {
      type: DT_FLOAT
    }
  }
  attr {
    key: "data_format"
    value {
      s: "NHWC"
    }
  }
}
node {
  name: "vgg_19/conv1/conv1_2/Relu"
  op: "Relu"
  input: "vgg_19/conv1/conv1_2/BiasAdd"
  attr {
    key: "T"
    value {
      type: DT_FLOAT
    }
  }
}
node {
  name: "vgg_19/pool1/MaxPool"
  op: "MaxPool"
  input: "vgg_19/conv1/conv1_2/Relu"
  attr {
    key: "T"
    value {
      type: DT_FLOAT
    }
  }
  attr {
    key: "data_format"
    value {
      s: "NHWC"
    }
  }
  attr {
    key: "ksize"
    value {
      list {
        i: 1
        i: 2
        i: 2
        i: 1
      }
    }
  }
  attr {
    key: "padding"
    value {
      s: "VALID"
    }
  }
  attr {
    key: "strides"
    value {
      list {
        i: 1
        i: 2
        i: 2
        i: 1
      }
    }
  }
}
node {
  name: "vgg_19/conv2/conv2_1/weights/Initializer/random_uniform/shape"
  op: "Const"
  attr {
    key: "_class"
    value {
      list {
        s: "loc:@vgg_19/conv2/conv2_1/weights"
      }
    }
  }
  attr {
    key: "dtype"
    value {
      type: DT_INT32
    }
  }
  attr {
    key: "value"
    value {
      tensor {
        dtype: DT_INT32
        tensor_shape {
          dim {
            size: 4
          }
        }
        tensor_content: "\003\000\000\000\003\000\000\000@\000\000\000\200\000\000\000"
      }
    }
  }
}
node {
  name: "vgg_19/conv2/conv2_1/weights/Initializer/random_uniform/min"
  op: "Const"
  attr {
    key: "_class"
    value {
      list {
        s: "loc:@vgg_19/conv2/conv2_1/weights"
      }
    }
  }
  attr {
    key: "dtype"
    value {
      type: DT_FLOAT
    }
  }
  attr {
    key: "value"
    value {
      tensor {
        dtype: DT_FLOAT
        tensor_shape {
        }
        float_val: -0.0589255653321743
      }
    }
  }
}
node {
  name: "vgg_19/conv2/conv2_1/weights/Initializer/random_uniform/max"
  op: "Const"
  attr {
    key: "_class"
    value {
      list {
        s: "loc:@vgg_19/conv2/conv2_1/weights"
      }
    }
  }
  attr {
    key: "dtype"
    value {
      type: DT_FLOAT
    }
  }
  attr {
    key: "value"
    value {
      tensor {
        dtype: DT_FLOAT
        tensor_shape {
        }
        float_val: 0.0589255653321743
      }
    }
  }
}
node {
  name: "vgg_19/conv2/conv2_1/weights/Initializer/random_uniform/RandomUniform"
  op: "RandomUniform"
  input: "vgg_19/conv2/conv2_1/weights/Initializer/random_uniform/shape"
  attr {
    key: "T"
    value {
      type: DT_INT32
    }
  }
  attr {
    key: "_class"
    value {
      list {
        s: "loc:@vgg_19/conv2/conv2_1/weights"
      }
    }
  }
  attr {
    key: "dtype"
    value {
      type: DT_FLOAT
    }
  }
  attr {
    key: "seed"
    value {
      i: 0
    }
  }
  attr {
    key: "seed2"
    value {
      i: 0
    }
  }
}
node {
  name: "vgg_19/conv2/conv2_1/weights/Initializer/random_uniform/sub"
  op: "Sub"
  input: "vgg_19/conv2/conv2_1/weights/Initializer/random_uniform/max"
  input: "vgg_19/conv2/conv2_1/weights/Initializer/random_uniform/min"
  attr {
    key: "T"
    value {
      type: DT_FLOAT
    }
  }
  attr {
    key: "_class"
    value {
      list {
        s: "loc:@vgg_19/conv2/conv2_1/weights"
      }
    }
  }
}
node {
  name: "vgg_19/conv2/conv2_1/weights/Initializer/random_uniform/mul"
  op: "Mul"
  input: "vgg_19/conv2/conv2_1/weights/Initializer/random_uniform/RandomUniform"
  input: "vgg_19/conv2/conv2_1/weights/Initializer/random_uniform/sub"
  attr {
    key: "T"
    value {
      type: DT_FLOAT
    }
  }
  attr {
    key: "_class"
    value {
      list {
        s: "loc:@vgg_19/conv2/conv2_1/weights"
      }
    }
  }
}
node {
  name: "vgg_19/conv2/conv2_1/weights/Initializer/random_uniform"
  op: "Add"
  input: "vgg_19/conv2/conv2_1/weights/Initializer/random_uniform/mul"
  input: "vgg_19/conv2/conv2_1/weights/Initializer/random_uniform/min"
  attr {
    key: "T"
    value {
      type: DT_FLOAT
    }
  }
  attr {
    key: "_class"
    value {
      list {
        s: "loc:@vgg_19/conv2/conv2_1/weights"
      }
    }
  }
}
node {
  name: "vgg_19/conv2/conv2_1/weights"
  op: "VariableV2"
  attr {
    key: "_class"
    value {
      list {
        s: "loc:@vgg_19/conv2/conv2_1/weights"
      }
    }
  }
  attr {
    key: "container"
    value {
      s: ""
    }
  }
  attr {
    key: "dtype"
    value {
      type: DT_FLOAT
    }
  }
  attr {
    key: "shape"
    value {
      shape {
        dim {
          size: 3
        }
        dim {
          size: 3
        }
        dim {
          size: 64
        }
        dim {
          size: 128
        }
      }
    }
  }
  attr {
    key: "shared_name"
    value {
      s: ""
    }
  }
}
node {
  name: "vgg_19/conv2/conv2_1/weights/Assign"
  op: "Assign"
  input: "vgg_19/conv2/conv2_1/weights"
  input: "vgg_19/conv2/conv2_1/weights/Initializer/random_uniform"
  attr {
    key: "T"
    value {
      type: DT_FLOAT
    }
  }
  attr {
    key: "_class"
    value {
      list {
        s: "loc:@vgg_19/conv2/conv2_1/weights"
      }
    }
  }
  attr {
    key: "use_locking"
    value {
      b: true
    }
  }
  attr {
    key: "validate_shape"
    value {
      b: true
    }
  }
}
node {
  name: "vgg_19/conv2/conv2_1/weights/read"
  op: "Identity"
  input: "vgg_19/conv2/conv2_1/weights"
  attr {
    key: "T"
    value {
      type: DT_FLOAT
    }
  }
  attr {
    key: "_class"
    value {
      list {
        s: "loc:@vgg_19/conv2/conv2_1/weights"
      }
    }
  }
}
node {
  name: "vgg_19/conv2/conv2_1/biases/Initializer/zeros"
  op: "Const"
  attr {
    key: "_class"
    value {
      list {
        s: "loc:@vgg_19/conv2/conv2_1/biases"
      }
    }
  }
  attr {
    key: "dtype"
    value {
      type: DT_FLOAT
    }
  }
  attr {
    key: "value"
    value {
      tensor {
        dtype: DT_FLOAT
        tensor_shape {
          dim {
            size: 128
          }
        }
        float_val: 0.0
      }
    }
  }
}
node {
  name: "vgg_19/conv2/conv2_1/biases"
  op: "VariableV2"
  attr {
    key: "_class"
    value {
      list {
        s: "loc:@vgg_19/conv2/conv2_1/biases"
      }
    }
  }
  attr {
    key: "container"
    value {
      s: ""
    }
  }
  attr {
    key: "dtype"
    value {
      type: DT_FLOAT
    }
  }
  attr {
    key: "shape"
    value {
      shape {
        dim {
          size: 128
        }
      }
    }
  }
  attr {
    key: "shared_name"
    value {
      s: ""
    }
  }
}
node {
  name: "vgg_19/conv2/conv2_1/biases/Assign"
  op: "Assign"
  input: "vgg_19/conv2/conv2_1/biases"
  input: "vgg_19/conv2/conv2_1/biases/Initializer/zeros"
  attr {
    key: "T"
    value {
      type: DT_FLOAT
    }
  }
  attr {
    key: "_class"
    value {
      list {
        s: "loc:@vgg_19/conv2/conv2_1/biases"
      }
    }
  }
  attr {
    key: "use_locking"
    value {
      b: true
    }
  }
  attr {
    key: "validate_shape"
    value {
      b: true
    }
  }
}
node {
  name: "vgg_19/conv2/conv2_1/biases/read"
  op: "Identity"
  input: "vgg_19/conv2/conv2_1/biases"
  attr {
    key: "T"
    value {
      type: DT_FLOAT
    }
  }
  attr {
    key: "_class"
    value {
      list {
        s: "loc:@vgg_19/conv2/conv2_1/biases"
      }
    }
  }
}
node {
  name: "vgg_19/conv2/conv2_1/dilation_rate"
  op: "Const"
  attr {
    key: "dtype"
    value {
      type: DT_INT32
    }
  }
  attr {
    key: "value"
    value {
      tensor {
        dtype: DT_INT32
        tensor_shape {
          dim {
            size: 2
          }
        }
        tensor_content: "\001\000\000\000\001\000\000\000"
      }
    }
  }
}
node {
  name: "vgg_19/conv2/conv2_1/Conv2D"
  op: "Conv2D"
  input: "vgg_19/pool1/MaxPool"
  input: "vgg_19/conv2/conv2_1/weights/read"
  attr {
    key: "T"
    value {
      type: DT_FLOAT
    }
  }
  attr {
    key: "data_format"
    value {
      s: "NHWC"
    }
  }
  attr {
    key: "dilations"
    value {
      list {
        i: 1
        i: 1
        i: 1
        i: 1
      }
    }
  }
  attr {
    key: "padding"
    value {
      s: "SAME"
    }
  }
  attr {
    key: "strides"
    value {
      list {
        i: 1
        i: 1
        i: 1
        i: 1
      }
    }
  }
  attr {
    key: "use_cudnn_on_gpu"
    value {
      b: true
    }
  }
}
node {
  name: "vgg_19/conv2/conv2_1/BiasAdd"
  op: "BiasAdd"
  input: "vgg_19/conv2/conv2_1/Conv2D"
  input: "vgg_19/conv2/conv2_1/biases/read"
  attr {
    key: "T"
    value {
      type: DT_FLOAT
    }
  }
  attr {
    key: "data_format"
    value {
      s: "NHWC"
    }
  }
}
node {
  name: "vgg_19/conv2/conv2_1/Relu"
  op: "Relu"
  input: "vgg_19/conv2/conv2_1/BiasAdd"
  attr {
    key: "T"
    value {
      type: DT_FLOAT
    }
  }
}
node {
  name: "vgg_19/conv2/conv2_2/weights/Initializer/random_uniform/shape"
  op: "Const"
  attr {
    key: "_class"
    value {
      list {
        s: "loc:@vgg_19/conv2/conv2_2/weights"
      }
    }
  }
  attr {
    key: "dtype"
    value {
      type: DT_INT32
    }
  }
  attr {
    key: "value"
    value {
      tensor {
        dtype: DT_INT32
        tensor_shape {
          dim {
            size: 4
          }
        }
        tensor_content: "\003\000\000\000\003\000\000\000\200\000\000\000\200\000\000\000"
      }
    }
  }
}
node {
  name: "vgg_19/conv2/conv2_2/weights/Initializer/random_uniform/min"
  op: "Const"
  attr {
    key: "_class"
    value {
      list {
        s: "loc:@vgg_19/conv2/conv2_2/weights"
      }
    }
  }
  attr {
    key: "dtype"
    value {
      type: DT_FLOAT
    }
  }
  attr {
    key: "value"
    value {
      tensor {
        dtype: DT_FLOAT
        tensor_shape {
        }
        float_val: -0.05103103816509247
      }
    }
  }
}
node {
  name: "vgg_19/conv2/conv2_2/weights/Initializer/random_uniform/max"
  op: "Const"
  attr {
    key: "_class"
    value {
      list {
        s: "loc:@vgg_19/conv2/conv2_2/weights"
      }
    }
  }
  attr {
    key: "dtype"
    value {
      type: DT_FLOAT
    }
  }
  attr {
    key: "value"
    value {
      tensor {
        dtype: DT_FLOAT
        tensor_shape {
        }
        float_val: 0.05103103816509247
      }
    }
  }
}
node {
  name: "vgg_19/conv2/conv2_2/weights/Initializer/random_uniform/RandomUniform"
  op: "RandomUniform"
  input: "vgg_19/conv2/conv2_2/weights/Initializer/random_uniform/shape"
  attr {
    key: "T"
    value {
      type: DT_INT32
    }
  }
  attr {
    key: "_class"
    value {
      list {
        s: "loc:@vgg_19/conv2/conv2_2/weights"
      }
    }
  }
  attr {
    key: "dtype"
    value {
      type: DT_FLOAT
    }
  }
  attr {
    key: "seed"
    value {
      i: 0
    }
  }
  attr {
    key: "seed2"
    value {
      i: 0
    }
  }
}
node {
  name: "vgg_19/conv2/conv2_2/weights/Initializer/random_uniform/sub"
  op: "Sub"
  input: "vgg_19/conv2/conv2_2/weights/Initializer/random_uniform/max"
  input: "vgg_19/conv2/conv2_2/weights/Initializer/random_uniform/min"
  attr {
    key: "T"
    value {
      type: DT_FLOAT
    }
  }
  attr {
    key: "_class"
    value {
      list {
        s: "loc:@vgg_19/conv2/conv2_2/weights"
      }
    }
  }
}
node {
  name: "vgg_19/conv2/conv2_2/weights/Initializer/random_uniform/mul"
  op: "Mul"
  input: "vgg_19/conv2/conv2_2/weights/Initializer/random_uniform/RandomUniform"
  input: "vgg_19/conv2/conv2_2/weights/Initializer/random_uniform/sub"
  attr {
    key: "T"
    value {
      type: DT_FLOAT
    }
  }
  attr {
    key: "_class"
    value {
      list {
        s: "loc:@vgg_19/conv2/conv2_2/weights"
      }
    }
  }
}
node {
  name: "vgg_19/conv2/conv2_2/weights/Initializer/random_uniform"
  op: "Add"
  input: "vgg_19/conv2/conv2_2/weights/Initializer/random_uniform/mul"
  input: "vgg_19/conv2/conv2_2/weights/Initializer/random_uniform/min"
  attr {
    key: "T"
    value {
      type: DT_FLOAT
    }
  }
  attr {
    key: "_class"
    value {
      list {
        s: "loc:@vgg_19/conv2/conv2_2/weights"
      }
    }
  }
}
node {
  name: "vgg_19/conv2/conv2_2/weights"
  op: "VariableV2"
  attr {
    key: "_class"
    value {
      list {
        s: "loc:@vgg_19/conv2/conv2_2/weights"
      }
    }
  }
  attr {
    key: "container"
    value {
      s: ""
    }
  }
  attr {
    key: "dtype"
    value {
      type: DT_FLOAT
    }
  }
  attr {
    key: "shape"
    value {
      shape {
        dim {
          size: 3
        }
        dim {
          size: 3
        }
        dim {
          size: 128
        }
        dim {
          size: 128
        }
      }
    }
  }
  attr {
    key: "shared_name"
    value {
      s: ""
    }
  }
}
node {
  name: "vgg_19/conv2/conv2_2/weights/Assign"
  op: "Assign"
  input: "vgg_19/conv2/conv2_2/weights"
  input: "vgg_19/conv2/conv2_2/weights/Initializer/random_uniform"
  attr {
    key: "T"
    value {
      type: DT_FLOAT
    }
  }
  attr {
    key: "_class"
    value {
      list {
        s: "loc:@vgg_19/conv2/conv2_2/weights"
      }
    }
  }
  attr {
    key: "use_locking"
    value {
      b: true
    }
  }
  attr {
    key: "validate_shape"
    value {
      b: true
    }
  }
}
node {
  name: "vgg_19/conv2/conv2_2/weights/read"
  op: "Identity"
  input: "vgg_19/conv2/conv2_2/weights"
  attr {
    key: "T"
    value {
      type: DT_FLOAT
    }
  }
  attr {
    key: "_class"
    value {
      list {
        s: "loc:@vgg_19/conv2/conv2_2/weights"
      }
    }
  }
}
node {
  name: "vgg_19/conv2/conv2_2/biases/Initializer/zeros"
  op: "Const"
  attr {
    key: "_class"
    value {
      list {
        s: "loc:@vgg_19/conv2/conv2_2/biases"
      }
    }
  }
  attr {
    key: "dtype"
    value {
      type: DT_FLOAT
    }
  }
  attr {
    key: "value"
    value {
      tensor {
        dtype: DT_FLOAT
        tensor_shape {
          dim {
            size: 128
          }
        }
        float_val: 0.0
      }
    }
  }
}
node {
  name: "vgg_19/conv2/conv2_2/biases"
  op: "VariableV2"
  attr {
    key: "_class"
    value {
      list {
        s: "loc:@vgg_19/conv2/conv2_2/biases"
      }
    }
  }
  attr {
    key: "container"
    value {
      s: ""
    }
  }
  attr {
    key: "dtype"
    value {
      type: DT_FLOAT
    }
  }
  attr {
    key: "shape"
    value {
      shape {
        dim {
          size: 128
        }
      }
    }
  }
  attr {
    key: "shared_name"
    value {
      s: ""
    }
  }
}
node {
  name: "vgg_19/conv2/conv2_2/biases/Assign"
  op: "Assign"
  input: "vgg_19/conv2/conv2_2/biases"
  input: "vgg_19/conv2/conv2_2/biases/Initializer/zeros"
  attr {
    key: "T"
    value {
      type: DT_FLOAT
    }
  }
  attr {
    key: "_class"
    value {
      list {
        s: "loc:@vgg_19/conv2/conv2_2/biases"
      }
    }
  }
  attr {
    key: "use_locking"
    value {
      b: true
    }
  }
  attr {
    key: "validate_shape"
    value {
      b: true
    }
  }
}
node {
  name: "vgg_19/conv2/conv2_2/biases/read"
  op: "Identity"
  input: "vgg_19/conv2/conv2_2/biases"
  attr {
    key: "T"
    value {
      type: DT_FLOAT
    }
  }
  attr {
    key: "_class"
    value {
      list {
        s: "loc:@vgg_19/conv2/conv2_2/biases"
      }
    }
  }
}
node {
  name: "vgg_19/conv2/conv2_2/dilation_rate"
  op: "Const"
  attr {
    key: "dtype"
    value {
      type: DT_INT32
    }
  }
  attr {
    key: "value"
    value {
      tensor {
        dtype: DT_INT32
        tensor_shape {
          dim {
            size: 2
          }
        }
        tensor_content: "\001\000\000\000\001\000\000\000"
      }
    }
  }
}
node {
  name: "vgg_19/conv2/conv2_2/Conv2D"
  op: "Conv2D"
  input: "vgg_19/conv2/conv2_1/Relu"
  input: "vgg_19/conv2/conv2_2/weights/read"
  attr {
    key: "T"
    value {
      type: DT_FLOAT
    }
  }
  attr {
    key: "data_format"
    value {
      s: "NHWC"
    }
  }
  attr {
    key: "dilations"
    value {
      list {
        i: 1
        i: 1
        i: 1
        i: 1
      }
    }
  }
  attr {
    key: "padding"
    value {
      s: "SAME"
    }
  }
  attr {
    key: "strides"
    value {
      list {
        i: 1
        i: 1
        i: 1
        i: 1
      }
    }
  }
  attr {
    key: "use_cudnn_on_gpu"
    value {
      b: true
    }
  }
}
node {
  name: "vgg_19/conv2/conv2_2/BiasAdd"
  op: "BiasAdd"
  input: "vgg_19/conv2/conv2_2/Conv2D"
  input: "vgg_19/conv2/conv2_2/biases/read"
  attr {
    key: "T"
    value {
      type: DT_FLOAT
    }
  }
  attr {
    key: "data_format"
    value {
      s: "NHWC"
    }
  }
}
node {
  name: "vgg_19/conv2/conv2_2/Relu"
  op: "Relu"
  input: "vgg_19/conv2/conv2_2/BiasAdd"
  attr {
    key: "T"
    value {
      type: DT_FLOAT
    }
  }
}
node {
  name: "vgg_19/pool2/MaxPool"
  op: "MaxPool"
  input: "vgg_19/conv2/conv2_2/Relu"
  attr {
    key: "T"
    value {
      type: DT_FLOAT
    }
  }
  attr {
    key: "data_format"
    value {
      s: "NHWC"
    }
  }
  attr {
    key: "ksize"
    value {
      list {
        i: 1
        i: 2
        i: 2
        i: 1
      }
    }
  }
  attr {
    key: "padding"
    value {
      s: "VALID"
    }
  }
  attr {
    key: "strides"
    value {
      list {
        i: 1
        i: 2
        i: 2
        i: 1
      }
    }
  }
}
node {
  name: "vgg_19/conv3/conv3_1/weights/Initializer/random_uniform/shape"
  op: "Const"
  attr {
    key: "_class"
    value {
      list {
        s: "loc:@vgg_19/conv3/conv3_1/weights"
      }
    }
  }
  attr {
    key: "dtype"
    value {
      type: DT_INT32
    }
  }
  attr {
    key: "value"
    value {
      tensor {
        dtype: DT_INT32
        tensor_shape {
          dim {
            size: 4
          }
        }
        tensor_content: "\003\000\000\000\003\000\000\000\200\000\000\000\000\001\000\000"
      }
    }
  }
}
node {
  name: "vgg_19/conv3/conv3_1/weights/Initializer/random_uniform/min"
  op: "Const"
  attr {
    key: "_class"
    value {
      list {
        s: "loc:@vgg_19/conv3/conv3_1/weights"
      }
    }
  }
  attr {
    key: "dtype"
    value {
      type: DT_FLOAT
    }
  }
  attr {
    key: "value"
    value {
      tensor {
        dtype: DT_FLOAT
        tensor_shape {
        }
        float_val: -0.0416666679084301
      }
    }
  }
}
node {
  name: "vgg_19/conv3/conv3_1/weights/Initializer/random_uniform/max"
  op: "Const"
  attr {
    key: "_class"
    value {
      list {
        s: "loc:@vgg_19/conv3/conv3_1/weights"
      }
    }
  }
  attr {
    key: "dtype"
    value {
      type: DT_FLOAT
    }
  }
  attr {
    key: "value"
    value {
      tensor {
        dtype: DT_FLOAT
        tensor_shape {
        }
        float_val: 0.0416666679084301
      }
    }
  }
}
node {
  name: "vgg_19/conv3/conv3_1/weights/Initializer/random_uniform/RandomUniform"
  op: "RandomUniform"
  input: "vgg_19/conv3/conv3_1/weights/Initializer/random_uniform/shape"
  attr {
    key: "T"
    value {
      type: DT_INT32
    }
  }
  attr {
    key: "_class"
    value {
      list {
        s: "loc:@vgg_19/conv3/conv3_1/weights"
      }
    }
  }
  attr {
    key: "dtype"
    value {
      type: DT_FLOAT
    }
  }
  attr {
    key: "seed"
    value {
      i: 0
    }
  }
  attr {
    key: "seed2"
    value {
      i: 0
    }
  }
}
node {
  name: "vgg_19/conv3/conv3_1/weights/Initializer/random_uniform/sub"
  op: "Sub"
  input: "vgg_19/conv3/conv3_1/weights/Initializer/random_uniform/max"
  input: "vgg_19/conv3/conv3_1/weights/Initializer/random_uniform/min"
  attr {
    key: "T"
    value {
      type: DT_FLOAT
    }
  }
  attr {
    key: "_class"
    value {
      list {
        s: "loc:@vgg_19/conv3/conv3_1/weights"
      }
    }
  }
}
node {
  name: "vgg_19/conv3/conv3_1/weights/Initializer/random_uniform/mul"
  op: "Mul"
  input: "vgg_19/conv3/conv3_1/weights/Initializer/random_uniform/RandomUniform"
  input: "vgg_19/conv3/conv3_1/weights/Initializer/random_uniform/sub"
  attr {
    key: "T"
    value {
      type: DT_FLOAT
    }
  }
  attr {
    key: "_class"
    value {
      list {
        s: "loc:@vgg_19/conv3/conv3_1/weights"
      }
    }
  }
}
node {
  name: "vgg_19/conv3/conv3_1/weights/Initializer/random_uniform"
  op: "Add"
  input: "vgg_19/conv3/conv3_1/weights/Initializer/random_uniform/mul"
  input: "vgg_19/conv3/conv3_1/weights/Initializer/random_uniform/min"
  attr {
    key: "T"
    value {
      type: DT_FLOAT
    }
  }
  attr {
    key: "_class"
    value {
      list {
        s: "loc:@vgg_19/conv3/conv3_1/weights"
      }
    }
  }
}
node {
  name: "vgg_19/conv3/conv3_1/weights"
  op: "VariableV2"
  attr {
    key: "_class"
    value {
      list {
        s: "loc:@vgg_19/conv3/conv3_1/weights"
      }
    }
  }
  attr {
    key: "container"
    value {
      s: ""
    }
  }
  attr {
    key: "dtype"
    value {
      type: DT_FLOAT
    }
  }
  attr {
    key: "shape"
    value {
      shape {
        dim {
          size: 3
        }
        dim {
          size: 3
        }
        dim {
          size: 128
        }
        dim {
          size: 256
        }
      }
    }
  }
  attr {
    key: "shared_name"
    value {
      s: ""
    }
  }
}
node {
  name: "vgg_19/conv3/conv3_1/weights/Assign"
  op: "Assign"
  input: "vgg_19/conv3/conv3_1/weights"
  input: "vgg_19/conv3/conv3_1/weights/Initializer/random_uniform"
  attr {
    key: "T"
    value {
      type: DT_FLOAT
    }
  }
  attr {
    key: "_class"
    value {
      list {
        s: "loc:@vgg_19/conv3/conv3_1/weights"
      }
    }
  }
  attr {
    key: "use_locking"
    value {
      b: true
    }
  }
  attr {
    key: "validate_shape"
    value {
      b: true
    }
  }
}
node {
  name: "vgg_19/conv3/conv3_1/weights/read"
  op: "Identity"
  input: "vgg_19/conv3/conv3_1/weights"
  attr {
    key: "T"
    value {
      type: DT_FLOAT
    }
  }
  attr {
    key: "_class"
    value {
      list {
        s: "loc:@vgg_19/conv3/conv3_1/weights"
      }
    }
  }
}
node {
  name: "vgg_19/conv3/conv3_1/biases/Initializer/zeros"
  op: "Const"
  attr {
    key: "_class"
    value {
      list {
        s: "loc:@vgg_19/conv3/conv3_1/biases"
      }
    }
  }
  attr {
    key: "dtype"
    value {
      type: DT_FLOAT
    }
  }
  attr {
    key: "value"
    value {
      tensor {
        dtype: DT_FLOAT
        tensor_shape {
          dim {
            size: 256
          }
        }
        float_val: 0.0
      }
    }
  }
}
node {
  name: "vgg_19/conv3/conv3_1/biases"
  op: "VariableV2"
  attr {
    key: "_class"
    value {
      list {
        s: "loc:@vgg_19/conv3/conv3_1/biases"
      }
    }
  }
  attr {
    key: "container"
    value {
      s: ""
    }
  }
  attr {
    key: "dtype"
    value {
      type: DT_FLOAT
    }
  }
  attr {
    key: "shape"
    value {
      shape {
        dim {
          size: 256
        }
      }
    }
  }
  attr {
    key: "shared_name"
    value {
      s: ""
    }
  }
}
node {
  name: "vgg_19/conv3/conv3_1/biases/Assign"
  op: "Assign"
  input: "vgg_19/conv3/conv3_1/biases"
  input: "vgg_19/conv3/conv3_1/biases/Initializer/zeros"
  attr {
    key: "T"
    value {
      type: DT_FLOAT
    }
  }
  attr {
    key: "_class"
    value {
      list {
        s: "loc:@vgg_19/conv3/conv3_1/biases"
      }
    }
  }
  attr {
    key: "use_locking"
    value {
      b: true
    }
  }
  attr {
    key: "validate_shape"
    value {
      b: true
    }
  }
}
node {
  name: "vgg_19/conv3/conv3_1/biases/read"
  op: "Identity"
  input: "vgg_19/conv3/conv3_1/biases"
  attr {
    key: "T"
    value {
      type: DT_FLOAT
    }
  }
  attr {
    key: "_class"
    value {
      list {
        s: "loc:@vgg_19/conv3/conv3_1/biases"
      }
    }
  }
}
node {
  name: "vgg_19/conv3/conv3_1/dilation_rate"
  op: "Const"
  attr {
    key: "dtype"
    value {
      type: DT_INT32
    }
  }
  attr {
    key: "value"
    value {
      tensor {
        dtype: DT_INT32
        tensor_shape {
          dim {
            size: 2
          }
        }
        tensor_content: "\001\000\000\000\001\000\000\000"
      }
    }
  }
}
node {
  name: "vgg_19/conv3/conv3_1/Conv2D"
  op: "Conv2D"
  input: "vgg_19/pool2/MaxPool"
  input: "vgg_19/conv3/conv3_1/weights/read"
  attr {
    key: "T"
    value {
      type: DT_FLOAT
    }
  }
  attr {
    key: "data_format"
    value {
      s: "NHWC"
    }
  }
  attr {
    key: "dilations"
    value {
      list {
        i: 1
        i: 1
        i: 1
        i: 1
      }
    }
  }
  attr {
    key: "padding"
    value {
      s: "SAME"
    }
  }
  attr {
    key: "strides"
    value {
      list {
        i: 1
        i: 1
        i: 1
        i: 1
      }
    }
  }
  attr {
    key: "use_cudnn_on_gpu"
    value {
      b: true
    }
  }
}
node {
  name: "vgg_19/conv3/conv3_1/BiasAdd"
  op: "BiasAdd"
  input: "vgg_19/conv3/conv3_1/Conv2D"
  input: "vgg_19/conv3/conv3_1/biases/read"
  attr {
    key: "T"
    value {
      type: DT_FLOAT
    }
  }
  attr {
    key: "data_format"
    value {
      s: "NHWC"
    }
  }
}
node {
  name: "vgg_19/conv3/conv3_1/Relu"
  op: "Relu"
  input: "vgg_19/conv3/conv3_1/BiasAdd"
  attr {
    key: "T"
    value {
      type: DT_FLOAT
    }
  }
}
node {
  name: "vgg_19/conv3/conv3_2/weights/Initializer/random_uniform/shape"
  op: "Const"
  attr {
    key: "_class"
    value {
      list {
        s: "loc:@vgg_19/conv3/conv3_2/weights"
      }
    }
  }
  attr {
    key: "dtype"
    value {
      type: DT_INT32
    }
  }
  attr {
    key: "value"
    value {
      tensor {
        dtype: DT_INT32
        tensor_shape {
          dim {
            size: 4
          }
        }
        tensor_content: "\003\000\000\000\003\000\000\000\000\001\000\000\000\001\000\000"
      }
    }
  }
}
node {
  name: "vgg_19/conv3/conv3_2/weights/Initializer/random_uniform/min"
  op: "Const"
  attr {
    key: "_class"
    value {
      list {
        s: "loc:@vgg_19/conv3/conv3_2/weights"
      }
    }
  }
  attr {
    key: "dtype"
    value {
      type: DT_FLOAT
    }
  }
  attr {
    key: "value"
    value {
      tensor {
        dtype: DT_FLOAT
        tensor_shape {
        }
        float_val: -0.03608439117670059
      }
    }
  }
}
node {
  name: "vgg_19/conv3/conv3_2/weights/Initializer/random_uniform/max"
  op: "Const"
  attr {
    key: "_class"
    value {
      list {
        s: "loc:@vgg_19/conv3/conv3_2/weights"
      }
    }
  }
  attr {
    key: "dtype"
    value {
      type: DT_FLOAT
    }
  }
  attr {
    key: "value"
    value {
      tensor {
        dtype: DT_FLOAT
        tensor_shape {
        }
        float_val: 0.03608439117670059
      }
    }
  }
}
node {
  name: "vgg_19/conv3/conv3_2/weights/Initializer/random_uniform/RandomUniform"
  op: "RandomUniform"
  input: "vgg_19/conv3/conv3_2/weights/Initializer/random_uniform/shape"
  attr {
    key: "T"
    value {
      type: DT_INT32
    }
  }
  attr {
    key: "_class"
    value {
      list {
        s: "loc:@vgg_19/conv3/conv3_2/weights"
      }
    }
  }
  attr {
    key: "dtype"
    value {
      type: DT_FLOAT
    }
  }
  attr {
    key: "seed"
    value {
      i: 0
    }
  }
  attr {
    key: "seed2"
    value {
      i: 0
    }
  }
}
node {
  name: "vgg_19/conv3/conv3_2/weights/Initializer/random_uniform/sub"
  op: "Sub"
  input: "vgg_19/conv3/conv3_2/weights/Initializer/random_uniform/max"
  input: "vgg_19/conv3/conv3_2/weights/Initializer/random_uniform/min"
  attr {
    key: "T"
    value {
      type: DT_FLOAT
    }
  }
  attr {
    key: "_class"
    value {
      list {
        s: "loc:@vgg_19/conv3/conv3_2/weights"
      }
    }
  }
}
node {
  name: "vgg_19/conv3/conv3_2/weights/Initializer/random_uniform/mul"
  op: "Mul"
  input: "vgg_19/conv3/conv3_2/weights/Initializer/random_uniform/RandomUniform"
  input: "vgg_19/conv3/conv3_2/weights/Initializer/random_uniform/sub"
  attr {
    key: "T"
    value {
      type: DT_FLOAT
    }
  }
  attr {
    key: "_class"
    value {
      list {
        s: "loc:@vgg_19/conv3/conv3_2/weights"
      }
    }
  }
}
node {
  name: "vgg_19/conv3/conv3_2/weights/Initializer/random_uniform"
  op: "Add"
  input: "vgg_19/conv3/conv3_2/weights/Initializer/random_uniform/mul"
  input: "vgg_19/conv3/conv3_2/weights/Initializer/random_uniform/min"
  attr {
    key: "T"
    value {
      type: DT_FLOAT
    }
  }
  attr {
    key: "_class"
    value {
      list {
        s: "loc:@vgg_19/conv3/conv3_2/weights"
      }
    }
  }
}
node {
  name: "vgg_19/conv3/conv3_2/weights"
  op: "VariableV2"
  attr {
    key: "_class"
    value {
      list {
        s: "loc:@vgg_19/conv3/conv3_2/weights"
      }
    }
  }
  attr {
    key: "container"
    value {
      s: ""
    }
  }
  attr {
    key: "dtype"
    value {
      type: DT_FLOAT
    }
  }
  attr {
    key: "shape"
    value {
      shape {
        dim {
          size: 3
        }
        dim {
          size: 3
        }
        dim {
          size: 256
        }
        dim {
          size: 256
        }
      }
    }
  }
  attr {
    key: "shared_name"
    value {
      s: ""
    }
  }
}
node {
  name: "vgg_19/conv3/conv3_2/weights/Assign"
  op: "Assign"
  input: "vgg_19/conv3/conv3_2/weights"
  input: "vgg_19/conv3/conv3_2/weights/Initializer/random_uniform"
  attr {
    key: "T"
    value {
      type: DT_FLOAT
    }
  }
  attr {
    key: "_class"
    value {
      list {
        s: "loc:@vgg_19/conv3/conv3_2/weights"
      }
    }
  }
  attr {
    key: "use_locking"
    value {
      b: true
    }
  }
  attr {
    key: "validate_shape"
    value {
      b: true
    }
  }
}
node {
  name: "vgg_19/conv3/conv3_2/weights/read"
  op: "Identity"
  input: "vgg_19/conv3/conv3_2/weights"
  attr {
    key: "T"
    value {
      type: DT_FLOAT
    }
  }
  attr {
    key: "_class"
    value {
      list {
        s: "loc:@vgg_19/conv3/conv3_2/weights"
      }
    }
  }
}
node {
  name: "vgg_19/conv3/conv3_2/biases/Initializer/zeros"
  op: "Const"
  attr {
    key: "_class"
    value {
      list {
        s: "loc:@vgg_19/conv3/conv3_2/biases"
      }
    }
  }
  attr {
    key: "dtype"
    value {
      type: DT_FLOAT
    }
  }
  attr {
    key: "value"
    value {
      tensor {
        dtype: DT_FLOAT
        tensor_shape {
          dim {
            size: 256
          }
        }
        float_val: 0.0
      }
    }
  }
}
node {
  name: "vgg_19/conv3/conv3_2/biases"
  op: "VariableV2"
  attr {
    key: "_class"
    value {
      list {
        s: "loc:@vgg_19/conv3/conv3_2/biases"
      }
    }
  }
  attr {
    key: "container"
    value {
      s: ""
    }
  }
  attr {
    key: "dtype"
    value {
      type: DT_FLOAT
    }
  }
  attr {
    key: "shape"
    value {
      shape {
        dim {
          size: 256
        }
      }
    }
  }
  attr {
    key: "shared_name"
    value {
      s: ""
    }
  }
}
node {
  name: "vgg_19/conv3/conv3_2/biases/Assign"
  op: "Assign"
  input: "vgg_19/conv3/conv3_2/biases"
  input: "vgg_19/conv3/conv3_2/biases/Initializer/zeros"
  attr {
    key: "T"
    value {
      type: DT_FLOAT
    }
  }
  attr {
    key: "_class"
    value {
      list {
        s: "loc:@vgg_19/conv3/conv3_2/biases"
      }
    }
  }
  attr {
    key: "use_locking"
    value {
      b: true
    }
  }
  attr {
    key: "validate_shape"
    value {
      b: true
    }
  }
}
node {
  name: "vgg_19/conv3/conv3_2/biases/read"
  op: "Identity"
  input: "vgg_19/conv3/conv3_2/biases"
  attr {
    key: "T"
    value {
      type: DT_FLOAT
    }
  }
  attr {
    key: "_class"
    value {
      list {
        s: "loc:@vgg_19/conv3/conv3_2/biases"
      }
    }
  }
}
node {
  name: "vgg_19/conv3/conv3_2/dilation_rate"
  op: "Const"
  attr {
    key: "dtype"
    value {
      type: DT_INT32
    }
  }
  attr {
    key: "value"
    value {
      tensor {
        dtype: DT_INT32
        tensor_shape {
          dim {
            size: 2
          }
        }
        tensor_content: "\001\000\000\000\001\000\000\000"
      }
    }
  }
}
node {
  name: "vgg_19/conv3/conv3_2/Conv2D"
  op: "Conv2D"
  input: "vgg_19/conv3/conv3_1/Relu"
  input: "vgg_19/conv3/conv3_2/weights/read"
  attr {
    key: "T"
    value {
      type: DT_FLOAT
    }
  }
  attr {
    key: "data_format"
    value {
      s: "NHWC"
    }
  }
  attr {
    key: "dilations"
    value {
      list {
        i: 1
        i: 1
        i: 1
        i: 1
      }
    }
  }
  attr {
    key: "padding"
    value {
      s: "SAME"
    }
  }
  attr {
    key: "strides"
    value {
      list {
        i: 1
        i: 1
        i: 1
        i: 1
      }
    }
  }
  attr {
    key: "use_cudnn_on_gpu"
    value {
      b: true
    }
  }
}
node {
  name: "vgg_19/conv3/conv3_2/BiasAdd"
  op: "BiasAdd"
  input: "vgg_19/conv3/conv3_2/Conv2D"
  input: "vgg_19/conv3/conv3_2/biases/read"
  attr {
    key: "T"
    value {
      type: DT_FLOAT
    }
  }
  attr {
    key: "data_format"
    value {
      s: "NHWC"
    }
  }
}
node {
  name: "vgg_19/conv3/conv3_2/Relu"
  op: "Relu"
  input: "vgg_19/conv3/conv3_2/BiasAdd"
  attr {
    key: "T"
    value {
      type: DT_FLOAT
    }
  }
}
node {
  name: "vgg_19/conv3/conv3_3/weights/Initializer/random_uniform/shape"
  op: "Const"
  attr {
    key: "_class"
    value {
      list {
        s: "loc:@vgg_19/conv3/conv3_3/weights"
      }
    }
  }
  attr {
    key: "dtype"
    value {
      type: DT_INT32
    }
  }
  attr {
    key: "value"
    value {
      tensor {
        dtype: DT_INT32
        tensor_shape {
          dim {
            size: 4
          }
        }
        tensor_content: "\003\000\000\000\003\000\000\000\000\001\000\000\000\001\000\000"
      }
    }
  }
}
node {
  name: "vgg_19/conv3/conv3_3/weights/Initializer/random_uniform/min"
  op: "Const"
  attr {
    key: "_class"
    value {
      list {
        s: "loc:@vgg_19/conv3/conv3_3/weights"
      }
    }
  }
  attr {
    key: "dtype"
    value {
      type: DT_FLOAT
    }
  }
  attr {
    key: "value"
    value {
      tensor {
        dtype: DT_FLOAT
        tensor_shape {
        }
        float_val: -0.03608439117670059
      }
    }
  }
}
node {
  name: "vgg_19/conv3/conv3_3/weights/Initializer/random_uniform/max"
  op: "Const"
  attr {
    key: "_class"
    value {
      list {
        s: "loc:@vgg_19/conv3/conv3_3/weights"
      }
    }
  }
  attr {
    key: "dtype"
    value {
      type: DT_FLOAT
    }
  }
  attr {
    key: "value"
    value {
      tensor {
        dtype: DT_FLOAT
        tensor_shape {
        }
        float_val: 0.03608439117670059
      }
    }
  }
}
node {
  name: "vgg_19/conv3/conv3_3/weights/Initializer/random_uniform/RandomUniform"
  op: "RandomUniform"
  input: "vgg_19/conv3/conv3_3/weights/Initializer/random_uniform/shape"
  attr {
    key: "T"
    value {
      type: DT_INT32
    }
  }
  attr {
    key: "_class"
    value {
      list {
        s: "loc:@vgg_19/conv3/conv3_3/weights"
      }
    }
  }
  attr {
    key: "dtype"
    value {
      type: DT_FLOAT
    }
  }
  attr {
    key: "seed"
    value {
      i: 0
    }
  }
  attr {
    key: "seed2"
    value {
      i: 0
    }
  }
}
node {
  name: "vgg_19/conv3/conv3_3/weights/Initializer/random_uniform/sub"
  op: "Sub"
  input: "vgg_19/conv3/conv3_3/weights/Initializer/random_uniform/max"
  input: "vgg_19/conv3/conv3_3/weights/Initializer/random_uniform/min"
  attr {
    key: "T"
    value {
      type: DT_FLOAT
    }
  }
  attr {
    key: "_class"
    value {
      list {
        s: "loc:@vgg_19/conv3/conv3_3/weights"
      }
    }
  }
}
node {
  name: "vgg_19/conv3/conv3_3/weights/Initializer/random_uniform/mul"
  op: "Mul"
  input: "vgg_19/conv3/conv3_3/weights/Initializer/random_uniform/RandomUniform"
  input: "vgg_19/conv3/conv3_3/weights/Initializer/random_uniform/sub"
  attr {
    key: "T"
    value {
      type: DT_FLOAT
    }
  }
  attr {
    key: "_class"
    value {
      list {
        s: "loc:@vgg_19/conv3/conv3_3/weights"
      }
    }
  }
}
node {
  name: "vgg_19/conv3/conv3_3/weights/Initializer/random_uniform"
  op: "Add"
  input: "vgg_19/conv3/conv3_3/weights/Initializer/random_uniform/mul"
  input: "vgg_19/conv3/conv3_3/weights/Initializer/random_uniform/min"
  attr {
    key: "T"
    value {
      type: DT_FLOAT
    }
  }
  attr {
    key: "_class"
    value {
      list {
        s: "loc:@vgg_19/conv3/conv3_3/weights"
      }
    }
  }
}
node {
  name: "vgg_19/conv3/conv3_3/weights"
  op: "VariableV2"
  attr {
    key: "_class"
    value {
      list {
        s: "loc:@vgg_19/conv3/conv3_3/weights"
      }
    }
  }
  attr {
    key: "container"
    value {
      s: ""
    }
  }
  attr {
    key: "dtype"
    value {
      type: DT_FLOAT
    }
  }
  attr {
    key: "shape"
    value {
      shape {
        dim {
          size: 3
        }
        dim {
          size: 3
        }
        dim {
          size: 256
        }
        dim {
          size: 256
        }
      }
    }
  }
  attr {
    key: "shared_name"
    value {
      s: ""
    }
  }
}
node {
  name: "vgg_19/conv3/conv3_3/weights/Assign"
  op: "Assign"
  input: "vgg_19/conv3/conv3_3/weights"
  input: "vgg_19/conv3/conv3_3/weights/Initializer/random_uniform"
  attr {
    key: "T"
    value {
      type: DT_FLOAT
    }
  }
  attr {
    key: "_class"
    value {
      list {
        s: "loc:@vgg_19/conv3/conv3_3/weights"
      }
    }
  }
  attr {
    key: "use_locking"
    value {
      b: true
    }
  }
  attr {
    key: "validate_shape"
    value {
      b: true
    }
  }
}
node {
  name: "vgg_19/conv3/conv3_3/weights/read"
  op: "Identity"
  input: "vgg_19/conv3/conv3_3/weights"
  attr {
    key: "T"
    value {
      type: DT_FLOAT
    }
  }
  attr {
    key: "_class"
    value {
      list {
        s: "loc:@vgg_19/conv3/conv3_3/weights"
      }
    }
  }
}
node {
  name: "vgg_19/conv3/conv3_3/biases/Initializer/zeros"
  op: "Const"
  attr {
    key: "_class"
    value {
      list {
        s: "loc:@vgg_19/conv3/conv3_3/biases"
      }
    }
  }
  attr {
    key: "dtype"
    value {
      type: DT_FLOAT
    }
  }
  attr {
    key: "value"
    value {
      tensor {
        dtype: DT_FLOAT
        tensor_shape {
          dim {
            size: 256
          }
        }
        float_val: 0.0
      }
    }
  }
}
node {
  name: "vgg_19/conv3/conv3_3/biases"
  op: "VariableV2"
  attr {
    key: "_class"
    value {
      list {
        s: "loc:@vgg_19/conv3/conv3_3/biases"
      }
    }
  }
  attr {
    key: "container"
    value {
      s: ""
    }
  }
  attr {
    key: "dtype"
    value {
      type: DT_FLOAT
    }
  }
  attr {
    key: "shape"
    value {
      shape {
        dim {
          size: 256
        }
      }
    }
  }
  attr {
    key: "shared_name"
    value {
      s: ""
    }
  }
}
node {
  name: "vgg_19/conv3/conv3_3/biases/Assign"
  op: "Assign"
  input: "vgg_19/conv3/conv3_3/biases"
  input: "vgg_19/conv3/conv3_3/biases/Initializer/zeros"
  attr {
    key: "T"
    value {
      type: DT_FLOAT
    }
  }
  attr {
    key: "_class"
    value {
      list {
        s: "loc:@vgg_19/conv3/conv3_3/biases"
      }
    }
  }
  attr {
    key: "use_locking"
    value {
      b: true
    }
  }
  attr {
    key: "validate_shape"
    value {
      b: true
    }
  }
}
node {
  name: "vgg_19/conv3/conv3_3/biases/read"
  op: "Identity"
  input: "vgg_19/conv3/conv3_3/biases"
  attr {
    key: "T"
    value {
      type: DT_FLOAT
    }
  }
  attr {
    key: "_class"
    value {
      list {
        s: "loc:@vgg_19/conv3/conv3_3/biases"
      }
    }
  }
}
node {
  name: "vgg_19/conv3/conv3_3/dilation_rate"
  op: "Const"
  attr {
    key: "dtype"
    value {
      type: DT_INT32
    }
  }
  attr {
    key: "value"
    value {
      tensor {
        dtype: DT_INT32
        tensor_shape {
          dim {
            size: 2
          }
        }
        tensor_content: "\001\000\000\000\001\000\000\000"
      }
    }
  }
}
node {
  name: "vgg_19/conv3/conv3_3/Conv2D"
  op: "Conv2D"
  input: "vgg_19/conv3/conv3_2/Relu"
  input: "vgg_19/conv3/conv3_3/weights/read"
  attr {
    key: "T"
    value {
      type: DT_FLOAT
    }
  }
  attr {
    key: "data_format"
    value {
      s: "NHWC"
    }
  }
  attr {
    key: "dilations"
    value {
      list {
        i: 1
        i: 1
        i: 1
        i: 1
      }
    }
  }
  attr {
    key: "padding"
    value {
      s: "SAME"
    }
  }
  attr {
    key: "strides"
    value {
      list {
        i: 1
        i: 1
        i: 1
        i: 1
      }
    }
  }
  attr {
    key: "use_cudnn_on_gpu"
    value {
      b: true
    }
  }
}
node {
  name: "vgg_19/conv3/conv3_3/BiasAdd"
  op: "BiasAdd"
  input: "vgg_19/conv3/conv3_3/Conv2D"
  input: "vgg_19/conv3/conv3_3/biases/read"
  attr {
    key: "T"
    value {
      type: DT_FLOAT
    }
  }
  attr {
    key: "data_format"
    value {
      s: "NHWC"
    }
  }
}
node {
  name: "vgg_19/conv3/conv3_3/Relu"
  op: "Relu"
  input: "vgg_19/conv3/conv3_3/BiasAdd"
  attr {
    key: "T"
    value {
      type: DT_FLOAT
    }
  }
}
node {
  name: "vgg_19/conv3/conv3_4/weights/Initializer/random_uniform/shape"
  op: "Const"
  attr {
    key: "_class"
    value {
      list {
        s: "loc:@vgg_19/conv3/conv3_4/weights"
      }
    }
  }
  attr {
    key: "dtype"
    value {
      type: DT_INT32
    }
  }
  attr {
    key: "value"
    value {
      tensor {
        dtype: DT_INT32
        tensor_shape {
          dim {
            size: 4
          }
        }
        tensor_content: "\003\000\000\000\003\000\000\000\000\001\000\000\000\001\000\000"
      }
    }
  }
}
node {
  name: "vgg_19/conv3/conv3_4/weights/Initializer/random_uniform/min"
  op: "Const"
  attr {
    key: "_class"
    value {
      list {
        s: "loc:@vgg_19/conv3/conv3_4/weights"
      }
    }
  }
  attr {
    key: "dtype"
    value {
      type: DT_FLOAT
    }
  }
  attr {
    key: "value"
    value {
      tensor {
        dtype: DT_FLOAT
        tensor_shape {
        }
        float_val: -0.03608439117670059
      }
    }
  }
}
node {
  name: "vgg_19/conv3/conv3_4/weights/Initializer/random_uniform/max"
  op: "Const"
  attr {
    key: "_class"
    value {
      list {
        s: "loc:@vgg_19/conv3/conv3_4/weights"
      }
    }
  }
  attr {
    key: "dtype"
    value {
      type: DT_FLOAT
    }
  }
  attr {
    key: "value"
    value {
      tensor {
        dtype: DT_FLOAT
        tensor_shape {
        }
        float_val: 0.03608439117670059
      }
    }
  }
}
node {
  name: "vgg_19/conv3/conv3_4/weights/Initializer/random_uniform/RandomUniform"
  op: "RandomUniform"
  input: "vgg_19/conv3/conv3_4/weights/Initializer/random_uniform/shape"
  attr {
    key: "T"
    value {
      type: DT_INT32
    }
  }
  attr {
    key: "_class"
    value {
      list {
        s: "loc:@vgg_19/conv3/conv3_4/weights"
      }
    }
  }
  attr {
    key: "dtype"
    value {
      type: DT_FLOAT
    }
  }
  attr {
    key: "seed"
    value {
      i: 0
    }
  }
  attr {
    key: "seed2"
    value {
      i: 0
    }
  }
}
node {
  name: "vgg_19/conv3/conv3_4/weights/Initializer/random_uniform/sub"
  op: "Sub"
  input: "vgg_19/conv3/conv3_4/weights/Initializer/random_uniform/max"
  input: "vgg_19/conv3/conv3_4/weights/Initializer/random_uniform/min"
  attr {
    key: "T"
    value {
      type: DT_FLOAT
    }
  }
  attr {
    key: "_class"
    value {
      list {
        s: "loc:@vgg_19/conv3/conv3_4/weights"
      }
    }
  }
}
node {
  name: "vgg_19/conv3/conv3_4/weights/Initializer/random_uniform/mul"
  op: "Mul"
  input: "vgg_19/conv3/conv3_4/weights/Initializer/random_uniform/RandomUniform"
  input: "vgg_19/conv3/conv3_4/weights/Initializer/random_uniform/sub"
  attr {
    key: "T"
    value {
      type: DT_FLOAT
    }
  }
  attr {
    key: "_class"
    value {
      list {
        s: "loc:@vgg_19/conv3/conv3_4/weights"
      }
    }
  }
}
node {
  name: "vgg_19/conv3/conv3_4/weights/Initializer/random_uniform"
  op: "Add"
  input: "vgg_19/conv3/conv3_4/weights/Initializer/random_uniform/mul"
  input: "vgg_19/conv3/conv3_4/weights/Initializer/random_uniform/min"
  attr {
    key: "T"
    value {
      type: DT_FLOAT
    }
  }
  attr {
    key: "_class"
    value {
      list {
        s: "loc:@vgg_19/conv3/conv3_4/weights"
      }
    }
  }
}
node {
  name: "vgg_19/conv3/conv3_4/weights"
  op: "VariableV2"
  attr {
    key: "_class"
    value {
      list {
        s: "loc:@vgg_19/conv3/conv3_4/weights"
      }
    }
  }
  attr {
    key: "container"
    value {
      s: ""
    }
  }
  attr {
    key: "dtype"
    value {
      type: DT_FLOAT
    }
  }
  attr {
    key: "shape"
    value {
      shape {
        dim {
          size: 3
        }
        dim {
          size: 3
        }
        dim {
          size: 256
        }
        dim {
          size: 256
        }
      }
    }
  }
  attr {
    key: "shared_name"
    value {
      s: ""
    }
  }
}
node {
  name: "vgg_19/conv3/conv3_4/weights/Assign"
  op: "Assign"
  input: "vgg_19/conv3/conv3_4/weights"
  input: "vgg_19/conv3/conv3_4/weights/Initializer/random_uniform"
  attr {
    key: "T"
    value {
      type: DT_FLOAT
    }
  }
  attr {
    key: "_class"
    value {
      list {
        s: "loc:@vgg_19/conv3/conv3_4/weights"
      }
    }
  }
  attr {
    key: "use_locking"
    value {
      b: true
    }
  }
  attr {
    key: "validate_shape"
    value {
      b: true
    }
  }
}
node {
  name: "vgg_19/conv3/conv3_4/weights/read"
  op: "Identity"
  input: "vgg_19/conv3/conv3_4/weights"
  attr {
    key: "T"
    value {
      type: DT_FLOAT
    }
  }
  attr {
    key: "_class"
    value {
      list {
        s: "loc:@vgg_19/conv3/conv3_4/weights"
      }
    }
  }
}
node {
  name: "vgg_19/conv3/conv3_4/biases/Initializer/zeros"
  op: "Const"
  attr {
    key: "_class"
    value {
      list {
        s: "loc:@vgg_19/conv3/conv3_4/biases"
      }
    }
  }
  attr {
    key: "dtype"
    value {
      type: DT_FLOAT
    }
  }
  attr {
    key: "value"
    value {
      tensor {
        dtype: DT_FLOAT
        tensor_shape {
          dim {
            size: 256
          }
        }
        float_val: 0.0
      }
    }
  }
}
node {
  name: "vgg_19/conv3/conv3_4/biases"
  op: "VariableV2"
  attr {
    key: "_class"
    value {
      list {
        s: "loc:@vgg_19/conv3/conv3_4/biases"
      }
    }
  }
  attr {
    key: "container"
    value {
      s: ""
    }
  }
  attr {
    key: "dtype"
    value {
      type: DT_FLOAT
    }
  }
  attr {
    key: "shape"
    value {
      shape {
        dim {
          size: 256
        }
      }
    }
  }
  attr {
    key: "shared_name"
    value {
      s: ""
    }
  }
}
node {
  name: "vgg_19/conv3/conv3_4/biases/Assign"
  op: "Assign"
  input: "vgg_19/conv3/conv3_4/biases"
  input: "vgg_19/conv3/conv3_4/biases/Initializer/zeros"
  attr {
    key: "T"
    value {
      type: DT_FLOAT
    }
  }
  attr {
    key: "_class"
    value {
      list {
        s: "loc:@vgg_19/conv3/conv3_4/biases"
      }
    }
  }
  attr {
    key: "use_locking"
    value {
      b: true
    }
  }
  attr {
    key: "validate_shape"
    value {
      b: true
    }
  }
}
node {
  name: "vgg_19/conv3/conv3_4/biases/read"
  op: "Identity"
  input: "vgg_19/conv3/conv3_4/biases"
  attr {
    key: "T"
    value {
      type: DT_FLOAT
    }
  }
  attr {
    key: "_class"
    value {
      list {
        s: "loc:@vgg_19/conv3/conv3_4/biases"
      }
    }
  }
}
node {
  name: "vgg_19/conv3/conv3_4/dilation_rate"
  op: "Const"
  attr {
    key: "dtype"
    value {
      type: DT_INT32
    }
  }
  attr {
    key: "value"
    value {
      tensor {
        dtype: DT_INT32
        tensor_shape {
          dim {
            size: 2
          }
        }
        tensor_content: "\001\000\000\000\001\000\000\000"
      }
    }
  }
}
node {
  name: "vgg_19/conv3/conv3_4/Conv2D"
  op: "Conv2D"
  input: "vgg_19/conv3/conv3_3/Relu"
  input: "vgg_19/conv3/conv3_4/weights/read"
  attr {
    key: "T"
    value {
      type: DT_FLOAT
    }
  }
  attr {
    key: "data_format"
    value {
      s: "NHWC"
    }
  }
  attr {
    key: "dilations"
    value {
      list {
        i: 1
        i: 1
        i: 1
        i: 1
      }
    }
  }
  attr {
    key: "padding"
    value {
      s: "SAME"
    }
  }
  attr {
    key: "strides"
    value {
      list {
        i: 1
        i: 1
        i: 1
        i: 1
      }
    }
  }
  attr {
    key: "use_cudnn_on_gpu"
    value {
      b: true
    }
  }
}
node {
  name: "vgg_19/conv3/conv3_4/BiasAdd"
  op: "BiasAdd"
  input: "vgg_19/conv3/conv3_4/Conv2D"
  input: "vgg_19/conv3/conv3_4/biases/read"
  attr {
    key: "T"
    value {
      type: DT_FLOAT
    }
  }
  attr {
    key: "data_format"
    value {
      s: "NHWC"
    }
  }
}
node {
  name: "vgg_19/conv3/conv3_4/Relu"
  op: "Relu"
  input: "vgg_19/conv3/conv3_4/BiasAdd"
  attr {
    key: "T"
    value {
      type: DT_FLOAT
    }
  }
}
node {
  name: "vgg_19/pool3/MaxPool"
  op: "MaxPool"
  input: "vgg_19/conv3/conv3_4/Relu"
  attr {
    key: "T"
    value {
      type: DT_FLOAT
    }
  }
  attr {
    key: "data_format"
    value {
      s: "NHWC"
    }
  }
  attr {
    key: "ksize"
    value {
      list {
        i: 1
        i: 2
        i: 2
        i: 1
      }
    }
  }
  attr {
    key: "padding"
    value {
      s: "VALID"
    }
  }
  attr {
    key: "strides"
    value {
      list {
        i: 1
        i: 2
        i: 2
        i: 1
      }
    }
  }
}
node {
  name: "vgg_19/conv4/conv4_1/weights/Initializer/random_uniform/shape"
  op: "Const"
  attr {
    key: "_class"
    value {
      list {
        s: "loc:@vgg_19/conv4/conv4_1/weights"
      }
    }
  }
  attr {
    key: "dtype"
    value {
      type: DT_INT32
    }
  }
  attr {
    key: "value"
    value {
      tensor {
        dtype: DT_INT32
        tensor_shape {
          dim {
            size: 4
          }
        }
        tensor_content: "\003\000\000\000\003\000\000\000\000\001\000\000\000\002\000\000"
      }
    }
  }
}
node {
  name: "vgg_19/conv4/conv4_1/weights/Initializer/random_uniform/min"
  op: "Const"
  attr {
    key: "_class"
    value {
      list {
        s: "loc:@vgg_19/conv4/conv4_1/weights"
      }
    }
  }
  attr {
    key: "dtype"
    value {
      type: DT_FLOAT
    }
  }
  attr {
    key: "value"
    value {
      tensor {
        dtype: DT_FLOAT
        tensor_shape {
        }
        float_val: -0.02946278266608715
      }
    }
  }
}
node {
  name: "vgg_19/conv4/conv4_1/weights/Initializer/random_uniform/max"
  op: "Const"
  attr {
    key: "_class"
    value {
      list {
        s: "loc:@vgg_19/conv4/conv4_1/weights"
      }
    }
  }
  attr {
    key: "dtype"
    value {
      type: DT_FLOAT
    }
  }
  attr {
    key: "value"
    value {
      tensor {
        dtype: DT_FLOAT
        tensor_shape {
        }
        float_val: 0.02946278266608715
      }
    }
  }
}
node {
  name: "vgg_19/conv4/conv4_1/weights/Initializer/random_uniform/RandomUniform"
  op: "RandomUniform"
  input: "vgg_19/conv4/conv4_1/weights/Initializer/random_uniform/shape"
  attr {
    key: "T"
    value {
      type: DT_INT32
    }
  }
  attr {
    key: "_class"
    value {
      list {
        s: "loc:@vgg_19/conv4/conv4_1/weights"
      }
    }
  }
  attr {
    key: "dtype"
    value {
      type: DT_FLOAT
    }
  }
  attr {
    key: "seed"
    value {
      i: 0
    }
  }
  attr {
    key: "seed2"
    value {
      i: 0
    }
  }
}
node {
  name: "vgg_19/conv4/conv4_1/weights/Initializer/random_uniform/sub"
  op: "Sub"
  input: "vgg_19/conv4/conv4_1/weights/Initializer/random_uniform/max"
  input: "vgg_19/conv4/conv4_1/weights/Initializer/random_uniform/min"
  attr {
    key: "T"
    value {
      type: DT_FLOAT
    }
  }
  attr {
    key: "_class"
    value {
      list {
        s: "loc:@vgg_19/conv4/conv4_1/weights"
      }
    }
  }
}
node {
  name: "vgg_19/conv4/conv4_1/weights/Initializer/random_uniform/mul"
  op: "Mul"
  input: "vgg_19/conv4/conv4_1/weights/Initializer/random_uniform/RandomUniform"
  input: "vgg_19/conv4/conv4_1/weights/Initializer/random_uniform/sub"
  attr {
    key: "T"
    value {
      type: DT_FLOAT
    }
  }
  attr {
    key: "_class"
    value {
      list {
        s: "loc:@vgg_19/conv4/conv4_1/weights"
      }
    }
  }
}
node {
  name: "vgg_19/conv4/conv4_1/weights/Initializer/random_uniform"
  op: "Add"
  input: "vgg_19/conv4/conv4_1/weights/Initializer/random_uniform/mul"
  input: "vgg_19/conv4/conv4_1/weights/Initializer/random_uniform/min"
  attr {
    key: "T"
    value {
      type: DT_FLOAT
    }
  }
  attr {
    key: "_class"
    value {
      list {
        s: "loc:@vgg_19/conv4/conv4_1/weights"
      }
    }
  }
}
node {
  name: "vgg_19/conv4/conv4_1/weights"
  op: "VariableV2"
  attr {
    key: "_class"
    value {
      list {
        s: "loc:@vgg_19/conv4/conv4_1/weights"
      }
    }
  }
  attr {
    key: "container"
    value {
      s: ""
    }
  }
  attr {
    key: "dtype"
    value {
      type: DT_FLOAT
    }
  }
  attr {
    key: "shape"
    value {
      shape {
        dim {
          size: 3
        }
        dim {
          size: 3
        }
        dim {
          size: 256
        }
        dim {
          size: 512
        }
      }
    }
  }
  attr {
    key: "shared_name"
    value {
      s: ""
    }
  }
}
node {
  name: "vgg_19/conv4/conv4_1/weights/Assign"
  op: "Assign"
  input: "vgg_19/conv4/conv4_1/weights"
  input: "vgg_19/conv4/conv4_1/weights/Initializer/random_uniform"
  attr {
    key: "T"
    value {
      type: DT_FLOAT
    }
  }
  attr {
    key: "_class"
    value {
      list {
        s: "loc:@vgg_19/conv4/conv4_1/weights"
      }
    }
  }
  attr {
    key: "use_locking"
    value {
      b: true
    }
  }
  attr {
    key: "validate_shape"
    value {
      b: true
    }
  }
}
node {
  name: "vgg_19/conv4/conv4_1/weights/read"
  op: "Identity"
  input: "vgg_19/conv4/conv4_1/weights"
  attr {
    key: "T"
    value {
      type: DT_FLOAT
    }
  }
  attr {
    key: "_class"
    value {
      list {
        s: "loc:@vgg_19/conv4/conv4_1/weights"
      }
    }
  }
}
node {
  name: "vgg_19/conv4/conv4_1/biases/Initializer/zeros"
  op: "Const"
  attr {
    key: "_class"
    value {
      list {
        s: "loc:@vgg_19/conv4/conv4_1/biases"
      }
    }
  }
  attr {
    key: "dtype"
    value {
      type: DT_FLOAT
    }
  }
  attr {
    key: "value"
    value {
      tensor {
        dtype: DT_FLOAT
        tensor_shape {
          dim {
            size: 512
          }
        }
        float_val: 0.0
      }
    }
  }
}
node {
  name: "vgg_19/conv4/conv4_1/biases"
  op: "VariableV2"
  attr {
    key: "_class"
    value {
      list {
        s: "loc:@vgg_19/conv4/conv4_1/biases"
      }
    }
  }
  attr {
    key: "container"
    value {
      s: ""
    }
  }
  attr {
    key: "dtype"
    value {
      type: DT_FLOAT
    }
  }
  attr {
    key: "shape"
    value {
      shape {
        dim {
          size: 512
        }
      }
    }
  }
  attr {
    key: "shared_name"
    value {
      s: ""
    }
  }
}
node {
  name: "vgg_19/conv4/conv4_1/biases/Assign"
  op: "Assign"
  input: "vgg_19/conv4/conv4_1/biases"
  input: "vgg_19/conv4/conv4_1/biases/Initializer/zeros"
  attr {
    key: "T"
    value {
      type: DT_FLOAT
    }
  }
  attr {
    key: "_class"
    value {
      list {
        s: "loc:@vgg_19/conv4/conv4_1/biases"
      }
    }
  }
  attr {
    key: "use_locking"
    value {
      b: true
    }
  }
  attr {
    key: "validate_shape"
    value {
      b: true
    }
  }
}
node {
  name: "vgg_19/conv4/conv4_1/biases/read"
  op: "Identity"
  input: "vgg_19/conv4/conv4_1/biases"
  attr {
    key: "T"
    value {
      type: DT_FLOAT
    }
  }
  attr {
    key: "_class"
    value {
      list {
        s: "loc:@vgg_19/conv4/conv4_1/biases"
      }
    }
  }
}
node {
  name: "vgg_19/conv4/conv4_1/dilation_rate"
  op: "Const"
  attr {
    key: "dtype"
    value {
      type: DT_INT32
    }
  }
  attr {
    key: "value"
    value {
      tensor {
        dtype: DT_INT32
        tensor_shape {
          dim {
            size: 2
          }
        }
        tensor_content: "\001\000\000\000\001\000\000\000"
      }
    }
  }
}
node {
  name: "vgg_19/conv4/conv4_1/Conv2D"
  op: "Conv2D"
  input: "vgg_19/pool3/MaxPool"
  input: "vgg_19/conv4/conv4_1/weights/read"
  attr {
    key: "T"
    value {
      type: DT_FLOAT
    }
  }
  attr {
    key: "data_format"
    value {
      s: "NHWC"
    }
  }
  attr {
    key: "dilations"
    value {
      list {
        i: 1
        i: 1
        i: 1
        i: 1
      }
    }
  }
  attr {
    key: "padding"
    value {
      s: "SAME"
    }
  }
  attr {
    key: "strides"
    value {
      list {
        i: 1
        i: 1
        i: 1
        i: 1
      }
    }
  }
  attr {
    key: "use_cudnn_on_gpu"
    value {
      b: true
    }
  }
}
node {
  name: "vgg_19/conv4/conv4_1/BiasAdd"
  op: "BiasAdd"
  input: "vgg_19/conv4/conv4_1/Conv2D"
  input: "vgg_19/conv4/conv4_1/biases/read"
  attr {
    key: "T"
    value {
      type: DT_FLOAT
    }
  }
  attr {
    key: "data_format"
    value {
      s: "NHWC"
    }
  }
}
node {
  name: "vgg_19/conv4/conv4_1/Relu"
  op: "Relu"
  input: "vgg_19/conv4/conv4_1/BiasAdd"
  attr {
    key: "T"
    value {
      type: DT_FLOAT
    }
  }
}
node {
  name: "vgg_19/conv4/conv4_2/weights/Initializer/random_uniform/shape"
  op: "Const"
  attr {
    key: "_class"
    value {
      list {
        s: "loc:@vgg_19/conv4/conv4_2/weights"
      }
    }
  }
  attr {
    key: "dtype"
    value {
      type: DT_INT32
    }
  }
  attr {
    key: "value"
    value {
      tensor {
        dtype: DT_INT32
        tensor_shape {
          dim {
            size: 4
          }
        }
        tensor_content: "\003\000\000\000\003\000\000\000\000\002\000\000\000\002\000\000"
      }
    }
  }
}
node {
  name: "vgg_19/conv4/conv4_2/weights/Initializer/random_uniform/min"
  op: "Const"
  attr {
    key: "_class"
    value {
      list {
        s: "loc:@vgg_19/conv4/conv4_2/weights"
      }
    }
  }
  attr {
    key: "dtype"
    value {
      type: DT_FLOAT
    }
  }
  attr {
    key: "value"
    value {
      tensor {
        dtype: DT_FLOAT
        tensor_shape {
        }
        float_val: -0.025515519082546234
      }
    }
  }
}
node {
  name: "vgg_19/conv4/conv4_2/weights/Initializer/random_uniform/max"
  op: "Const"
  attr {
    key: "_class"
    value {
      list {
        s: "loc:@vgg_19/conv4/conv4_2/weights"
      }
    }
  }
  attr {
    key: "dtype"
    value {
      type: DT_FLOAT
    }
  }
  attr {
    key: "value"
    value {
      tensor {
        dtype: DT_FLOAT
        tensor_shape {
        }
        float_val: 0.025515519082546234
      }
    }
  }
}
node {
  name: "vgg_19/conv4/conv4_2/weights/Initializer/random_uniform/RandomUniform"
  op: "RandomUniform"
  input: "vgg_19/conv4/conv4_2/weights/Initializer/random_uniform/shape"
  attr {
    key: "T"
    value {
      type: DT_INT32
    }
  }
  attr {
    key: "_class"
    value {
      list {
        s: "loc:@vgg_19/conv4/conv4_2/weights"
      }
    }
  }
  attr {
    key: "dtype"
    value {
      type: DT_FLOAT
    }
  }
  attr {
    key: "seed"
    value {
      i: 0
    }
  }
  attr {
    key: "seed2"
    value {
      i: 0
    }
  }
}
node {
  name: "vgg_19/conv4/conv4_2/weights/Initializer/random_uniform/sub"
  op: "Sub"
  input: "vgg_19/conv4/conv4_2/weights/Initializer/random_uniform/max"
  input: "vgg_19/conv4/conv4_2/weights/Initializer/random_uniform/min"
  attr {
    key: "T"
    value {
      type: DT_FLOAT
    }
  }
  attr {
    key: "_class"
    value {
      list {
        s: "loc:@vgg_19/conv4/conv4_2/weights"
      }
    }
  }
}
node {
  name: "vgg_19/conv4/conv4_2/weights/Initializer/random_uniform/mul"
  op: "Mul"
  input: "vgg_19/conv4/conv4_2/weights/Initializer/random_uniform/RandomUniform"
  input: "vgg_19/conv4/conv4_2/weights/Initializer/random_uniform/sub"
  attr {
    key: "T"
    value {
      type: DT_FLOAT
    }
  }
  attr {
    key: "_class"
    value {
      list {
        s: "loc:@vgg_19/conv4/conv4_2/weights"
      }
    }
  }
}
node {
  name: "vgg_19/conv4/conv4_2/weights/Initializer/random_uniform"
  op: "Add"
  input: "vgg_19/conv4/conv4_2/weights/Initializer/random_uniform/mul"
  input: "vgg_19/conv4/conv4_2/weights/Initializer/random_uniform/min"
  attr {
    key: "T"
    value {
      type: DT_FLOAT
    }
  }
  attr {
    key: "_class"
    value {
      list {
        s: "loc:@vgg_19/conv4/conv4_2/weights"
      }
    }
  }
}
node {
  name: "vgg_19/conv4/conv4_2/weights"
  op: "VariableV2"
  attr {
    key: "_class"
    value {
      list {
        s: "loc:@vgg_19/conv4/conv4_2/weights"
      }
    }
  }
  attr {
    key: "container"
    value {
      s: ""
    }
  }
  attr {
    key: "dtype"
    value {
      type: DT_FLOAT
    }
  }
  attr {
    key: "shape"
    value {
      shape {
        dim {
          size: 3
        }
        dim {
          size: 3
        }
        dim {
          size: 512
        }
        dim {
          size: 512
        }
      }
    }
  }
  attr {
    key: "shared_name"
    value {
      s: ""
    }
  }
}
node {
  name: "vgg_19/conv4/conv4_2/weights/Assign"
  op: "Assign"
  input: "vgg_19/conv4/conv4_2/weights"
  input: "vgg_19/conv4/conv4_2/weights/Initializer/random_uniform"
  attr {
    key: "T"
    value {
      type: DT_FLOAT
    }
  }
  attr {
    key: "_class"
    value {
      list {
        s: "loc:@vgg_19/conv4/conv4_2/weights"
      }
    }
  }
  attr {
    key: "use_locking"
    value {
      b: true
    }
  }
  attr {
    key: "validate_shape"
    value {
      b: true
    }
  }
}
node {
  name: "vgg_19/conv4/conv4_2/weights/read"
  op: "Identity"
  input: "vgg_19/conv4/conv4_2/weights"
  attr {
    key: "T"
    value {
      type: DT_FLOAT
    }
  }
  attr {
    key: "_class"
    value {
      list {
        s: "loc:@vgg_19/conv4/conv4_2/weights"
      }
    }
  }
}
node {
  name: "vgg_19/conv4/conv4_2/biases/Initializer/zeros"
  op: "Const"
  attr {
    key: "_class"
    value {
      list {
        s: "loc:@vgg_19/conv4/conv4_2/biases"
      }
    }
  }
  attr {
    key: "dtype"
    value {
      type: DT_FLOAT
    }
  }
  attr {
    key: "value"
    value {
      tensor {
        dtype: DT_FLOAT
        tensor_shape {
          dim {
            size: 512
          }
        }
        float_val: 0.0
      }
    }
  }
}
node {
  name: "vgg_19/conv4/conv4_2/biases"
  op: "VariableV2"
  attr {
    key: "_class"
    value {
      list {
        s: "loc:@vgg_19/conv4/conv4_2/biases"
      }
    }
  }
  attr {
    key: "container"
    value {
      s: ""
    }
  }
  attr {
    key: "dtype"
    value {
      type: DT_FLOAT
    }
  }
  attr {
    key: "shape"
    value {
      shape {
        dim {
          size: 512
        }
      }
    }
  }
  attr {
    key: "shared_name"
    value {
      s: ""
    }
  }
}
node {
  name: "vgg_19/conv4/conv4_2/biases/Assign"
  op: "Assign"
  input: "vgg_19/conv4/conv4_2/biases"
  input: "vgg_19/conv4/conv4_2/biases/Initializer/zeros"
  attr {
    key: "T"
    value {
      type: DT_FLOAT
    }
  }
  attr {
    key: "_class"
    value {
      list {
        s: "loc:@vgg_19/conv4/conv4_2/biases"
      }
    }
  }
  attr {
    key: "use_locking"
    value {
      b: true
    }
  }
  attr {
    key: "validate_shape"
    value {
      b: true
    }
  }
}
node {
  name: "vgg_19/conv4/conv4_2/biases/read"
  op: "Identity"
  input: "vgg_19/conv4/conv4_2/biases"
  attr {
    key: "T"
    value {
      type: DT_FLOAT
    }
  }
  attr {
    key: "_class"
    value {
      list {
        s: "loc:@vgg_19/conv4/conv4_2/biases"
      }
    }
  }
}
node {
  name: "vgg_19/conv4/conv4_2/dilation_rate"
  op: "Const"
  attr {
    key: "dtype"
    value {
      type: DT_INT32
    }
  }
  attr {
    key: "value"
    value {
      tensor {
        dtype: DT_INT32
        tensor_shape {
          dim {
            size: 2
          }
        }
        tensor_content: "\001\000\000\000\001\000\000\000"
      }
    }
  }
}
node {
  name: "vgg_19/conv4/conv4_2/Conv2D"
  op: "Conv2D"
  input: "vgg_19/conv4/conv4_1/Relu"
  input: "vgg_19/conv4/conv4_2/weights/read"
  attr {
    key: "T"
    value {
      type: DT_FLOAT
    }
  }
  attr {
    key: "data_format"
    value {
      s: "NHWC"
    }
  }
  attr {
    key: "dilations"
    value {
      list {
        i: 1
        i: 1
        i: 1
        i: 1
      }
    }
  }
  attr {
    key: "padding"
    value {
      s: "SAME"
    }
  }
  attr {
    key: "strides"
    value {
      list {
        i: 1
        i: 1
        i: 1
        i: 1
      }
    }
  }
  attr {
    key: "use_cudnn_on_gpu"
    value {
      b: true
    }
  }
}
node {
  name: "vgg_19/conv4/conv4_2/BiasAdd"
  op: "BiasAdd"
  input: "vgg_19/conv4/conv4_2/Conv2D"
  input: "vgg_19/conv4/conv4_2/biases/read"
  attr {
    key: "T"
    value {
      type: DT_FLOAT
    }
  }
  attr {
    key: "data_format"
    value {
      s: "NHWC"
    }
  }
}
node {
  name: "vgg_19/conv4/conv4_2/Relu"
  op: "Relu"
  input: "vgg_19/conv4/conv4_2/BiasAdd"
  attr {
    key: "T"
    value {
      type: DT_FLOAT
    }
  }
}
node {
  name: "vgg_19/conv4/conv4_3/weights/Initializer/random_uniform/shape"
  op: "Const"
  attr {
    key: "_class"
    value {
      list {
        s: "loc:@vgg_19/conv4/conv4_3/weights"
      }
    }
  }
  attr {
    key: "dtype"
    value {
      type: DT_INT32
    }
  }
  attr {
    key: "value"
    value {
      tensor {
        dtype: DT_INT32
        tensor_shape {
          dim {
            size: 4
          }
        }
        tensor_content: "\003\000\000\000\003\000\000\000\000\002\000\000\000\002\000\000"
      }
    }
  }
}
node {
  name: "vgg_19/conv4/conv4_3/weights/Initializer/random_uniform/min"
  op: "Const"
  attr {
    key: "_class"
    value {
      list {
        s: "loc:@vgg_19/conv4/conv4_3/weights"
      }
    }
  }
  attr {
    key: "dtype"
    value {
      type: DT_FLOAT
    }
  }
  attr {
    key: "value"
    value {
      tensor {
        dtype: DT_FLOAT
        tensor_shape {
        }
        float_val: -0.025515519082546234
      }
    }
  }
}
node {
  name: "vgg_19/conv4/conv4_3/weights/Initializer/random_uniform/max"
  op: "Const"
  attr {
    key: "_class"
    value {
      list {
        s: "loc:@vgg_19/conv4/conv4_3/weights"
      }
    }
  }
  attr {
    key: "dtype"
    value {
      type: DT_FLOAT
    }
  }
  attr {
    key: "value"
    value {
      tensor {
        dtype: DT_FLOAT
        tensor_shape {
        }
        float_val: 0.025515519082546234
      }
    }
  }
}
node {
  name: "vgg_19/conv4/conv4_3/weights/Initializer/random_uniform/RandomUniform"
  op: "RandomUniform"
  input: "vgg_19/conv4/conv4_3/weights/Initializer/random_uniform/shape"
  attr {
    key: "T"
    value {
      type: DT_INT32
    }
  }
  attr {
    key: "_class"
    value {
      list {
        s: "loc:@vgg_19/conv4/conv4_3/weights"
      }
    }
  }
  attr {
    key: "dtype"
    value {
      type: DT_FLOAT
    }
  }
  attr {
    key: "seed"
    value {
      i: 0
    }
  }
  attr {
    key: "seed2"
    value {
      i: 0
    }
  }
}
node {
  name: "vgg_19/conv4/conv4_3/weights/Initializer/random_uniform/sub"
  op: "Sub"
  input: "vgg_19/conv4/conv4_3/weights/Initializer/random_uniform/max"
  input: "vgg_19/conv4/conv4_3/weights/Initializer/random_uniform/min"
  attr {
    key: "T"
    value {
      type: DT_FLOAT
    }
  }
  attr {
    key: "_class"
    value {
      list {
        s: "loc:@vgg_19/conv4/conv4_3/weights"
      }
    }
  }
}
node {
  name: "vgg_19/conv4/conv4_3/weights/Initializer/random_uniform/mul"
  op: "Mul"
  input: "vgg_19/conv4/conv4_3/weights/Initializer/random_uniform/RandomUniform"
  input: "vgg_19/conv4/conv4_3/weights/Initializer/random_uniform/sub"
  attr {
    key: "T"
    value {
      type: DT_FLOAT
    }
  }
  attr {
    key: "_class"
    value {
      list {
        s: "loc:@vgg_19/conv4/conv4_3/weights"
      }
    }
  }
}
node {
  name: "vgg_19/conv4/conv4_3/weights/Initializer/random_uniform"
  op: "Add"
  input: "vgg_19/conv4/conv4_3/weights/Initializer/random_uniform/mul"
  input: "vgg_19/conv4/conv4_3/weights/Initializer/random_uniform/min"
  attr {
    key: "T"
    value {
      type: DT_FLOAT
    }
  }
  attr {
    key: "_class"
    value {
      list {
        s: "loc:@vgg_19/conv4/conv4_3/weights"
      }
    }
  }
}
node {
  name: "vgg_19/conv4/conv4_3/weights"
  op: "VariableV2"
  attr {
    key: "_class"
    value {
      list {
        s: "loc:@vgg_19/conv4/conv4_3/weights"
      }
    }
  }
  attr {
    key: "container"
    value {
      s: ""
    }
  }
  attr {
    key: "dtype"
    value {
      type: DT_FLOAT
    }
  }
  attr {
    key: "shape"
    value {
      shape {
        dim {
          size: 3
        }
        dim {
          size: 3
        }
        dim {
          size: 512
        }
        dim {
          size: 512
        }
      }
    }
  }
  attr {
    key: "shared_name"
    value {
      s: ""
    }
  }
}
node {
  name: "vgg_19/conv4/conv4_3/weights/Assign"
  op: "Assign"
  input: "vgg_19/conv4/conv4_3/weights"
  input: "vgg_19/conv4/conv4_3/weights/Initializer/random_uniform"
  attr {
    key: "T"
    value {
      type: DT_FLOAT
    }
  }
  attr {
    key: "_class"
    value {
      list {
        s: "loc:@vgg_19/conv4/conv4_3/weights"
      }
    }
  }
  attr {
    key: "use_locking"
    value {
      b: true
    }
  }
  attr {
    key: "validate_shape"
    value {
      b: true
    }
  }
}
node {
  name: "vgg_19/conv4/conv4_3/weights/read"
  op: "Identity"
  input: "vgg_19/conv4/conv4_3/weights"
  attr {
    key: "T"
    value {
      type: DT_FLOAT
    }
  }
  attr {
    key: "_class"
    value {
      list {
        s: "loc:@vgg_19/conv4/conv4_3/weights"
      }
    }
  }
}
node {
  name: "vgg_19/conv4/conv4_3/biases/Initializer/zeros"
  op: "Const"
  attr {
    key: "_class"
    value {
      list {
        s: "loc:@vgg_19/conv4/conv4_3/biases"
      }
    }
  }
  attr {
    key: "dtype"
    value {
      type: DT_FLOAT
    }
  }
  attr {
    key: "value"
    value {
      tensor {
        dtype: DT_FLOAT
        tensor_shape {
          dim {
            size: 512
          }
        }
        float_val: 0.0
      }
    }
  }
}
node {
  name: "vgg_19/conv4/conv4_3/biases"
  op: "VariableV2"
  attr {
    key: "_class"
    value {
      list {
        s: "loc:@vgg_19/conv4/conv4_3/biases"
      }
    }
  }
  attr {
    key: "container"
    value {
      s: ""
    }
  }
  attr {
    key: "dtype"
    value {
      type: DT_FLOAT
    }
  }
  attr {
    key: "shape"
    value {
      shape {
        dim {
          size: 512
        }
      }
    }
  }
  attr {
    key: "shared_name"
    value {
      s: ""
    }
  }
}
node {
  name: "vgg_19/conv4/conv4_3/biases/Assign"
  op: "Assign"
  input: "vgg_19/conv4/conv4_3/biases"
  input: "vgg_19/conv4/conv4_3/biases/Initializer/zeros"
  attr {
    key: "T"
    value {
      type: DT_FLOAT
    }
  }
  attr {
    key: "_class"
    value {
      list {
        s: "loc:@vgg_19/conv4/conv4_3/biases"
      }
    }
  }
  attr {
    key: "use_locking"
    value {
      b: true
    }
  }
  attr {
    key: "validate_shape"
    value {
      b: true
    }
  }
}
node {
  name: "vgg_19/conv4/conv4_3/biases/read"
  op: "Identity"
  input: "vgg_19/conv4/conv4_3/biases"
  attr {
    key: "T"
    value {
      type: DT_FLOAT
    }
  }
  attr {
    key: "_class"
    value {
      list {
        s: "loc:@vgg_19/conv4/conv4_3/biases"
      }
    }
  }
}
node {
  name: "vgg_19/conv4/conv4_3/dilation_rate"
  op: "Const"
  attr {
    key: "dtype"
    value {
      type: DT_INT32
    }
  }
  attr {
    key: "value"
    value {
      tensor {
        dtype: DT_INT32
        tensor_shape {
          dim {
            size: 2
          }
        }
        tensor_content: "\001\000\000\000\001\000\000\000"
      }
    }
  }
}
node {
  name: "vgg_19/conv4/conv4_3/Conv2D"
  op: "Conv2D"
  input: "vgg_19/conv4/conv4_2/Relu"
  input: "vgg_19/conv4/conv4_3/weights/read"
  attr {
    key: "T"
    value {
      type: DT_FLOAT
    }
  }
  attr {
    key: "data_format"
    value {
      s: "NHWC"
    }
  }
  attr {
    key: "dilations"
    value {
      list {
        i: 1
        i: 1
        i: 1
        i: 1
      }
    }
  }
  attr {
    key: "padding"
    value {
      s: "SAME"
    }
  }
  attr {
    key: "strides"
    value {
      list {
        i: 1
        i: 1
        i: 1
        i: 1
      }
    }
  }
  attr {
    key: "use_cudnn_on_gpu"
    value {
      b: true
    }
  }
}
node {
  name: "vgg_19/conv4/conv4_3/BiasAdd"
  op: "BiasAdd"
  input: "vgg_19/conv4/conv4_3/Conv2D"
  input: "vgg_19/conv4/conv4_3/biases/read"
  attr {
    key: "T"
    value {
      type: DT_FLOAT
    }
  }
  attr {
    key: "data_format"
    value {
      s: "NHWC"
    }
  }
}
node {
  name: "vgg_19/conv4/conv4_3/Relu"
  op: "Relu"
  input: "vgg_19/conv4/conv4_3/BiasAdd"
  attr {
    key: "T"
    value {
      type: DT_FLOAT
    }
  }
}
node {
  name: "vgg_19/conv4/conv4_4/weights/Initializer/random_uniform/shape"
  op: "Const"
  attr {
    key: "_class"
    value {
      list {
        s: "loc:@vgg_19/conv4/conv4_4/weights"
      }
    }
  }
  attr {
    key: "dtype"
    value {
      type: DT_INT32
    }
  }
  attr {
    key: "value"
    value {
      tensor {
        dtype: DT_INT32
        tensor_shape {
          dim {
            size: 4
          }
        }
        tensor_content: "\003\000\000\000\003\000\000\000\000\002\000\000\000\002\000\000"
      }
    }
  }
}
node {
  name: "vgg_19/conv4/conv4_4/weights/Initializer/random_uniform/min"
  op: "Const"
  attr {
    key: "_class"
    value {
      list {
        s: "loc:@vgg_19/conv4/conv4_4/weights"
      }
    }
  }
  attr {
    key: "dtype"
    value {
      type: DT_FLOAT
    }
  }
  attr {
    key: "value"
    value {
      tensor {
        dtype: DT_FLOAT
        tensor_shape {
        }
        float_val: -0.025515519082546234
      }
    }
  }
}
node {
  name: "vgg_19/conv4/conv4_4/weights/Initializer/random_uniform/max"
  op: "Const"
  attr {
    key: "_class"
    value {
      list {
        s: "loc:@vgg_19/conv4/conv4_4/weights"
      }
    }
  }
  attr {
    key: "dtype"
    value {
      type: DT_FLOAT
    }
  }
  attr {
    key: "value"
    value {
      tensor {
        dtype: DT_FLOAT
        tensor_shape {
        }
        float_val: 0.025515519082546234
      }
    }
  }
}
node {
  name: "vgg_19/conv4/conv4_4/weights/Initializer/random_uniform/RandomUniform"
  op: "RandomUniform"
  input: "vgg_19/conv4/conv4_4/weights/Initializer/random_uniform/shape"
  attr {
    key: "T"
    value {
      type: DT_INT32
    }
  }
  attr {
    key: "_class"
    value {
      list {
        s: "loc:@vgg_19/conv4/conv4_4/weights"
      }
    }
  }
  attr {
    key: "dtype"
    value {
      type: DT_FLOAT
    }
  }
  attr {
    key: "seed"
    value {
      i: 0
    }
  }
  attr {
    key: "seed2"
    value {
      i: 0
    }
  }
}
node {
  name: "vgg_19/conv4/conv4_4/weights/Initializer/random_uniform/sub"
  op: "Sub"
  input: "vgg_19/conv4/conv4_4/weights/Initializer/random_uniform/max"
  input: "vgg_19/conv4/conv4_4/weights/Initializer/random_uniform/min"
  attr {
    key: "T"
    value {
      type: DT_FLOAT
    }
  }
  attr {
    key: "_class"
    value {
      list {
        s: "loc:@vgg_19/conv4/conv4_4/weights"
      }
    }
  }
}
node {
  name: "vgg_19/conv4/conv4_4/weights/Initializer/random_uniform/mul"
  op: "Mul"
  input: "vgg_19/conv4/conv4_4/weights/Initializer/random_uniform/RandomUniform"
  input: "vgg_19/conv4/conv4_4/weights/Initializer/random_uniform/sub"
  attr {
    key: "T"
    value {
      type: DT_FLOAT
    }
  }
  attr {
    key: "_class"
    value {
      list {
        s: "loc:@vgg_19/conv4/conv4_4/weights"
      }
    }
  }
}
node {
  name: "vgg_19/conv4/conv4_4/weights/Initializer/random_uniform"
  op: "Add"
  input: "vgg_19/conv4/conv4_4/weights/Initializer/random_uniform/mul"
  input: "vgg_19/conv4/conv4_4/weights/Initializer/random_uniform/min"
  attr {
    key: "T"
    value {
      type: DT_FLOAT
    }
  }
  attr {
    key: "_class"
    value {
      list {
        s: "loc:@vgg_19/conv4/conv4_4/weights"
      }
    }
  }
}
node {
  name: "vgg_19/conv4/conv4_4/weights"
  op: "VariableV2"
  attr {
    key: "_class"
    value {
      list {
        s: "loc:@vgg_19/conv4/conv4_4/weights"
      }
    }
  }
  attr {
    key: "container"
    value {
      s: ""
    }
  }
  attr {
    key: "dtype"
    value {
      type: DT_FLOAT
    }
  }
  attr {
    key: "shape"
    value {
      shape {
        dim {
          size: 3
        }
        dim {
          size: 3
        }
        dim {
          size: 512
        }
        dim {
          size: 512
        }
      }
    }
  }
  attr {
    key: "shared_name"
    value {
      s: ""
    }
  }
}
node {
  name: "vgg_19/conv4/conv4_4/weights/Assign"
  op: "Assign"
  input: "vgg_19/conv4/conv4_4/weights"
  input: "vgg_19/conv4/conv4_4/weights/Initializer/random_uniform"
  attr {
    key: "T"
    value {
      type: DT_FLOAT
    }
  }
  attr {
    key: "_class"
    value {
      list {
        s: "loc:@vgg_19/conv4/conv4_4/weights"
      }
    }
  }
  attr {
    key: "use_locking"
    value {
      b: true
    }
  }
  attr {
    key: "validate_shape"
    value {
      b: true
    }
  }
}
node {
  name: "vgg_19/conv4/conv4_4/weights/read"
  op: "Identity"
  input: "vgg_19/conv4/conv4_4/weights"
  attr {
    key: "T"
    value {
      type: DT_FLOAT
    }
  }
  attr {
    key: "_class"
    value {
      list {
        s: "loc:@vgg_19/conv4/conv4_4/weights"
      }
    }
  }
}
node {
  name: "vgg_19/conv4/conv4_4/biases/Initializer/zeros"
  op: "Const"
  attr {
    key: "_class"
    value {
      list {
        s: "loc:@vgg_19/conv4/conv4_4/biases"
      }
    }
  }
  attr {
    key: "dtype"
    value {
      type: DT_FLOAT
    }
  }
  attr {
    key: "value"
    value {
      tensor {
        dtype: DT_FLOAT
        tensor_shape {
          dim {
            size: 512
          }
        }
        float_val: 0.0
      }
    }
  }
}
node {
  name: "vgg_19/conv4/conv4_4/biases"
  op: "VariableV2"
  attr {
    key: "_class"
    value {
      list {
        s: "loc:@vgg_19/conv4/conv4_4/biases"
      }
    }
  }
  attr {
    key: "container"
    value {
      s: ""
    }
  }
  attr {
    key: "dtype"
    value {
      type: DT_FLOAT
    }
  }
  attr {
    key: "shape"
    value {
      shape {
        dim {
          size: 512
        }
      }
    }
  }
  attr {
    key: "shared_name"
    value {
      s: ""
    }
  }
}
node {
  name: "vgg_19/conv4/conv4_4/biases/Assign"
  op: "Assign"
  input: "vgg_19/conv4/conv4_4/biases"
  input: "vgg_19/conv4/conv4_4/biases/Initializer/zeros"
  attr {
    key: "T"
    value {
      type: DT_FLOAT
    }
  }
  attr {
    key: "_class"
    value {
      list {
        s: "loc:@vgg_19/conv4/conv4_4/biases"
      }
    }
  }
  attr {
    key: "use_locking"
    value {
      b: true
    }
  }
  attr {
    key: "validate_shape"
    value {
      b: true
    }
  }
}
node {
  name: "vgg_19/conv4/conv4_4/biases/read"
  op: "Identity"
  input: "vgg_19/conv4/conv4_4/biases"
  attr {
    key: "T"
    value {
      type: DT_FLOAT
    }
  }
  attr {
    key: "_class"
    value {
      list {
        s: "loc:@vgg_19/conv4/conv4_4/biases"
      }
    }
  }
}
node {
  name: "vgg_19/conv4/conv4_4/dilation_rate"
  op: "Const"
  attr {
    key: "dtype"
    value {
      type: DT_INT32
    }
  }
  attr {
    key: "value"
    value {
      tensor {
        dtype: DT_INT32
        tensor_shape {
          dim {
            size: 2
          }
        }
        tensor_content: "\001\000\000\000\001\000\000\000"
      }
    }
  }
}
node {
  name: "vgg_19/conv4/conv4_4/Conv2D"
  op: "Conv2D"
  input: "vgg_19/conv4/conv4_3/Relu"
  input: "vgg_19/conv4/conv4_4/weights/read"
  attr {
    key: "T"
    value {
      type: DT_FLOAT
    }
  }
  attr {
    key: "data_format"
    value {
      s: "NHWC"
    }
  }
  attr {
    key: "dilations"
    value {
      list {
        i: 1
        i: 1
        i: 1
        i: 1
      }
    }
  }
  attr {
    key: "padding"
    value {
      s: "SAME"
    }
  }
  attr {
    key: "strides"
    value {
      list {
        i: 1
        i: 1
        i: 1
        i: 1
      }
    }
  }
  attr {
    key: "use_cudnn_on_gpu"
    value {
      b: true
    }
  }
}
node {
  name: "vgg_19/conv4/conv4_4/BiasAdd"
  op: "BiasAdd"
  input: "vgg_19/conv4/conv4_4/Conv2D"
  input: "vgg_19/conv4/conv4_4/biases/read"
  attr {
    key: "T"
    value {
      type: DT_FLOAT
    }
  }
  attr {
    key: "data_format"
    value {
      s: "NHWC"
    }
  }
}
node {
  name: "vgg_19/conv4/conv4_4/Relu"
  op: "Relu"
  input: "vgg_19/conv4/conv4_4/BiasAdd"
  attr {
    key: "T"
    value {
      type: DT_FLOAT
    }
  }
}
node {
  name: "vgg_19/pool4/MaxPool"
  op: "MaxPool"
  input: "vgg_19/conv4/conv4_4/Relu"
  attr {
    key: "T"
    value {
      type: DT_FLOAT
    }
  }
  attr {
    key: "data_format"
    value {
      s: "NHWC"
    }
  }
  attr {
    key: "ksize"
    value {
      list {
        i: 1
        i: 2
        i: 2
        i: 1
      }
    }
  }
  attr {
    key: "padding"
    value {
      s: "VALID"
    }
  }
  attr {
    key: "strides"
    value {
      list {
        i: 1
        i: 2
        i: 2
        i: 1
      }
    }
  }
}
node {
  name: "vgg_19/conv5/conv5_1/weights/Initializer/random_uniform/shape"
  op: "Const"
  attr {
    key: "_class"
    value {
      list {
        s: "loc:@vgg_19/conv5/conv5_1/weights"
      }
    }
  }
  attr {
    key: "dtype"
    value {
      type: DT_INT32
    }
  }
  attr {
    key: "value"
    value {
      tensor {
        dtype: DT_INT32
        tensor_shape {
          dim {
            size: 4
          }
        }
        tensor_content: "\003\000\000\000\003\000\000\000\000\002\000\000\000\002\000\000"
      }
    }
  }
}
node {
  name: "vgg_19/conv5/conv5_1/weights/Initializer/random_uniform/min"
  op: "Const"
  attr {
    key: "_class"
    value {
      list {
        s: "loc:@vgg_19/conv5/conv5_1/weights"
      }
    }
  }
  attr {
    key: "dtype"
    value {
      type: DT_FLOAT
    }
  }
  attr {
    key: "value"
    value {
      tensor {
        dtype: DT_FLOAT
        tensor_shape {
        }
        float_val: -0.025515519082546234
      }
    }
  }
}
node {
  name: "vgg_19/conv5/conv5_1/weights/Initializer/random_uniform/max"
  op: "Const"
  attr {
    key: "_class"
    value {
      list {
        s: "loc:@vgg_19/conv5/conv5_1/weights"
      }
    }
  }
  attr {
    key: "dtype"
    value {
      type: DT_FLOAT
    }
  }
  attr {
    key: "value"
    value {
      tensor {
        dtype: DT_FLOAT
        tensor_shape {
        }
        float_val: 0.025515519082546234
      }
    }
  }
}
node {
  name: "vgg_19/conv5/conv5_1/weights/Initializer/random_uniform/RandomUniform"
  op: "RandomUniform"
  input: "vgg_19/conv5/conv5_1/weights/Initializer/random_uniform/shape"
  attr {
    key: "T"
    value {
      type: DT_INT32
    }
  }
  attr {
    key: "_class"
    value {
      list {
        s: "loc:@vgg_19/conv5/conv5_1/weights"
      }
    }
  }
  attr {
    key: "dtype"
    value {
      type: DT_FLOAT
    }
  }
  attr {
    key: "seed"
    value {
      i: 0
    }
  }
  attr {
    key: "seed2"
    value {
      i: 0
    }
  }
}
node {
  name: "vgg_19/conv5/conv5_1/weights/Initializer/random_uniform/sub"
  op: "Sub"
  input: "vgg_19/conv5/conv5_1/weights/Initializer/random_uniform/max"
  input: "vgg_19/conv5/conv5_1/weights/Initializer/random_uniform/min"
  attr {
    key: "T"
    value {
      type: DT_FLOAT
    }
  }
  attr {
    key: "_class"
    value {
      list {
        s: "loc:@vgg_19/conv5/conv5_1/weights"
      }
    }
  }
}
node {
  name: "vgg_19/conv5/conv5_1/weights/Initializer/random_uniform/mul"
  op: "Mul"
  input: "vgg_19/conv5/conv5_1/weights/Initializer/random_uniform/RandomUniform"
  input: "vgg_19/conv5/conv5_1/weights/Initializer/random_uniform/sub"
  attr {
    key: "T"
    value {
      type: DT_FLOAT
    }
  }
  attr {
    key: "_class"
    value {
      list {
        s: "loc:@vgg_19/conv5/conv5_1/weights"
      }
    }
  }
}
node {
  name: "vgg_19/conv5/conv5_1/weights/Initializer/random_uniform"
  op: "Add"
  input: "vgg_19/conv5/conv5_1/weights/Initializer/random_uniform/mul"
  input: "vgg_19/conv5/conv5_1/weights/Initializer/random_uniform/min"
  attr {
    key: "T"
    value {
      type: DT_FLOAT
    }
  }
  attr {
    key: "_class"
    value {
      list {
        s: "loc:@vgg_19/conv5/conv5_1/weights"
      }
    }
  }
}
node {
  name: "vgg_19/conv5/conv5_1/weights"
  op: "VariableV2"
  attr {
    key: "_class"
    value {
      list {
        s: "loc:@vgg_19/conv5/conv5_1/weights"
      }
    }
  }
  attr {
    key: "container"
    value {
      s: ""
    }
  }
  attr {
    key: "dtype"
    value {
      type: DT_FLOAT
    }
  }
  attr {
    key: "shape"
    value {
      shape {
        dim {
          size: 3
        }
        dim {
          size: 3
        }
        dim {
          size: 512
        }
        dim {
          size: 512
        }
      }
    }
  }
  attr {
    key: "shared_name"
    value {
      s: ""
    }
  }
}
node {
  name: "vgg_19/conv5/conv5_1/weights/Assign"
  op: "Assign"
  input: "vgg_19/conv5/conv5_1/weights"
  input: "vgg_19/conv5/conv5_1/weights/Initializer/random_uniform"
  attr {
    key: "T"
    value {
      type: DT_FLOAT
    }
  }
  attr {
    key: "_class"
    value {
      list {
        s: "loc:@vgg_19/conv5/conv5_1/weights"
      }
    }
  }
  attr {
    key: "use_locking"
    value {
      b: true
    }
  }
  attr {
    key: "validate_shape"
    value {
      b: true
    }
  }
}
node {
  name: "vgg_19/conv5/conv5_1/weights/read"
  op: "Identity"
  input: "vgg_19/conv5/conv5_1/weights"
  attr {
    key: "T"
    value {
      type: DT_FLOAT
    }
  }
  attr {
    key: "_class"
    value {
      list {
        s: "loc:@vgg_19/conv5/conv5_1/weights"
      }
    }
  }
}
node {
  name: "vgg_19/conv5/conv5_1/biases/Initializer/zeros"
  op: "Const"
  attr {
    key: "_class"
    value {
      list {
        s: "loc:@vgg_19/conv5/conv5_1/biases"
      }
    }
  }
  attr {
    key: "dtype"
    value {
      type: DT_FLOAT
    }
  }
  attr {
    key: "value"
    value {
      tensor {
        dtype: DT_FLOAT
        tensor_shape {
          dim {
            size: 512
          }
        }
        float_val: 0.0
      }
    }
  }
}
node {
  name: "vgg_19/conv5/conv5_1/biases"
  op: "VariableV2"
  attr {
    key: "_class"
    value {
      list {
        s: "loc:@vgg_19/conv5/conv5_1/biases"
      }
    }
  }
  attr {
    key: "container"
    value {
      s: ""
    }
  }
  attr {
    key: "dtype"
    value {
      type: DT_FLOAT
    }
  }
  attr {
    key: "shape"
    value {
      shape {
        dim {
          size: 512
        }
      }
    }
  }
  attr {
    key: "shared_name"
    value {
      s: ""
    }
  }
}
node {
  name: "vgg_19/conv5/conv5_1/biases/Assign"
  op: "Assign"
  input: "vgg_19/conv5/conv5_1/biases"
  input: "vgg_19/conv5/conv5_1/biases/Initializer/zeros"
  attr {
    key: "T"
    value {
      type: DT_FLOAT
    }
  }
  attr {
    key: "_class"
    value {
      list {
        s: "loc:@vgg_19/conv5/conv5_1/biases"
      }
    }
  }
  attr {
    key: "use_locking"
    value {
      b: true
    }
  }
  attr {
    key: "validate_shape"
    value {
      b: true
    }
  }
}
node {
  name: "vgg_19/conv5/conv5_1/biases/read"
  op: "Identity"
  input: "vgg_19/conv5/conv5_1/biases"
  attr {
    key: "T"
    value {
      type: DT_FLOAT
    }
  }
  attr {
    key: "_class"
    value {
      list {
        s: "loc:@vgg_19/conv5/conv5_1/biases"
      }
    }
  }
}
node {
  name: "vgg_19/conv5/conv5_1/dilation_rate"
  op: "Const"
  attr {
    key: "dtype"
    value {
      type: DT_INT32
    }
  }
  attr {
    key: "value"
    value {
      tensor {
        dtype: DT_INT32
        tensor_shape {
          dim {
            size: 2
          }
        }
        tensor_content: "\001\000\000\000\001\000\000\000"
      }
    }
  }
}
node {
  name: "vgg_19/conv5/conv5_1/Conv2D"
  op: "Conv2D"
  input: "vgg_19/pool4/MaxPool"
  input: "vgg_19/conv5/conv5_1/weights/read"
  attr {
    key: "T"
    value {
      type: DT_FLOAT
    }
  }
  attr {
    key: "data_format"
    value {
      s: "NHWC"
    }
  }
  attr {
    key: "dilations"
    value {
      list {
        i: 1
        i: 1
        i: 1
        i: 1
      }
    }
  }
  attr {
    key: "padding"
    value {
      s: "SAME"
    }
  }
  attr {
    key: "strides"
    value {
      list {
        i: 1
        i: 1
        i: 1
        i: 1
      }
    }
  }
  attr {
    key: "use_cudnn_on_gpu"
    value {
      b: true
    }
  }
}
node {
  name: "vgg_19/conv5/conv5_1/BiasAdd"
  op: "BiasAdd"
  input: "vgg_19/conv5/conv5_1/Conv2D"
  input: "vgg_19/conv5/conv5_1/biases/read"
  attr {
    key: "T"
    value {
      type: DT_FLOAT
    }
  }
  attr {
    key: "data_format"
    value {
      s: "NHWC"
    }
  }
}
node {
  name: "vgg_19/conv5/conv5_1/Relu"
  op: "Relu"
  input: "vgg_19/conv5/conv5_1/BiasAdd"
  attr {
    key: "T"
    value {
      type: DT_FLOAT
    }
  }
}
node {
  name: "vgg_19/conv5/conv5_2/weights/Initializer/random_uniform/shape"
  op: "Const"
  attr {
    key: "_class"
    value {
      list {
        s: "loc:@vgg_19/conv5/conv5_2/weights"
      }
    }
  }
  attr {
    key: "dtype"
    value {
      type: DT_INT32
    }
  }
  attr {
    key: "value"
    value {
      tensor {
        dtype: DT_INT32
        tensor_shape {
          dim {
            size: 4
          }
        }
        tensor_content: "\003\000\000\000\003\000\000\000\000\002\000\000\000\002\000\000"
      }
    }
  }
}
node {
  name: "vgg_19/conv5/conv5_2/weights/Initializer/random_uniform/min"
  op: "Const"
  attr {
    key: "_class"
    value {
      list {
        s: "loc:@vgg_19/conv5/conv5_2/weights"
      }
    }
  }
  attr {
    key: "dtype"
    value {
      type: DT_FLOAT
    }
  }
  attr {
    key: "value"
    value {
      tensor {
        dtype: DT_FLOAT
        tensor_shape {
        }
        float_val: -0.025515519082546234
      }
    }
  }
}
node {
  name: "vgg_19/conv5/conv5_2/weights/Initializer/random_uniform/max"
  op: "Const"
  attr {
    key: "_class"
    value {
      list {
        s: "loc:@vgg_19/conv5/conv5_2/weights"
      }
    }
  }
  attr {
    key: "dtype"
    value {
      type: DT_FLOAT
    }
  }
  attr {
    key: "value"
    value {
      tensor {
        dtype: DT_FLOAT
        tensor_shape {
        }
        float_val: 0.025515519082546234
      }
    }
  }
}
node {
  name: "vgg_19/conv5/conv5_2/weights/Initializer/random_uniform/RandomUniform"
  op: "RandomUniform"
  input: "vgg_19/conv5/conv5_2/weights/Initializer/random_uniform/shape"
  attr {
    key: "T"
    value {
      type: DT_INT32
    }
  }
  attr {
    key: "_class"
    value {
      list {
        s: "loc:@vgg_19/conv5/conv5_2/weights"
      }
    }
  }
  attr {
    key: "dtype"
    value {
      type: DT_FLOAT
    }
  }
  attr {
    key: "seed"
    value {
      i: 0
    }
  }
  attr {
    key: "seed2"
    value {
      i: 0
    }
  }
}
node {
  name: "vgg_19/conv5/conv5_2/weights/Initializer/random_uniform/sub"
  op: "Sub"
  input: "vgg_19/conv5/conv5_2/weights/Initializer/random_uniform/max"
  input: "vgg_19/conv5/conv5_2/weights/Initializer/random_uniform/min"
  attr {
    key: "T"
    value {
      type: DT_FLOAT
    }
  }
  attr {
    key: "_class"
    value {
      list {
        s: "loc:@vgg_19/conv5/conv5_2/weights"
      }
    }
  }
}
node {
  name: "vgg_19/conv5/conv5_2/weights/Initializer/random_uniform/mul"
  op: "Mul"
  input: "vgg_19/conv5/conv5_2/weights/Initializer/random_uniform/RandomUniform"
  input: "vgg_19/conv5/conv5_2/weights/Initializer/random_uniform/sub"
  attr {
    key: "T"
    value {
      type: DT_FLOAT
    }
  }
  attr {
    key: "_class"
    value {
      list {
        s: "loc:@vgg_19/conv5/conv5_2/weights"
      }
    }
  }
}
node {
  name: "vgg_19/conv5/conv5_2/weights/Initializer/random_uniform"
  op: "Add"
  input: "vgg_19/conv5/conv5_2/weights/Initializer/random_uniform/mul"
  input: "vgg_19/conv5/conv5_2/weights/Initializer/random_uniform/min"
  attr {
    key: "T"
    value {
      type: DT_FLOAT
    }
  }
  attr {
    key: "_class"
    value {
      list {
        s: "loc:@vgg_19/conv5/conv5_2/weights"
      }
    }
  }
}
node {
  name: "vgg_19/conv5/conv5_2/weights"
  op: "VariableV2"
  attr {
    key: "_class"
    value {
      list {
        s: "loc:@vgg_19/conv5/conv5_2/weights"
      }
    }
  }
  attr {
    key: "container"
    value {
      s: ""
    }
  }
  attr {
    key: "dtype"
    value {
      type: DT_FLOAT
    }
  }
  attr {
    key: "shape"
    value {
      shape {
        dim {
          size: 3
        }
        dim {
          size: 3
        }
        dim {
          size: 512
        }
        dim {
          size: 512
        }
      }
    }
  }
  attr {
    key: "shared_name"
    value {
      s: ""
    }
  }
}
node {
  name: "vgg_19/conv5/conv5_2/weights/Assign"
  op: "Assign"
  input: "vgg_19/conv5/conv5_2/weights"
  input: "vgg_19/conv5/conv5_2/weights/Initializer/random_uniform"
  attr {
    key: "T"
    value {
      type: DT_FLOAT
    }
  }
  attr {
    key: "_class"
    value {
      list {
        s: "loc:@vgg_19/conv5/conv5_2/weights"
      }
    }
  }
  attr {
    key: "use_locking"
    value {
      b: true
    }
  }
  attr {
    key: "validate_shape"
    value {
      b: true
    }
  }
}
node {
  name: "vgg_19/conv5/conv5_2/weights/read"
  op: "Identity"
  input: "vgg_19/conv5/conv5_2/weights"
  attr {
    key: "T"
    value {
      type: DT_FLOAT
    }
  }
  attr {
    key: "_class"
    value {
      list {
        s: "loc:@vgg_19/conv5/conv5_2/weights"
      }
    }
  }
}
node {
  name: "vgg_19/conv5/conv5_2/biases/Initializer/zeros"
  op: "Const"
  attr {
    key: "_class"
    value {
      list {
        s: "loc:@vgg_19/conv5/conv5_2/biases"
      }
    }
  }
  attr {
    key: "dtype"
    value {
      type: DT_FLOAT
    }
  }
  attr {
    key: "value"
    value {
      tensor {
        dtype: DT_FLOAT
        tensor_shape {
          dim {
            size: 512
          }
        }
        float_val: 0.0
      }
    }
  }
}
node {
  name: "vgg_19/conv5/conv5_2/biases"
  op: "VariableV2"
  attr {
    key: "_class"
    value {
      list {
        s: "loc:@vgg_19/conv5/conv5_2/biases"
      }
    }
  }
  attr {
    key: "container"
    value {
      s: ""
    }
  }
  attr {
    key: "dtype"
    value {
      type: DT_FLOAT
    }
  }
  attr {
    key: "shape"
    value {
      shape {
        dim {
          size: 512
        }
      }
    }
  }
  attr {
    key: "shared_name"
    value {
      s: ""
    }
  }
}
node {
  name: "vgg_19/conv5/conv5_2/biases/Assign"
  op: "Assign"
  input: "vgg_19/conv5/conv5_2/biases"
  input: "vgg_19/conv5/conv5_2/biases/Initializer/zeros"
  attr {
    key: "T"
    value {
      type: DT_FLOAT
    }
  }
  attr {
    key: "_class"
    value {
      list {
        s: "loc:@vgg_19/conv5/conv5_2/biases"
      }
    }
  }
  attr {
    key: "use_locking"
    value {
      b: true
    }
  }
  attr {
    key: "validate_shape"
    value {
      b: true
    }
  }
}
node {
  name: "vgg_19/conv5/conv5_2/biases/read"
  op: "Identity"
  input: "vgg_19/conv5/conv5_2/biases"
  attr {
    key: "T"
    value {
      type: DT_FLOAT
    }
  }
  attr {
    key: "_class"
    value {
      list {
        s: "loc:@vgg_19/conv5/conv5_2/biases"
      }
    }
  }
}
node {
  name: "vgg_19/conv5/conv5_2/dilation_rate"
  op: "Const"
  attr {
    key: "dtype"
    value {
      type: DT_INT32
    }
  }
  attr {
    key: "value"
    value {
      tensor {
        dtype: DT_INT32
        tensor_shape {
          dim {
            size: 2
          }
        }
        tensor_content: "\001\000\000\000\001\000\000\000"
      }
    }
  }
}
node {
  name: "vgg_19/conv5/conv5_2/Conv2D"
  op: "Conv2D"
  input: "vgg_19/conv5/conv5_1/Relu"
  input: "vgg_19/conv5/conv5_2/weights/read"
  attr {
    key: "T"
    value {
      type: DT_FLOAT
    }
  }
  attr {
    key: "data_format"
    value {
      s: "NHWC"
    }
  }
  attr {
    key: "dilations"
    value {
      list {
        i: 1
        i: 1
        i: 1
        i: 1
      }
    }
  }
  attr {
    key: "padding"
    value {
      s: "SAME"
    }
  }
  attr {
    key: "strides"
    value {
      list {
        i: 1
        i: 1
        i: 1
        i: 1
      }
    }
  }
  attr {
    key: "use_cudnn_on_gpu"
    value {
      b: true
    }
  }
}
node {
  name: "vgg_19/conv5/conv5_2/BiasAdd"
  op: "BiasAdd"
  input: "vgg_19/conv5/conv5_2/Conv2D"
  input: "vgg_19/conv5/conv5_2/biases/read"
  attr {
    key: "T"
    value {
      type: DT_FLOAT
    }
  }
  attr {
    key: "data_format"
    value {
      s: "NHWC"
    }
  }
}
node {
  name: "vgg_19/conv5/conv5_2/Relu"
  op: "Relu"
  input: "vgg_19/conv5/conv5_2/BiasAdd"
  attr {
    key: "T"
    value {
      type: DT_FLOAT
    }
  }
}
node {
  name: "vgg_19/conv5/conv5_3/weights/Initializer/random_uniform/shape"
  op: "Const"
  attr {
    key: "_class"
    value {
      list {
        s: "loc:@vgg_19/conv5/conv5_3/weights"
      }
    }
  }
  attr {
    key: "dtype"
    value {
      type: DT_INT32
    }
  }
  attr {
    key: "value"
    value {
      tensor {
        dtype: DT_INT32
        tensor_shape {
          dim {
            size: 4
          }
        }
        tensor_content: "\003\000\000\000\003\000\000\000\000\002\000\000\000\002\000\000"
      }
    }
  }
}
node {
  name: "vgg_19/conv5/conv5_3/weights/Initializer/random_uniform/min"
  op: "Const"
  attr {
    key: "_class"
    value {
      list {
        s: "loc:@vgg_19/conv5/conv5_3/weights"
      }
    }
  }
  attr {
    key: "dtype"
    value {
      type: DT_FLOAT
    }
  }
  attr {
    key: "value"
    value {
      tensor {
        dtype: DT_FLOAT
        tensor_shape {
        }
        float_val: -0.025515519082546234
      }
    }
  }
}
node {
  name: "vgg_19/conv5/conv5_3/weights/Initializer/random_uniform/max"
  op: "Const"
  attr {
    key: "_class"
    value {
      list {
        s: "loc:@vgg_19/conv5/conv5_3/weights"
      }
    }
  }
  attr {
    key: "dtype"
    value {
      type: DT_FLOAT
    }
  }
  attr {
    key: "value"
    value {
      tensor {
        dtype: DT_FLOAT
        tensor_shape {
        }
        float_val: 0.025515519082546234
      }
    }
  }
}
node {
  name: "vgg_19/conv5/conv5_3/weights/Initializer/random_uniform/RandomUniform"
  op: "RandomUniform"
  input: "vgg_19/conv5/conv5_3/weights/Initializer/random_uniform/shape"
  attr {
    key: "T"
    value {
      type: DT_INT32
    }
  }
  attr {
    key: "_class"
    value {
      list {
        s: "loc:@vgg_19/conv5/conv5_3/weights"
      }
    }
  }
  attr {
    key: "dtype"
    value {
      type: DT_FLOAT
    }
  }
  attr {
    key: "seed"
    value {
      i: 0
    }
  }
  attr {
    key: "seed2"
    value {
      i: 0
    }
  }
}
node {
  name: "vgg_19/conv5/conv5_3/weights/Initializer/random_uniform/sub"
  op: "Sub"
  input: "vgg_19/conv5/conv5_3/weights/Initializer/random_uniform/max"
  input: "vgg_19/conv5/conv5_3/weights/Initializer/random_uniform/min"
  attr {
    key: "T"
    value {
      type: DT_FLOAT
    }
  }
  attr {
    key: "_class"
    value {
      list {
        s: "loc:@vgg_19/conv5/conv5_3/weights"
      }
    }
  }
}
node {
  name: "vgg_19/conv5/conv5_3/weights/Initializer/random_uniform/mul"
  op: "Mul"
  input: "vgg_19/conv5/conv5_3/weights/Initializer/random_uniform/RandomUniform"
  input: "vgg_19/conv5/conv5_3/weights/Initializer/random_uniform/sub"
  attr {
    key: "T"
    value {
      type: DT_FLOAT
    }
  }
  attr {
    key: "_class"
    value {
      list {
        s: "loc:@vgg_19/conv5/conv5_3/weights"
      }
    }
  }
}
node {
  name: "vgg_19/conv5/conv5_3/weights/Initializer/random_uniform"
  op: "Add"
  input: "vgg_19/conv5/conv5_3/weights/Initializer/random_uniform/mul"
  input: "vgg_19/conv5/conv5_3/weights/Initializer/random_uniform/min"
  attr {
    key: "T"
    value {
      type: DT_FLOAT
    }
  }
  attr {
    key: "_class"
    value {
      list {
        s: "loc:@vgg_19/conv5/conv5_3/weights"
      }
    }
  }
}
node {
  name: "vgg_19/conv5/conv5_3/weights"
  op: "VariableV2"
  attr {
    key: "_class"
    value {
      list {
        s: "loc:@vgg_19/conv5/conv5_3/weights"
      }
    }
  }
  attr {
    key: "container"
    value {
      s: ""
    }
  }
  attr {
    key: "dtype"
    value {
      type: DT_FLOAT
    }
  }
  attr {
    key: "shape"
    value {
      shape {
        dim {
          size: 3
        }
        dim {
          size: 3
        }
        dim {
          size: 512
        }
        dim {
          size: 512
        }
      }
    }
  }
  attr {
    key: "shared_name"
    value {
      s: ""
    }
  }
}
node {
  name: "vgg_19/conv5/conv5_3/weights/Assign"
  op: "Assign"
  input: "vgg_19/conv5/conv5_3/weights"
  input: "vgg_19/conv5/conv5_3/weights/Initializer/random_uniform"
  attr {
    key: "T"
    value {
      type: DT_FLOAT
    }
  }
  attr {
    key: "_class"
    value {
      list {
        s: "loc:@vgg_19/conv5/conv5_3/weights"
      }
    }
  }
  attr {
    key: "use_locking"
    value {
      b: true
    }
  }
  attr {
    key: "validate_shape"
    value {
      b: true
    }
  }
}
node {
  name: "vgg_19/conv5/conv5_3/weights/read"
  op: "Identity"
  input: "vgg_19/conv5/conv5_3/weights"
  attr {
    key: "T"
    value {
      type: DT_FLOAT
    }
  }
  attr {
    key: "_class"
    value {
      list {
        s: "loc:@vgg_19/conv5/conv5_3/weights"
      }
    }
  }
}
node {
  name: "vgg_19/conv5/conv5_3/biases/Initializer/zeros"
  op: "Const"
  attr {
    key: "_class"
    value {
      list {
        s: "loc:@vgg_19/conv5/conv5_3/biases"
      }
    }
  }
  attr {
    key: "dtype"
    value {
      type: DT_FLOAT
    }
  }
  attr {
    key: "value"
    value {
      tensor {
        dtype: DT_FLOAT
        tensor_shape {
          dim {
            size: 512
          }
        }
        float_val: 0.0
      }
    }
  }
}
node {
  name: "vgg_19/conv5/conv5_3/biases"
  op: "VariableV2"
  attr {
    key: "_class"
    value {
      list {
        s: "loc:@vgg_19/conv5/conv5_3/biases"
      }
    }
  }
  attr {
    key: "container"
    value {
      s: ""
    }
  }
  attr {
    key: "dtype"
    value {
      type: DT_FLOAT
    }
  }
  attr {
    key: "shape"
    value {
      shape {
        dim {
          size: 512
        }
      }
    }
  }
  attr {
    key: "shared_name"
    value {
      s: ""
    }
  }
}
node {
  name: "vgg_19/conv5/conv5_3/biases/Assign"
  op: "Assign"
  input: "vgg_19/conv5/conv5_3/biases"
  input: "vgg_19/conv5/conv5_3/biases/Initializer/zeros"
  attr {
    key: "T"
    value {
      type: DT_FLOAT
    }
  }
  attr {
    key: "_class"
    value {
      list {
        s: "loc:@vgg_19/conv5/conv5_3/biases"
      }
    }
  }
  attr {
    key: "use_locking"
    value {
      b: true
    }
  }
  attr {
    key: "validate_shape"
    value {
      b: true
    }
  }
}
node {
  name: "vgg_19/conv5/conv5_3/biases/read"
  op: "Identity"
  input: "vgg_19/conv5/conv5_3/biases"
  attr {
    key: "T"
    value {
      type: DT_FLOAT
    }
  }
  attr {
    key: "_class"
    value {
      list {
        s: "loc:@vgg_19/conv5/conv5_3/biases"
      }
    }
  }
}
node {
  name: "vgg_19/conv5/conv5_3/dilation_rate"
  op: "Const"
  attr {
    key: "dtype"
    value {
      type: DT_INT32
    }
  }
  attr {
    key: "value"
    value {
      tensor {
        dtype: DT_INT32
        tensor_shape {
          dim {
            size: 2
          }
        }
        tensor_content: "\001\000\000\000\001\000\000\000"
      }
    }
  }
}
node {
  name: "vgg_19/conv5/conv5_3/Conv2D"
  op: "Conv2D"
  input: "vgg_19/conv5/conv5_2/Relu"
  input: "vgg_19/conv5/conv5_3/weights/read"
  attr {
    key: "T"
    value {
      type: DT_FLOAT
    }
  }
  attr {
    key: "data_format"
    value {
      s: "NHWC"
    }
  }
  attr {
    key: "dilations"
    value {
      list {
        i: 1
        i: 1
        i: 1
        i: 1
      }
    }
  }
  attr {
    key: "padding"
    value {
      s: "SAME"
    }
  }
  attr {
    key: "strides"
    value {
      list {
        i: 1
        i: 1
        i: 1
        i: 1
      }
    }
  }
  attr {
    key: "use_cudnn_on_gpu"
    value {
      b: true
    }
  }
}
node {
  name: "vgg_19/conv5/conv5_3/BiasAdd"
  op: "BiasAdd"
  input: "vgg_19/conv5/conv5_3/Conv2D"
  input: "vgg_19/conv5/conv5_3/biases/read"
  attr {
    key: "T"
    value {
      type: DT_FLOAT
    }
  }
  attr {
    key: "data_format"
    value {
      s: "NHWC"
    }
  }
}
node {
  name: "vgg_19/conv5/conv5_3/Relu"
  op: "Relu"
  input: "vgg_19/conv5/conv5_3/BiasAdd"
  attr {
    key: "T"
    value {
      type: DT_FLOAT
    }
  }
}
node {
  name: "vgg_19/conv5/conv5_4/weights/Initializer/random_uniform/shape"
  op: "Const"
  attr {
    key: "_class"
    value {
      list {
        s: "loc:@vgg_19/conv5/conv5_4/weights"
      }
    }
  }
  attr {
    key: "dtype"
    value {
      type: DT_INT32
    }
  }
  attr {
    key: "value"
    value {
      tensor {
        dtype: DT_INT32
        tensor_shape {
          dim {
            size: 4
          }
        }
        tensor_content: "\003\000\000\000\003\000\000\000\000\002\000\000\000\002\000\000"
      }
    }
  }
}
node {
  name: "vgg_19/conv5/conv5_4/weights/Initializer/random_uniform/min"
  op: "Const"
  attr {
    key: "_class"
    value {
      list {
        s: "loc:@vgg_19/conv5/conv5_4/weights"
      }
    }
  }
  attr {
    key: "dtype"
    value {
      type: DT_FLOAT
    }
  }
  attr {
    key: "value"
    value {
      tensor {
        dtype: DT_FLOAT
        tensor_shape {
        }
        float_val: -0.025515519082546234
      }
    }
  }
}
node {
  name: "vgg_19/conv5/conv5_4/weights/Initializer/random_uniform/max"
  op: "Const"
  attr {
    key: "_class"
    value {
      list {
        s: "loc:@vgg_19/conv5/conv5_4/weights"
      }
    }
  }
  attr {
    key: "dtype"
    value {
      type: DT_FLOAT
    }
  }
  attr {
    key: "value"
    value {
      tensor {
        dtype: DT_FLOAT
        tensor_shape {
        }
        float_val: 0.025515519082546234
      }
    }
  }
}
node {
  name: "vgg_19/conv5/conv5_4/weights/Initializer/random_uniform/RandomUniform"
  op: "RandomUniform"
  input: "vgg_19/conv5/conv5_4/weights/Initializer/random_uniform/shape"
  attr {
    key: "T"
    value {
      type: DT_INT32
    }
  }
  attr {
    key: "_class"
    value {
      list {
        s: "loc:@vgg_19/conv5/conv5_4/weights"
      }
    }
  }
  attr {
    key: "dtype"
    value {
      type: DT_FLOAT
    }
  }
  attr {
    key: "seed"
    value {
      i: 0
    }
  }
  attr {
    key: "seed2"
    value {
      i: 0
    }
  }
}
node {
  name: "vgg_19/conv5/conv5_4/weights/Initializer/random_uniform/sub"
  op: "Sub"
  input: "vgg_19/conv5/conv5_4/weights/Initializer/random_uniform/max"
  input: "vgg_19/conv5/conv5_4/weights/Initializer/random_uniform/min"
  attr {
    key: "T"
    value {
      type: DT_FLOAT
    }
  }
  attr {
    key: "_class"
    value {
      list {
        s: "loc:@vgg_19/conv5/conv5_4/weights"
      }
    }
  }
}
node {
  name: "vgg_19/conv5/conv5_4/weights/Initializer/random_uniform/mul"
  op: "Mul"
  input: "vgg_19/conv5/conv5_4/weights/Initializer/random_uniform/RandomUniform"
  input: "vgg_19/conv5/conv5_4/weights/Initializer/random_uniform/sub"
  attr {
    key: "T"
    value {
      type: DT_FLOAT
    }
  }
  attr {
    key: "_class"
    value {
      list {
        s: "loc:@vgg_19/conv5/conv5_4/weights"
      }
    }
  }
}
node {
  name: "vgg_19/conv5/conv5_4/weights/Initializer/random_uniform"
  op: "Add"
  input: "vgg_19/conv5/conv5_4/weights/Initializer/random_uniform/mul"
  input: "vgg_19/conv5/conv5_4/weights/Initializer/random_uniform/min"
  attr {
    key: "T"
    value {
      type: DT_FLOAT
    }
  }
  attr {
    key: "_class"
    value {
      list {
        s: "loc:@vgg_19/conv5/conv5_4/weights"
      }
    }
  }
}
node {
  name: "vgg_19/conv5/conv5_4/weights"
  op: "VariableV2"
  attr {
    key: "_class"
    value {
      list {
        s: "loc:@vgg_19/conv5/conv5_4/weights"
      }
    }
  }
  attr {
    key: "container"
    value {
      s: ""
    }
  }
  attr {
    key: "dtype"
    value {
      type: DT_FLOAT
    }
  }
  attr {
    key: "shape"
    value {
      shape {
        dim {
          size: 3
        }
        dim {
          size: 3
        }
        dim {
          size: 512
        }
        dim {
          size: 512
        }
      }
    }
  }
  attr {
    key: "shared_name"
    value {
      s: ""
    }
  }
}
node {
  name: "vgg_19/conv5/conv5_4/weights/Assign"
  op: "Assign"
  input: "vgg_19/conv5/conv5_4/weights"
  input: "vgg_19/conv5/conv5_4/weights/Initializer/random_uniform"
  attr {
    key: "T"
    value {
      type: DT_FLOAT
    }
  }
  attr {
    key: "_class"
    value {
      list {
        s: "loc:@vgg_19/conv5/conv5_4/weights"
      }
    }
  }
  attr {
    key: "use_locking"
    value {
      b: true
    }
  }
  attr {
    key: "validate_shape"
    value {
      b: true
    }
  }
}
node {
  name: "vgg_19/conv5/conv5_4/weights/read"
  op: "Identity"
  input: "vgg_19/conv5/conv5_4/weights"
  attr {
    key: "T"
    value {
      type: DT_FLOAT
    }
  }
  attr {
    key: "_class"
    value {
      list {
        s: "loc:@vgg_19/conv5/conv5_4/weights"
      }
    }
  }
}
node {
  name: "vgg_19/conv5/conv5_4/biases/Initializer/zeros"
  op: "Const"
  attr {
    key: "_class"
    value {
      list {
        s: "loc:@vgg_19/conv5/conv5_4/biases"
      }
    }
  }
  attr {
    key: "dtype"
    value {
      type: DT_FLOAT
    }
  }
  attr {
    key: "value"
    value {
      tensor {
        dtype: DT_FLOAT
        tensor_shape {
          dim {
            size: 512
          }
        }
        float_val: 0.0
      }
    }
  }
}
node {
  name: "vgg_19/conv5/conv5_4/biases"
  op: "VariableV2"
  attr {
    key: "_class"
    value {
      list {
        s: "loc:@vgg_19/conv5/conv5_4/biases"
      }
    }
  }
  attr {
    key: "container"
    value {
      s: ""
    }
  }
  attr {
    key: "dtype"
    value {
      type: DT_FLOAT
    }
  }
  attr {
    key: "shape"
    value {
      shape {
        dim {
          size: 512
        }
      }
    }
  }
  attr {
    key: "shared_name"
    value {
      s: ""
    }
  }
}
node {
  name: "vgg_19/conv5/conv5_4/biases/Assign"
  op: "Assign"
  input: "vgg_19/conv5/conv5_4/biases"
  input: "vgg_19/conv5/conv5_4/biases/Initializer/zeros"
  attr {
    key: "T"
    value {
      type: DT_FLOAT
    }
  }
  attr {
    key: "_class"
    value {
      list {
        s: "loc:@vgg_19/conv5/conv5_4/biases"
      }
    }
  }
  attr {
    key: "use_locking"
    value {
      b: true
    }
  }
  attr {
    key: "validate_shape"
    value {
      b: true
    }
  }
}
node {
  name: "vgg_19/conv5/conv5_4/biases/read"
  op: "Identity"
  input: "vgg_19/conv5/conv5_4/biases"
  attr {
    key: "T"
    value {
      type: DT_FLOAT
    }
  }
  attr {
    key: "_class"
    value {
      list {
        s: "loc:@vgg_19/conv5/conv5_4/biases"
      }
    }
  }
}
node {
  name: "vgg_19/conv5/conv5_4/dilation_rate"
  op: "Const"
  attr {
    key: "dtype"
    value {
      type: DT_INT32
    }
  }
  attr {
    key: "value"
    value {
      tensor {
        dtype: DT_INT32
        tensor_shape {
          dim {
            size: 2
          }
        }
        tensor_content: "\001\000\000\000\001\000\000\000"
      }
    }
  }
}
node {
  name: "vgg_19/conv5/conv5_4/Conv2D"
  op: "Conv2D"
  input: "vgg_19/conv5/conv5_3/Relu"
  input: "vgg_19/conv5/conv5_4/weights/read"
  attr {
    key: "T"
    value {
      type: DT_FLOAT
    }
  }
  attr {
    key: "data_format"
    value {
      s: "NHWC"
    }
  }
  attr {
    key: "dilations"
    value {
      list {
        i: 1
        i: 1
        i: 1
        i: 1
      }
    }
  }
  attr {
    key: "padding"
    value {
      s: "SAME"
    }
  }
  attr {
    key: "strides"
    value {
      list {
        i: 1
        i: 1
        i: 1
        i: 1
      }
    }
  }
  attr {
    key: "use_cudnn_on_gpu"
    value {
      b: true
    }
  }
}
node {
  name: "vgg_19/conv5/conv5_4/BiasAdd"
  op: "BiasAdd"
  input: "vgg_19/conv5/conv5_4/Conv2D"
  input: "vgg_19/conv5/conv5_4/biases/read"
  attr {
    key: "T"
    value {
      type: DT_FLOAT
    }
  }
  attr {
    key: "data_format"
    value {
      s: "NHWC"
    }
  }
}
node {
  name: "vgg_19/conv5/conv5_4/Relu"
  op: "Relu"
  input: "vgg_19/conv5/conv5_4/BiasAdd"
  attr {
    key: "T"
    value {
      type: DT_FLOAT
    }
  }
}
node {
  name: "vgg_19/pool5/MaxPool"
  op: "MaxPool"
  input: "vgg_19/conv5/conv5_4/Relu"
  attr {
    key: "T"
    value {
      type: DT_FLOAT
    }
  }
  attr {
    key: "data_format"
    value {
      s: "NHWC"
    }
  }
  attr {
    key: "ksize"
    value {
      list {
        i: 1
        i: 2
        i: 2
        i: 1
      }
    }
  }
  attr {
    key: "padding"
    value {
      s: "VALID"
    }
  }
  attr {
    key: "strides"
    value {
      list {
        i: 1
        i: 2
        i: 2
        i: 1
      }
    }
  }
}
node {
  name: "vgg_19/fc6/weights/Initializer/random_uniform/shape"
  op: "Const"
  attr {
    key: "_class"
    value {
      list {
        s: "loc:@vgg_19/fc6/weights"
      }
    }
  }
  attr {
    key: "dtype"
    value {
      type: DT_INT32
    }
  }
  attr {
    key: "value"
    value {
      tensor {
        dtype: DT_INT32
        tensor_shape {
          dim {
            size: 4
          }
        }
        tensor_content: "\007\000\000\000\007\000\000\000\000\002\000\000\000\020\000\000"
      }
    }
  }
}
node {
  name: "vgg_19/fc6/weights/Initializer/random_uniform/min"
  op: "Const"
  attr {
    key: "_class"
    value {
      list {
        s: "loc:@vgg_19/fc6/weights"
      }
    }
  }
  attr {
    key: "dtype"
    value {
      type: DT_FLOAT
    }
  }
  attr {
    key: "value"
    value {
      tensor {
        dtype: DT_FLOAT
        tensor_shape {
        }
        float_val: -0.005154913291335106
      }
    }
  }
}
node {
  name: "vgg_19/fc6/weights/Initializer/random_uniform/max"
  op: "Const"
  attr {
    key: "_class"
    value {
      list {
        s: "loc:@vgg_19/fc6/weights"
      }
    }
  }
  attr {
    key: "dtype"
    value {
      type: DT_FLOAT
    }
  }
  attr {
    key: "value"
    value {
      tensor {
        dtype: DT_FLOAT
        tensor_shape {
        }
        float_val: 0.005154913291335106
      }
    }
  }
}
node {
  name: "vgg_19/fc6/weights/Initializer/random_uniform/RandomUniform"
  op: "RandomUniform"
  input: "vgg_19/fc6/weights/Initializer/random_uniform/shape"
  attr {
    key: "T"
    value {
      type: DT_INT32
    }
  }
  attr {
    key: "_class"
    value {
      list {
        s: "loc:@vgg_19/fc6/weights"
      }
    }
  }
  attr {
    key: "dtype"
    value {
      type: DT_FLOAT
    }
  }
  attr {
    key: "seed"
    value {
      i: 0
    }
  }
  attr {
    key: "seed2"
    value {
      i: 0
    }
  }
}
node {
  name: "vgg_19/fc6/weights/Initializer/random_uniform/sub"
  op: "Sub"
  input: "vgg_19/fc6/weights/Initializer/random_uniform/max"
  input: "vgg_19/fc6/weights/Initializer/random_uniform/min"
  attr {
    key: "T"
    value {
      type: DT_FLOAT
    }
  }
  attr {
    key: "_class"
    value {
      list {
        s: "loc:@vgg_19/fc6/weights"
      }
    }
  }
}
node {
  name: "vgg_19/fc6/weights/Initializer/random_uniform/mul"
  op: "Mul"
  input: "vgg_19/fc6/weights/Initializer/random_uniform/RandomUniform"
  input: "vgg_19/fc6/weights/Initializer/random_uniform/sub"
  attr {
    key: "T"
    value {
      type: DT_FLOAT
    }
  }
  attr {
    key: "_class"
    value {
      list {
        s: "loc:@vgg_19/fc6/weights"
      }
    }
  }
}
node {
  name: "vgg_19/fc6/weights/Initializer/random_uniform"
  op: "Add"
  input: "vgg_19/fc6/weights/Initializer/random_uniform/mul"
  input: "vgg_19/fc6/weights/Initializer/random_uniform/min"
  attr {
    key: "T"
    value {
      type: DT_FLOAT
    }
  }
  attr {
    key: "_class"
    value {
      list {
        s: "loc:@vgg_19/fc6/weights"
      }
    }
  }
}
node {
  name: "vgg_19/fc6/weights"
  op: "VariableV2"
  attr {
    key: "_class"
    value {
      list {
        s: "loc:@vgg_19/fc6/weights"
      }
    }
  }
  attr {
    key: "container"
    value {
      s: ""
    }
  }
  attr {
    key: "dtype"
    value {
      type: DT_FLOAT
    }
  }
  attr {
    key: "shape"
    value {
      shape {
        dim {
          size: 7
        }
        dim {
          size: 7
        }
        dim {
          size: 512
        }
        dim {
          size: 4096
        }
      }
    }
  }
  attr {
    key: "shared_name"
    value {
      s: ""
    }
  }
}
node {
  name: "vgg_19/fc6/weights/Assign"
  op: "Assign"
  input: "vgg_19/fc6/weights"
  input: "vgg_19/fc6/weights/Initializer/random_uniform"
  attr {
    key: "T"
    value {
      type: DT_FLOAT
    }
  }
  attr {
    key: "_class"
    value {
      list {
        s: "loc:@vgg_19/fc6/weights"
      }
    }
  }
  attr {
    key: "use_locking"
    value {
      b: true
    }
  }
  attr {
    key: "validate_shape"
    value {
      b: true
    }
  }
}
node {
  name: "vgg_19/fc6/weights/read"
  op: "Identity"
  input: "vgg_19/fc6/weights"
  attr {
    key: "T"
    value {
      type: DT_FLOAT
    }
  }
  attr {
    key: "_class"
    value {
      list {
        s: "loc:@vgg_19/fc6/weights"
      }
    }
  }
}
node {
  name: "vgg_19/fc6/biases/Initializer/zeros/shape_as_tensor"
  op: "Const"
  attr {
    key: "_class"
    value {
      list {
        s: "loc:@vgg_19/fc6/biases"
      }
    }
  }
  attr {
    key: "dtype"
    value {
      type: DT_INT32
    }
  }
  attr {
    key: "value"
    value {
      tensor {
        dtype: DT_INT32
        tensor_shape {
          dim {
            size: 1
          }
        }
        int_val: 4096
      }
    }
  }
}
node {
  name: "vgg_19/fc6/biases/Initializer/zeros/Const"
  op: "Const"
  attr {
    key: "_class"
    value {
      list {
        s: "loc:@vgg_19/fc6/biases"
      }
    }
  }
  attr {
    key: "dtype"
    value {
      type: DT_FLOAT
    }
  }
  attr {
    key: "value"
    value {
      tensor {
        dtype: DT_FLOAT
        tensor_shape {
        }
        float_val: 0.0
      }
    }
  }
}
node {
  name: "vgg_19/fc6/biases/Initializer/zeros"
  op: "Fill"
  input: "vgg_19/fc6/biases/Initializer/zeros/shape_as_tensor"
  input: "vgg_19/fc6/biases/Initializer/zeros/Const"
  attr {
    key: "T"
    value {
      type: DT_FLOAT
    }
  }
  attr {
    key: "_class"
    value {
      list {
        s: "loc:@vgg_19/fc6/biases"
      }
    }
  }
  attr {
    key: "index_type"
    value {
      type: DT_INT32
    }
  }
}
node {
  name: "vgg_19/fc6/biases"
  op: "VariableV2"
  attr {
    key: "_class"
    value {
      list {
        s: "loc:@vgg_19/fc6/biases"
      }
    }
  }
  attr {
    key: "container"
    value {
      s: ""
    }
  }
  attr {
    key: "dtype"
    value {
      type: DT_FLOAT
    }
  }
  attr {
    key: "shape"
    value {
      shape {
        dim {
          size: 4096
        }
      }
    }
  }
  attr {
    key: "shared_name"
    value {
      s: ""
    }
  }
}
node {
  name: "vgg_19/fc6/biases/Assign"
  op: "Assign"
  input: "vgg_19/fc6/biases"
  input: "vgg_19/fc6/biases/Initializer/zeros"
  attr {
    key: "T"
    value {
      type: DT_FLOAT
    }
  }
  attr {
    key: "_class"
    value {
      list {
        s: "loc:@vgg_19/fc6/biases"
      }
    }
  }
  attr {
    key: "use_locking"
    value {
      b: true
    }
  }
  attr {
    key: "validate_shape"
    value {
      b: true
    }
  }
}
node {
  name: "vgg_19/fc6/biases/read"
  op: "Identity"
  input: "vgg_19/fc6/biases"
  attr {
    key: "T"
    value {
      type: DT_FLOAT
    }
  }
  attr {
    key: "_class"
    value {
      list {
        s: "loc:@vgg_19/fc6/biases"
      }
    }
  }
}
node {
  name: "vgg_19/fc6/dilation_rate"
  op: "Const"
  attr {
    key: "dtype"
    value {
      type: DT_INT32
    }
  }
  attr {
    key: "value"
    value {
      tensor {
        dtype: DT_INT32
        tensor_shape {
          dim {
            size: 2
          }
        }
        tensor_content: "\001\000\000\000\001\000\000\000"
      }
    }
  }
}
node {
  name: "vgg_19/fc6/Conv2D"
  op: "Conv2D"
  input: "vgg_19/pool5/MaxPool"
  input: "vgg_19/fc6/weights/read"
  attr {
    key: "T"
    value {
      type: DT_FLOAT
    }
  }
  attr {
    key: "data_format"
    value {
      s: "NHWC"
    }
  }
  attr {
    key: "dilations"
    value {
      list {
        i: 1
        i: 1
        i: 1
        i: 1
      }
    }
  }
  attr {
    key: "padding"
    value {
      s: "VALID"
    }
  }
  attr {
    key: "strides"
    value {
      list {
        i: 1
        i: 1
        i: 1
        i: 1
      }
    }
  }
  attr {
    key: "use_cudnn_on_gpu"
    value {
      b: true
    }
  }
}
node {
  name: "vgg_19/fc6/BiasAdd"
  op: "BiasAdd"
  input: "vgg_19/fc6/Conv2D"
  input: "vgg_19/fc6/biases/read"
  attr {
    key: "T"
    value {
      type: DT_FLOAT
    }
  }
  attr {
    key: "data_format"
    value {
      s: "NHWC"
    }
  }
}
node {
  name: "vgg_19/fc6/Relu"
  op: "Relu"
  input: "vgg_19/fc6/BiasAdd"
  attr {
    key: "T"
    value {
      type: DT_FLOAT
    }
  }
}
node {
  name: "vgg_19/dropout6/dropout/keep_prob"
  op: "Const"
  attr {
    key: "dtype"
    value {
      type: DT_FLOAT
    }
  }
  attr {
    key: "value"
    value {
      tensor {
        dtype: DT_FLOAT
        tensor_shape {
        }
        float_val: 0.5
      }
    }
  }
}
node {
  name: "vgg_19/dropout6/dropout/Shape"
  op: "Shape"
  input: "vgg_19/fc6/Relu"
  attr {
    key: "T"
    value {
      type: DT_FLOAT
    }
  }
  attr {
    key: "out_type"
    value {
      type: DT_INT32
    }
  }
}
node {
  name: "vgg_19/dropout6/dropout/random_uniform/min"
  op: "Const"
  attr {
    key: "dtype"
    value {
      type: DT_FLOAT
    }
  }
  attr {
    key: "value"
    value {
      tensor {
        dtype: DT_FLOAT
        tensor_shape {
        }
        float_val: 0.0
      }
    }
  }
}
node {
  name: "vgg_19/dropout6/dropout/random_uniform/max"
  op: "Const"
  attr {
    key: "dtype"
    value {
      type: DT_FLOAT
    }
  }
  attr {
    key: "value"
    value {
      tensor {
        dtype: DT_FLOAT
        tensor_shape {
        }
        float_val: 1.0
      }
    }
  }
}
node {
  name: "vgg_19/dropout6/dropout/random_uniform/RandomUniform"
  op: "RandomUniform"
  input: "vgg_19/dropout6/dropout/Shape"
  attr {
    key: "T"
    value {
      type: DT_INT32
    }
  }
  attr {
    key: "dtype"
    value {
      type: DT_FLOAT
    }
  }
  attr {
    key: "seed"
    value {
      i: 0
    }
  }
  attr {
    key: "seed2"
    value {
      i: 0
    }
  }
}
node {
  name: "vgg_19/dropout6/dropout/random_uniform/sub"
  op: "Sub"
  input: "vgg_19/dropout6/dropout/random_uniform/max"
  input: "vgg_19/dropout6/dropout/random_uniform/min"
  attr {
    key: "T"
    value {
      type: DT_FLOAT
    }
  }
}
node {
  name: "vgg_19/dropout6/dropout/random_uniform/mul"
  op: "Mul"
  input: "vgg_19/dropout6/dropout/random_uniform/RandomUniform"
  input: "vgg_19/dropout6/dropout/random_uniform/sub"
  attr {
    key: "T"
    value {
      type: DT_FLOAT
    }
  }
}
node {
  name: "vgg_19/dropout6/dropout/random_uniform"
  op: "Add"
  input: "vgg_19/dropout6/dropout/random_uniform/mul"
  input: "vgg_19/dropout6/dropout/random_uniform/min"
  attr {
    key: "T"
    value {
      type: DT_FLOAT
    }
  }
}
node {
  name: "vgg_19/dropout6/dropout/add"
  op: "Add"
  input: "vgg_19/dropout6/dropout/keep_prob"
  input: "vgg_19/dropout6/dropout/random_uniform"
  attr {
    key: "T"
    value {
      type: DT_FLOAT
    }
  }
}
node {
  name: "vgg_19/dropout6/dropout/Floor"
  op: "Floor"
  input: "vgg_19/dropout6/dropout/add"
  attr {
    key: "T"
    value {
      type: DT_FLOAT
    }
  }
}
node {
  name: "vgg_19/dropout6/dropout/div"
  op: "RealDiv"
  input: "vgg_19/fc6/Relu"
  input: "vgg_19/dropout6/dropout/keep_prob"
  attr {
    key: "T"
    value {
      type: DT_FLOAT
    }
  }
}
node {
  name: "vgg_19/dropout6/dropout/mul"
  op: "Mul"
  input: "vgg_19/dropout6/dropout/div"
  input: "vgg_19/dropout6/dropout/Floor"
  attr {
    key: "T"
    value {
      type: DT_FLOAT
    }
  }
}
node {
  name: "vgg_19/fc7/weights/Initializer/random_uniform/shape"
  op: "Const"
  attr {
    key: "_class"
    value {
      list {
        s: "loc:@vgg_19/fc7/weights"
      }
    }
  }
  attr {
    key: "dtype"
    value {
      type: DT_INT32
    }
  }
  attr {
    key: "value"
    value {
      tensor {
        dtype: DT_INT32
        tensor_shape {
          dim {
            size: 4
          }
        }
        tensor_content: "\001\000\000\000\001\000\000\000\000\020\000\000\000\020\000\000"
      }
    }
  }
}
node {
  name: "vgg_19/fc7/weights/Initializer/random_uniform/min"
  op: "Const"
  attr {
    key: "_class"
    value {
      list {
        s: "loc:@vgg_19/fc7/weights"
      }
    }
  }
  attr {
    key: "dtype"
    value {
      type: DT_FLOAT
    }
  }
  attr {
    key: "value"
    value {
      tensor {
        dtype: DT_FLOAT
        tensor_shape {
        }
        float_val: -0.027063293382525444
      }
    }
  }
}
node {
  name: "vgg_19/fc7/weights/Initializer/random_uniform/max"
  op: "Const"
  attr {
    key: "_class"
    value {
      list {
        s: "loc:@vgg_19/fc7/weights"
      }
    }
  }
  attr {
    key: "dtype"
    value {
      type: DT_FLOAT
    }
  }
  attr {
    key: "value"
    value {
      tensor {
        dtype: DT_FLOAT
        tensor_shape {
        }
        float_val: 0.027063293382525444
      }
    }
  }
}
node {
  name: "vgg_19/fc7/weights/Initializer/random_uniform/RandomUniform"
  op: "RandomUniform"
  input: "vgg_19/fc7/weights/Initializer/random_uniform/shape"
  attr {
    key: "T"
    value {
      type: DT_INT32
    }
  }
  attr {
    key: "_class"
    value {
      list {
        s: "loc:@vgg_19/fc7/weights"
      }
    }
  }
  attr {
    key: "dtype"
    value {
      type: DT_FLOAT
    }
  }
  attr {
    key: "seed"
    value {
      i: 0
    }
  }
  attr {
    key: "seed2"
    value {
      i: 0
    }
  }
}
node {
  name: "vgg_19/fc7/weights/Initializer/random_uniform/sub"
  op: "Sub"
  input: "vgg_19/fc7/weights/Initializer/random_uniform/max"
  input: "vgg_19/fc7/weights/Initializer/random_uniform/min"
  attr {
    key: "T"
    value {
      type: DT_FLOAT
    }
  }
  attr {
    key: "_class"
    value {
      list {
        s: "loc:@vgg_19/fc7/weights"
      }
    }
  }
}
node {
  name: "vgg_19/fc7/weights/Initializer/random_uniform/mul"
  op: "Mul"
  input: "vgg_19/fc7/weights/Initializer/random_uniform/RandomUniform"
  input: "vgg_19/fc7/weights/Initializer/random_uniform/sub"
  attr {
    key: "T"
    value {
      type: DT_FLOAT
    }
  }
  attr {
    key: "_class"
    value {
      list {
        s: "loc:@vgg_19/fc7/weights"
      }
    }
  }
}
node {
  name: "vgg_19/fc7/weights/Initializer/random_uniform"
  op: "Add"
  input: "vgg_19/fc7/weights/Initializer/random_uniform/mul"
  input: "vgg_19/fc7/weights/Initializer/random_uniform/min"
  attr {
    key: "T"
    value {
      type: DT_FLOAT
    }
  }
  attr {
    key: "_class"
    value {
      list {
        s: "loc:@vgg_19/fc7/weights"
      }
    }
  }
}
node {
  name: "vgg_19/fc7/weights"
  op: "VariableV2"
  attr {
    key: "_class"
    value {
      list {
        s: "loc:@vgg_19/fc7/weights"
      }
    }
  }
  attr {
    key: "container"
    value {
      s: ""
    }
  }
  attr {
    key: "dtype"
    value {
      type: DT_FLOAT
    }
  }
  attr {
    key: "shape"
    value {
      shape {
        dim {
          size: 1
        }
        dim {
          size: 1
        }
        dim {
          size: 4096
        }
        dim {
          size: 4096
        }
      }
    }
  }
  attr {
    key: "shared_name"
    value {
      s: ""
    }
  }
}
node {
  name: "vgg_19/fc7/weights/Assign"
  op: "Assign"
  input: "vgg_19/fc7/weights"
  input: "vgg_19/fc7/weights/Initializer/random_uniform"
  attr {
    key: "T"
    value {
      type: DT_FLOAT
    }
  }
  attr {
    key: "_class"
    value {
      list {
        s: "loc:@vgg_19/fc7/weights"
      }
    }
  }
  attr {
    key: "use_locking"
    value {
      b: true
    }
  }
  attr {
    key: "validate_shape"
    value {
      b: true
    }
  }
}
node {
  name: "vgg_19/fc7/weights/read"
  op: "Identity"
  input: "vgg_19/fc7/weights"
  attr {
    key: "T"
    value {
      type: DT_FLOAT
    }
  }
  attr {
    key: "_class"
    value {
      list {
        s: "loc:@vgg_19/fc7/weights"
      }
    }
  }
}
node {
  name: "vgg_19/fc7/biases/Initializer/zeros/shape_as_tensor"
  op: "Const"
  attr {
    key: "_class"
    value {
      list {
        s: "loc:@vgg_19/fc7/biases"
      }
    }
  }
  attr {
    key: "dtype"
    value {
      type: DT_INT32
    }
  }
  attr {
    key: "value"
    value {
      tensor {
        dtype: DT_INT32
        tensor_shape {
          dim {
            size: 1
          }
        }
        int_val: 4096
      }
    }
  }
}
node {
  name: "vgg_19/fc7/biases/Initializer/zeros/Const"
  op: "Const"
  attr {
    key: "_class"
    value {
      list {
        s: "loc:@vgg_19/fc7/biases"
      }
    }
  }
  attr {
    key: "dtype"
    value {
      type: DT_FLOAT
    }
  }
  attr {
    key: "value"
    value {
      tensor {
        dtype: DT_FLOAT
        tensor_shape {
        }
        float_val: 0.0
      }
    }
  }
}
node {
  name: "vgg_19/fc7/biases/Initializer/zeros"
  op: "Fill"
  input: "vgg_19/fc7/biases/Initializer/zeros/shape_as_tensor"
  input: "vgg_19/fc7/biases/Initializer/zeros/Const"
  attr {
    key: "T"
    value {
      type: DT_FLOAT
    }
  }
  attr {
    key: "_class"
    value {
      list {
        s: "loc:@vgg_19/fc7/biases"
      }
    }
  }
  attr {
    key: "index_type"
    value {
      type: DT_INT32
    }
  }
}
node {
  name: "vgg_19/fc7/biases"
  op: "VariableV2"
  attr {
    key: "_class"
    value {
      list {
        s: "loc:@vgg_19/fc7/biases"
      }
    }
  }
  attr {
    key: "container"
    value {
      s: ""
    }
  }
  attr {
    key: "dtype"
    value {
      type: DT_FLOAT
    }
  }
  attr {
    key: "shape"
    value {
      shape {
        dim {
          size: 4096
        }
      }
    }
  }
  attr {
    key: "shared_name"
    value {
      s: ""
    }
  }
}
node {
  name: "vgg_19/fc7/biases/Assign"
  op: "Assign"
  input: "vgg_19/fc7/biases"
  input: "vgg_19/fc7/biases/Initializer/zeros"
  attr {
    key: "T"
    value {
      type: DT_FLOAT
    }
  }
  attr {
    key: "_class"
    value {
      list {
        s: "loc:@vgg_19/fc7/biases"
      }
    }
  }
  attr {
    key: "use_locking"
    value {
      b: true
    }
  }
  attr {
    key: "validate_shape"
    value {
      b: true
    }
  }
}
node {
  name: "vgg_19/fc7/biases/read"
  op: "Identity"
  input: "vgg_19/fc7/biases"
  attr {
    key: "T"
    value {
      type: DT_FLOAT
    }
  }
  attr {
    key: "_class"
    value {
      list {
        s: "loc:@vgg_19/fc7/biases"
      }
    }
  }
}
node {
  name: "vgg_19/fc7/dilation_rate"
  op: "Const"
  attr {
    key: "dtype"
    value {
      type: DT_INT32
    }
  }
  attr {
    key: "value"
    value {
      tensor {
        dtype: DT_INT32
        tensor_shape {
          dim {
            size: 2
          }
        }
        tensor_content: "\001\000\000\000\001\000\000\000"
      }
    }
  }
}
node {
  name: "vgg_19/fc7/Conv2D"
  op: "Conv2D"
  input: "vgg_19/dropout6/dropout/mul"
  input: "vgg_19/fc7/weights/read"
  attr {
    key: "T"
    value {
      type: DT_FLOAT
    }
  }
  attr {
    key: "data_format"
    value {
      s: "NHWC"
    }
  }
  attr {
    key: "dilations"
    value {
      list {
        i: 1
        i: 1
        i: 1
        i: 1
      }
    }
  }
  attr {
    key: "padding"
    value {
      s: "SAME"
    }
  }
  attr {
    key: "strides"
    value {
      list {
        i: 1
        i: 1
        i: 1
        i: 1
      }
    }
  }
  attr {
    key: "use_cudnn_on_gpu"
    value {
      b: true
    }
  }
}
node {
  name: "vgg_19/fc7/BiasAdd"
  op: "BiasAdd"
  input: "vgg_19/fc7/Conv2D"
  input: "vgg_19/fc7/biases/read"
  attr {
    key: "T"
    value {
      type: DT_FLOAT
    }
  }
  attr {
    key: "data_format"
    value {
      s: "NHWC"
    }
  }
}
node {
  name: "vgg_19/fc7/Relu"
  op: "Relu"
  input: "vgg_19/fc7/BiasAdd"
  attr {
    key: "T"
    value {
      type: DT_FLOAT
    }
  }
}
node {
  name: "vgg_19/dropout7/dropout/keep_prob"
  op: "Const"
  attr {
    key: "dtype"
    value {
      type: DT_FLOAT
    }
  }
  attr {
    key: "value"
    value {
      tensor {
        dtype: DT_FLOAT
        tensor_shape {
        }
        float_val: 0.5
      }
    }
  }
}
node {
  name: "vgg_19/dropout7/dropout/Shape"
  op: "Shape"
  input: "vgg_19/fc7/Relu"
  attr {
    key: "T"
    value {
      type: DT_FLOAT
    }
  }
  attr {
    key: "out_type"
    value {
      type: DT_INT32
    }
  }
}
node {
  name: "vgg_19/dropout7/dropout/random_uniform/min"
  op: "Const"
  attr {
    key: "dtype"
    value {
      type: DT_FLOAT
    }
  }
  attr {
    key: "value"
    value {
      tensor {
        dtype: DT_FLOAT
        tensor_shape {
        }
        float_val: 0.0
      }
    }
  }
}
node {
  name: "vgg_19/dropout7/dropout/random_uniform/max"
  op: "Const"
  attr {
    key: "dtype"
    value {
      type: DT_FLOAT
    }
  }
  attr {
    key: "value"
    value {
      tensor {
        dtype: DT_FLOAT
        tensor_shape {
        }
        float_val: 1.0
      }
    }
  }
}
node {
  name: "vgg_19/dropout7/dropout/random_uniform/RandomUniform"
  op: "RandomUniform"
  input: "vgg_19/dropout7/dropout/Shape"
  attr {
    key: "T"
    value {
      type: DT_INT32
    }
  }
  attr {
    key: "dtype"
    value {
      type: DT_FLOAT
    }
  }
  attr {
    key: "seed"
    value {
      i: 0
    }
  }
  attr {
    key: "seed2"
    value {
      i: 0
    }
  }
}
node {
  name: "vgg_19/dropout7/dropout/random_uniform/sub"
  op: "Sub"
  input: "vgg_19/dropout7/dropout/random_uniform/max"
  input: "vgg_19/dropout7/dropout/random_uniform/min"
  attr {
    key: "T"
    value {
      type: DT_FLOAT
    }
  }
}
node {
  name: "vgg_19/dropout7/dropout/random_uniform/mul"
  op: "Mul"
  input: "vgg_19/dropout7/dropout/random_uniform/RandomUniform"
  input: "vgg_19/dropout7/dropout/random_uniform/sub"
  attr {
    key: "T"
    value {
      type: DT_FLOAT
    }
  }
}
node {
  name: "vgg_19/dropout7/dropout/random_uniform"
  op: "Add"
  input: "vgg_19/dropout7/dropout/random_uniform/mul"
  input: "vgg_19/dropout7/dropout/random_uniform/min"
  attr {
    key: "T"
    value {
      type: DT_FLOAT
    }
  }
}
node {
  name: "vgg_19/dropout7/dropout/add"
  op: "Add"
  input: "vgg_19/dropout7/dropout/keep_prob"
  input: "vgg_19/dropout7/dropout/random_uniform"
  attr {
    key: "T"
    value {
      type: DT_FLOAT
    }
  }
}
node {
  name: "vgg_19/dropout7/dropout/Floor"
  op: "Floor"
  input: "vgg_19/dropout7/dropout/add"
  attr {
    key: "T"
    value {
      type: DT_FLOAT
    }
  }
}
node {
  name: "vgg_19/dropout7/dropout/div"
  op: "RealDiv"
  input: "vgg_19/fc7/Relu"
  input: "vgg_19/dropout7/dropout/keep_prob"
  attr {
    key: "T"
    value {
      type: DT_FLOAT
    }
  }
}
node {
  name: "vgg_19/dropout7/dropout/mul"
  op: "Mul"
  input: "vgg_19/dropout7/dropout/div"
  input: "vgg_19/dropout7/dropout/Floor"
  attr {
    key: "T"
    value {
      type: DT_FLOAT
    }
  }
}
node {
  name: "vgg_19/fc8/weights/Initializer/random_uniform/shape"
  op: "Const"
  attr {
    key: "_class"
    value {
      list {
        s: "loc:@vgg_19/fc8/weights"
      }
    }
  }
  attr {
    key: "dtype"
    value {
      type: DT_INT32
    }
  }
  attr {
    key: "value"
    value {
      tensor {
        dtype: DT_INT32
        tensor_shape {
          dim {
            size: 4
          }
        }
        tensor_content: "\001\000\000\000\001\000\000\000\000\020\000\000\351\003\000\000"
      }
    }
  }
}
node {
  name: "vgg_19/fc8/weights/Initializer/random_uniform/min"
  op: "Const"
  attr {
    key: "_class"
    value {
      list {
        s: "loc:@vgg_19/fc8/weights"
      }
    }
  }
  attr {
    key: "dtype"
    value {
      type: DT_FLOAT
    }
  }
  attr {
    key: "value"
    value {
      tensor {
        dtype: DT_FLOAT
        tensor_shape {
        }
        float_val: -0.034309808164834976
      }
    }
  }
}
node {
  name: "vgg_19/fc8/weights/Initializer/random_uniform/max"
  op: "Const"
  attr {
    key: "_class"
    value {
      list {
        s: "loc:@vgg_19/fc8/weights"
      }
    }
  }
  attr {
    key: "dtype"
    value {
      type: DT_FLOAT
    }
  }
  attr {
    key: "value"
    value {
      tensor {
        dtype: DT_FLOAT
        tensor_shape {
        }
        float_val: 0.034309808164834976
      }
    }
  }
}
node {
  name: "vgg_19/fc8/weights/Initializer/random_uniform/RandomUniform"
  op: "RandomUniform"
  input: "vgg_19/fc8/weights/Initializer/random_uniform/shape"
  attr {
    key: "T"
    value {
      type: DT_INT32
    }
  }
  attr {
    key: "_class"
    value {
      list {
        s: "loc:@vgg_19/fc8/weights"
      }
    }
  }
  attr {
    key: "dtype"
    value {
      type: DT_FLOAT
    }
  }
  attr {
    key: "seed"
    value {
      i: 0
    }
  }
  attr {
    key: "seed2"
    value {
      i: 0
    }
  }
}
node {
  name: "vgg_19/fc8/weights/Initializer/random_uniform/sub"
  op: "Sub"
  input: "vgg_19/fc8/weights/Initializer/random_uniform/max"
  input: "vgg_19/fc8/weights/Initializer/random_uniform/min"
  attr {
    key: "T"
    value {
      type: DT_FLOAT
    }
  }
  attr {
    key: "_class"
    value {
      list {
        s: "loc:@vgg_19/fc8/weights"
      }
    }
  }
}
node {
  name: "vgg_19/fc8/weights/Initializer/random_uniform/mul"
  op: "Mul"
  input: "vgg_19/fc8/weights/Initializer/random_uniform/RandomUniform"
  input: "vgg_19/fc8/weights/Initializer/random_uniform/sub"
  attr {
    key: "T"
    value {
      type: DT_FLOAT
    }
  }
  attr {
    key: "_class"
    value {
      list {
        s: "loc:@vgg_19/fc8/weights"
      }
    }
  }
}
node {
  name: "vgg_19/fc8/weights/Initializer/random_uniform"
  op: "Add"
  input: "vgg_19/fc8/weights/Initializer/random_uniform/mul"
  input: "vgg_19/fc8/weights/Initializer/random_uniform/min"
  attr {
    key: "T"
    value {
      type: DT_FLOAT
    }
  }
  attr {
    key: "_class"
    value {
      list {
        s: "loc:@vgg_19/fc8/weights"
      }
    }
  }
}
node {
  name: "vgg_19/fc8/weights"
  op: "VariableV2"
  attr {
    key: "_class"
    value {
      list {
        s: "loc:@vgg_19/fc8/weights"
      }
    }
  }
  attr {
    key: "container"
    value {
      s: ""
    }
  }
  attr {
    key: "dtype"
    value {
      type: DT_FLOAT
    }
  }
  attr {
    key: "shape"
    value {
      shape {
        dim {
          size: 1
        }
        dim {
          size: 1
        }
        dim {
          size: 4096
        }
        dim {
          size: 1001
        }
      }
    }
  }
  attr {
    key: "shared_name"
    value {
      s: ""
    }
  }
}
node {
  name: "vgg_19/fc8/weights/Assign"
  op: "Assign"
  input: "vgg_19/fc8/weights"
  input: "vgg_19/fc8/weights/Initializer/random_uniform"
  attr {
    key: "T"
    value {
      type: DT_FLOAT
    }
  }
  attr {
    key: "_class"
    value {
      list {
        s: "loc:@vgg_19/fc8/weights"
      }
    }
  }
  attr {
    key: "use_locking"
    value {
      b: true
    }
  }
  attr {
    key: "validate_shape"
    value {
      b: true
    }
  }
}
node {
  name: "vgg_19/fc8/weights/read"
  op: "Identity"
  input: "vgg_19/fc8/weights"
  attr {
    key: "T"
    value {
      type: DT_FLOAT
    }
  }
  attr {
    key: "_class"
    value {
      list {
        s: "loc:@vgg_19/fc8/weights"
      }
    }
  }
}
node {
  name: "vgg_19/fc8/biases/Initializer/zeros/shape_as_tensor"
  op: "Const"
  attr {
    key: "_class"
    value {
      list {
        s: "loc:@vgg_19/fc8/biases"
      }
    }
  }
  attr {
    key: "dtype"
    value {
      type: DT_INT32
    }
  }
  attr {
    key: "value"
    value {
      tensor {
        dtype: DT_INT32
        tensor_shape {
          dim {
            size: 1
          }
        }
        int_val: 1001
      }
    }
  }
}
node {
  name: "vgg_19/fc8/biases/Initializer/zeros/Const"
  op: "Const"
  attr {
    key: "_class"
    value {
      list {
        s: "loc:@vgg_19/fc8/biases"
      }
    }
  }
  attr {
    key: "dtype"
    value {
      type: DT_FLOAT
    }
  }
  attr {
    key: "value"
    value {
      tensor {
        dtype: DT_FLOAT
        tensor_shape {
        }
        float_val: 0.0
      }
    }
  }
}
node {
  name: "vgg_19/fc8/biases/Initializer/zeros"
  op: "Fill"
  input: "vgg_19/fc8/biases/Initializer/zeros/shape_as_tensor"
  input: "vgg_19/fc8/biases/Initializer/zeros/Const"
  attr {
    key: "T"
    value {
      type: DT_FLOAT
    }
  }
  attr {
    key: "_class"
    value {
      list {
        s: "loc:@vgg_19/fc8/biases"
      }
    }
  }
  attr {
    key: "index_type"
    value {
      type: DT_INT32
    }
  }
}
node {
  name: "vgg_19/fc8/biases"
  op: "VariableV2"
  attr {
    key: "_class"
    value {
      list {
        s: "loc:@vgg_19/fc8/biases"
      }
    }
  }
  attr {
    key: "container"
    value {
      s: ""
    }
  }
  attr {
    key: "dtype"
    value {
      type: DT_FLOAT
    }
  }
  attr {
    key: "shape"
    value {
      shape {
        dim {
          size: 1001
        }
      }
    }
  }
  attr {
    key: "shared_name"
    value {
      s: ""
    }
  }
}
node {
  name: "vgg_19/fc8/biases/Assign"
  op: "Assign"
  input: "vgg_19/fc8/biases"
  input: "vgg_19/fc8/biases/Initializer/zeros"
  attr {
    key: "T"
    value {
      type: DT_FLOAT
    }
  }
  attr {
    key: "_class"
    value {
      list {
        s: "loc:@vgg_19/fc8/biases"
      }
    }
  }
  attr {
    key: "use_locking"
    value {
      b: true
    }
  }
  attr {
    key: "validate_shape"
    value {
      b: true
    }
  }
}
node {
  name: "vgg_19/fc8/biases/read"
  op: "Identity"
  input: "vgg_19/fc8/biases"
  attr {
    key: "T"
    value {
      type: DT_FLOAT
    }
  }
  attr {
    key: "_class"
    value {
      list {
        s: "loc:@vgg_19/fc8/biases"
      }
    }
  }
}
node {
  name: "vgg_19/fc8/dilation_rate"
  op: "Const"
  attr {
    key: "dtype"
    value {
      type: DT_INT32
    }
  }
  attr {
    key: "value"
    value {
      tensor {
        dtype: DT_INT32
        tensor_shape {
          dim {
            size: 2
          }
        }
        tensor_content: "\001\000\000\000\001\000\000\000"
      }
    }
  }
}
node {
  name: "vgg_19/fc8/Conv2D"
  op: "Conv2D"
  input: "vgg_19/dropout7/dropout/mul"
  input: "vgg_19/fc8/weights/read"
  attr {
    key: "T"
    value {
      type: DT_FLOAT
    }
  }
  attr {
    key: "data_format"
    value {
      s: "NHWC"
    }
  }
  attr {
    key: "dilations"
    value {
      list {
        i: 1
        i: 1
        i: 1
        i: 1
      }
    }
  }
  attr {
    key: "padding"
    value {
      s: "SAME"
    }
  }
  attr {
    key: "strides"
    value {
      list {
        i: 1
        i: 1
        i: 1
        i: 1
      }
    }
  }
  attr {
    key: "use_cudnn_on_gpu"
    value {
      b: true
    }
  }
}
node {
  name: "vgg_19/fc8/BiasAdd"
  op: "BiasAdd"
  input: "vgg_19/fc8/Conv2D"
  input: "vgg_19/fc8/biases/read"
  attr {
    key: "T"
    value {
      type: DT_FLOAT
    }
  }
  attr {
    key: "data_format"
    value {
      s: "NHWC"
    }
  }
}
node {
  name: "vgg_19/fc8/squeezed"
  op: "Squeeze"
  input: "vgg_19/fc8/BiasAdd"
  attr {
    key: "T"
    value {
      type: DT_FLOAT
    }
  }
  attr {
    key: "squeeze_dims"
    value {
      list {
        i: 1
        i: 2
      }
    }
  }
}
versions {
  producer: 27
}
