node {
  name: "input"
  op: "Placeholder"
  attr {
    key: "dtype"
    value {
      type: DT_FLOAT
    }
  }
  attr {
    key: "shape"
    value {
      shape {
        dim {
          size: -1
        }
        dim {
          size: 299
        }
        dim {
          size: 299
        }
        dim {
          size: 3
        }
      }
    }
  }
}
node {
  name: "InceptionV3/Conv2d_1a_3x3/weights/Initializer/truncated_normal/shape"
  op: "Const"
  attr {
    key: "_class"
    value {
      list {
        s: "loc:@InceptionV3/Conv2d_1a_3x3/weights"
      }
    }
  }
  attr {
    key: "dtype"
    value {
      type: DT_INT32
    }
  }
  attr {
    key: "value"
    value {
      tensor {
        dtype: DT_INT32
        tensor_shape {
          dim {
            size: 4
          }
        }
        tensor_content: "\003\000\000\000\003\000\000\000\003\000\000\000 \000\000\000"
      }
    }
  }
}
node {
  name: "InceptionV3/Conv2d_1a_3x3/weights/Initializer/truncated_normal/mean"
  op: "Const"
  attr {
    key: "_class"
    value {
      list {
        s: "loc:@InceptionV3/Conv2d_1a_3x3/weights"
      }
    }
  }
  attr {
    key: "dtype"
    value {
      type: DT_FLOAT
    }
  }
  attr {
    key: "value"
    value {
      tensor {
        dtype: DT_FLOAT
        tensor_shape {
        }
        float_val: 0.0
      }
    }
  }
}
node {
  name: "InceptionV3/Conv2d_1a_3x3/weights/Initializer/truncated_normal/stddev"
  op: "Const"
  attr {
    key: "_class"
    value {
      list {
        s: "loc:@InceptionV3/Conv2d_1a_3x3/weights"
      }
    }
  }
  attr {
    key: "dtype"
    value {
      type: DT_FLOAT
    }
  }
  attr {
    key: "value"
    value {
      tensor {
        dtype: DT_FLOAT
        tensor_shape {
        }
        float_val: 0.31031644344329834
      }
    }
  }
}
node {
  name: "InceptionV3/Conv2d_1a_3x3/weights/Initializer/truncated_normal/TruncatedNormal"
  op: "TruncatedNormal"
  input: "InceptionV3/Conv2d_1a_3x3/weights/Initializer/truncated_normal/shape"
  attr {
    key: "T"
    value {
      type: DT_INT32
    }
  }
  attr {
    key: "_class"
    value {
      list {
        s: "loc:@InceptionV3/Conv2d_1a_3x3/weights"
      }
    }
  }
  attr {
    key: "dtype"
    value {
      type: DT_FLOAT
    }
  }
  attr {
    key: "seed"
    value {
      i: 0
    }
  }
  attr {
    key: "seed2"
    value {
      i: 0
    }
  }
}
node {
  name: "InceptionV3/Conv2d_1a_3x3/weights/Initializer/truncated_normal/mul"
  op: "Mul"
  input: "InceptionV3/Conv2d_1a_3x3/weights/Initializer/truncated_normal/TruncatedNormal"
  input: "InceptionV3/Conv2d_1a_3x3/weights/Initializer/truncated_normal/stddev"
  attr {
    key: "T"
    value {
      type: DT_FLOAT
    }
  }
  attr {
    key: "_class"
    value {
      list {
        s: "loc:@InceptionV3/Conv2d_1a_3x3/weights"
      }
    }
  }
}
node {
  name: "InceptionV3/Conv2d_1a_3x3/weights/Initializer/truncated_normal"
  op: "Add"
  input: "InceptionV3/Conv2d_1a_3x3/weights/Initializer/truncated_normal/mul"
  input: "InceptionV3/Conv2d_1a_3x3/weights/Initializer/truncated_normal/mean"
  attr {
    key: "T"
    value {
      type: DT_FLOAT
    }
  }
  attr {
    key: "_class"
    value {
      list {
        s: "loc:@InceptionV3/Conv2d_1a_3x3/weights"
      }
    }
  }
}
node {
  name: "InceptionV3/Conv2d_1a_3x3/weights"
  op: "VariableV2"
  attr {
    key: "_class"
    value {
      list {
        s: "loc:@InceptionV3/Conv2d_1a_3x3/weights"
      }
    }
  }
  attr {
    key: "container"
    value {
      s: ""
    }
  }
  attr {
    key: "dtype"
    value {
      type: DT_FLOAT
    }
  }
  attr {
    key: "shape"
    value {
      shape {
        dim {
          size: 3
        }
        dim {
          size: 3
        }
        dim {
          size: 3
        }
        dim {
          size: 32
        }
      }
    }
  }
  attr {
    key: "shared_name"
    value {
      s: ""
    }
  }
}
node {
  name: "InceptionV3/Conv2d_1a_3x3/weights/Assign"
  op: "Assign"
  input: "InceptionV3/Conv2d_1a_3x3/weights"
  input: "InceptionV3/Conv2d_1a_3x3/weights/Initializer/truncated_normal"
  attr {
    key: "T"
    value {
      type: DT_FLOAT
    }
  }
  attr {
    key: "_class"
    value {
      list {
        s: "loc:@InceptionV3/Conv2d_1a_3x3/weights"
      }
    }
  }
  attr {
    key: "use_locking"
    value {
      b: true
    }
  }
  attr {
    key: "validate_shape"
    value {
      b: true
    }
  }
}
node {
  name: "InceptionV3/Conv2d_1a_3x3/weights/read"
  op: "Identity"
  input: "InceptionV3/Conv2d_1a_3x3/weights"
  attr {
    key: "T"
    value {
      type: DT_FLOAT
    }
  }
  attr {
    key: "_class"
    value {
      list {
        s: "loc:@InceptionV3/Conv2d_1a_3x3/weights"
      }
    }
  }
}
node {
  name: "InceptionV3/InceptionV3/Conv2d_1a_3x3/dilation_rate"
  op: "Const"
  attr {
    key: "dtype"
    value {
      type: DT_INT32
    }
  }
  attr {
    key: "value"
    value {
      tensor {
        dtype: DT_INT32
        tensor_shape {
          dim {
            size: 2
          }
        }
        tensor_content: "\001\000\000\000\001\000\000\000"
      }
    }
  }
}
node {
  name: "InceptionV3/InceptionV3/Conv2d_1a_3x3/Conv2D"
  op: "Conv2D"
  input: "input"
  input: "InceptionV3/Conv2d_1a_3x3/weights/read"
  attr {
    key: "T"
    value {
      type: DT_FLOAT
    }
  }
  attr {
    key: "data_format"
    value {
      s: "NHWC"
    }
  }
  attr {
    key: "dilations"
    value {
      list {
        i: 1
        i: 1
        i: 1
        i: 1
      }
    }
  }
  attr {
    key: "padding"
    value {
      s: "VALID"
    }
  }
  attr {
    key: "strides"
    value {
      list {
        i: 1
        i: 2
        i: 2
        i: 1
      }
    }
  }
  attr {
    key: "use_cudnn_on_gpu"
    value {
      b: true
    }
  }
}
node {
  name: "InceptionV3/InceptionV3/Conv2d_1a_3x3/BatchNorm/Const"
  op: "Const"
  attr {
    key: "dtype"
    value {
      type: DT_FLOAT
    }
  }
  attr {
    key: "value"
    value {
      tensor {
        dtype: DT_FLOAT
        tensor_shape {
          dim {
            size: 32
          }
        }
        float_val: 1.0
      }
    }
  }
}
node {
  name: "InceptionV3/Conv2d_1a_3x3/BatchNorm/beta/Initializer/zeros"
  op: "Const"
  attr {
    key: "_class"
    value {
      list {
        s: "loc:@InceptionV3/Conv2d_1a_3x3/BatchNorm/beta"
      }
    }
  }
  attr {
    key: "dtype"
    value {
      type: DT_FLOAT
    }
  }
  attr {
    key: "value"
    value {
      tensor {
        dtype: DT_FLOAT
        tensor_shape {
          dim {
            size: 32
          }
        }
        float_val: 0.0
      }
    }
  }
}
node {
  name: "InceptionV3/Conv2d_1a_3x3/BatchNorm/beta"
  op: "VariableV2"
  attr {
    key: "_class"
    value {
      list {
        s: "loc:@InceptionV3/Conv2d_1a_3x3/BatchNorm/beta"
      }
    }
  }
  attr {
    key: "container"
    value {
      s: ""
    }
  }
  attr {
    key: "dtype"
    value {
      type: DT_FLOAT
    }
  }
  attr {
    key: "shape"
    value {
      shape {
        dim {
          size: 32
        }
      }
    }
  }
  attr {
    key: "shared_name"
    value {
      s: ""
    }
  }
}
node {
  name: "InceptionV3/Conv2d_1a_3x3/BatchNorm/beta/Assign"
  op: "Assign"
  input: "InceptionV3/Conv2d_1a_3x3/BatchNorm/beta"
  input: "InceptionV3/Conv2d_1a_3x3/BatchNorm/beta/Initializer/zeros"
  attr {
    key: "T"
    value {
      type: DT_FLOAT
    }
  }
  attr {
    key: "_class"
    value {
      list {
        s: "loc:@InceptionV3/Conv2d_1a_3x3/BatchNorm/beta"
      }
    }
  }
  attr {
    key: "use_locking"
    value {
      b: true
    }
  }
  attr {
    key: "validate_shape"
    value {
      b: true
    }
  }
}
node {
  name: "InceptionV3/Conv2d_1a_3x3/BatchNorm/beta/read"
  op: "Identity"
  input: "InceptionV3/Conv2d_1a_3x3/BatchNorm/beta"
  attr {
    key: "T"
    value {
      type: DT_FLOAT
    }
  }
  attr {
    key: "_class"
    value {
      list {
        s: "loc:@InceptionV3/Conv2d_1a_3x3/BatchNorm/beta"
      }
    }
  }
}
node {
  name: "InceptionV3/Conv2d_1a_3x3/BatchNorm/moving_mean/Initializer/zeros"
  op: "Const"
  attr {
    key: "_class"
    value {
      list {
        s: "loc:@InceptionV3/Conv2d_1a_3x3/BatchNorm/moving_mean"
      }
    }
  }
  attr {
    key: "dtype"
    value {
      type: DT_FLOAT
    }
  }
  attr {
    key: "value"
    value {
      tensor {
        dtype: DT_FLOAT
        tensor_shape {
          dim {
            size: 32
          }
        }
        float_val: 0.0
      }
    }
  }
}
node {
  name: "InceptionV3/Conv2d_1a_3x3/BatchNorm/moving_mean"
  op: "VariableV2"
  attr {
    key: "_class"
    value {
      list {
        s: "loc:@InceptionV3/Conv2d_1a_3x3/BatchNorm/moving_mean"
      }
    }
  }
  attr {
    key: "container"
    value {
      s: ""
    }
  }
  attr {
    key: "dtype"
    value {
      type: DT_FLOAT
    }
  }
  attr {
    key: "shape"
    value {
      shape {
        dim {
          size: 32
        }
      }
    }
  }
  attr {
    key: "shared_name"
    value {
      s: ""
    }
  }
}
node {
  name: "InceptionV3/Conv2d_1a_3x3/BatchNorm/moving_mean/Assign"
  op: "Assign"
  input: "InceptionV3/Conv2d_1a_3x3/BatchNorm/moving_mean"
  input: "InceptionV3/Conv2d_1a_3x3/BatchNorm/moving_mean/Initializer/zeros"
  attr {
    key: "T"
    value {
      type: DT_FLOAT
    }
  }
  attr {
    key: "_class"
    value {
      list {
        s: "loc:@InceptionV3/Conv2d_1a_3x3/BatchNorm/moving_mean"
      }
    }
  }
  attr {
    key: "use_locking"
    value {
      b: true
    }
  }
  attr {
    key: "validate_shape"
    value {
      b: true
    }
  }
}
node {
  name: "InceptionV3/Conv2d_1a_3x3/BatchNorm/moving_mean/read"
  op: "Identity"
  input: "InceptionV3/Conv2d_1a_3x3/BatchNorm/moving_mean"
  attr {
    key: "T"
    value {
      type: DT_FLOAT
    }
  }
  attr {
    key: "_class"
    value {
      list {
        s: "loc:@InceptionV3/Conv2d_1a_3x3/BatchNorm/moving_mean"
      }
    }
  }
}
node {
  name: "InceptionV3/Conv2d_1a_3x3/BatchNorm/moving_variance/Initializer/ones"
  op: "Const"
  attr {
    key: "_class"
    value {
      list {
        s: "loc:@InceptionV3/Conv2d_1a_3x3/BatchNorm/moving_variance"
      }
    }
  }
  attr {
    key: "dtype"
    value {
      type: DT_FLOAT
    }
  }
  attr {
    key: "value"
    value {
      tensor {
        dtype: DT_FLOAT
        tensor_shape {
          dim {
            size: 32
          }
        }
        float_val: 1.0
      }
    }
  }
}
node {
  name: "InceptionV3/Conv2d_1a_3x3/BatchNorm/moving_variance"
  op: "VariableV2"
  attr {
    key: "_class"
    value {
      list {
        s: "loc:@InceptionV3/Conv2d_1a_3x3/BatchNorm/moving_variance"
      }
    }
  }
  attr {
    key: "container"
    value {
      s: ""
    }
  }
  attr {
    key: "dtype"
    value {
      type: DT_FLOAT
    }
  }
  attr {
    key: "shape"
    value {
      shape {
        dim {
          size: 32
        }
      }
    }
  }
  attr {
    key: "shared_name"
    value {
      s: ""
    }
  }
}
node {
  name: "InceptionV3/Conv2d_1a_3x3/BatchNorm/moving_variance/Assign"
  op: "Assign"
  input: "InceptionV3/Conv2d_1a_3x3/BatchNorm/moving_variance"
  input: "InceptionV3/Conv2d_1a_3x3/BatchNorm/moving_variance/Initializer/ones"
  attr {
    key: "T"
    value {
      type: DT_FLOAT
    }
  }
  attr {
    key: "_class"
    value {
      list {
        s: "loc:@InceptionV3/Conv2d_1a_3x3/BatchNorm/moving_variance"
      }
    }
  }
  attr {
    key: "use_locking"
    value {
      b: true
    }
  }
  attr {
    key: "validate_shape"
    value {
      b: true
    }
  }
}
node {
  name: "InceptionV3/Conv2d_1a_3x3/BatchNorm/moving_variance/read"
  op: "Identity"
  input: "InceptionV3/Conv2d_1a_3x3/BatchNorm/moving_variance"
  attr {
    key: "T"
    value {
      type: DT_FLOAT
    }
  }
  attr {
    key: "_class"
    value {
      list {
        s: "loc:@InceptionV3/Conv2d_1a_3x3/BatchNorm/moving_variance"
      }
    }
  }
}
node {
  name: "InceptionV3/InceptionV3/Conv2d_1a_3x3/BatchNorm/Const_1"
  op: "Const"
  attr {
    key: "dtype"
    value {
      type: DT_FLOAT
    }
  }
  attr {
    key: "value"
    value {
      tensor {
        dtype: DT_FLOAT
        tensor_shape {
          dim {
          }
        }
      }
    }
  }
}
node {
  name: "InceptionV3/InceptionV3/Conv2d_1a_3x3/BatchNorm/Const_2"
  op: "Const"
  attr {
    key: "dtype"
    value {
      type: DT_FLOAT
    }
  }
  attr {
    key: "value"
    value {
      tensor {
        dtype: DT_FLOAT
        tensor_shape {
          dim {
          }
        }
      }
    }
  }
}
node {
  name: "InceptionV3/InceptionV3/Conv2d_1a_3x3/BatchNorm/FusedBatchNorm"
  op: "FusedBatchNorm"
  input: "InceptionV3/InceptionV3/Conv2d_1a_3x3/Conv2D"
  input: "InceptionV3/InceptionV3/Conv2d_1a_3x3/BatchNorm/Const"
  input: "InceptionV3/Conv2d_1a_3x3/BatchNorm/beta/read"
  input: "InceptionV3/InceptionV3/Conv2d_1a_3x3/BatchNorm/Const_1"
  input: "InceptionV3/InceptionV3/Conv2d_1a_3x3/BatchNorm/Const_2"
  attr {
    key: "T"
    value {
      type: DT_FLOAT
    }
  }
  attr {
    key: "data_format"
    value {
      s: "NHWC"
    }
  }
  attr {
    key: "epsilon"
    value {
      f: 0.0010000000474974513
    }
  }
  attr {
    key: "is_training"
    value {
      b: true
    }
  }
}
node {
  name: "InceptionV3/InceptionV3/Conv2d_1a_3x3/BatchNorm/Const_3"
  op: "Const"
  attr {
    key: "dtype"
    value {
      type: DT_FLOAT
    }
  }
  attr {
    key: "value"
    value {
      tensor {
        dtype: DT_FLOAT
        tensor_shape {
        }
        float_val: 0.9997000098228455
      }
    }
  }
}
node {
  name: "InceptionV3/InceptionV3/Conv2d_1a_3x3/BatchNorm/AssignMovingAvg/sub/x"
  op: "Const"
  attr {
    key: "_class"
    value {
      list {
        s: "loc:@InceptionV3/Conv2d_1a_3x3/BatchNorm/moving_mean"
      }
    }
  }
  attr {
    key: "dtype"
    value {
      type: DT_FLOAT
    }
  }
  attr {
    key: "value"
    value {
      tensor {
        dtype: DT_FLOAT
        tensor_shape {
        }
        float_val: 1.0
      }
    }
  }
}
node {
  name: "InceptionV3/InceptionV3/Conv2d_1a_3x3/BatchNorm/AssignMovingAvg/sub"
  op: "Sub"
  input: "InceptionV3/InceptionV3/Conv2d_1a_3x3/BatchNorm/AssignMovingAvg/sub/x"
  input: "InceptionV3/InceptionV3/Conv2d_1a_3x3/BatchNorm/Const_3"
  attr {
    key: "T"
    value {
      type: DT_FLOAT
    }
  }
  attr {
    key: "_class"
    value {
      list {
        s: "loc:@InceptionV3/Conv2d_1a_3x3/BatchNorm/moving_mean"
      }
    }
  }
}
node {
  name: "InceptionV3/InceptionV3/Conv2d_1a_3x3/BatchNorm/AssignMovingAvg/sub_1"
  op: "Sub"
  input: "InceptionV3/Conv2d_1a_3x3/BatchNorm/moving_mean/read"
  input: "InceptionV3/InceptionV3/Conv2d_1a_3x3/BatchNorm/FusedBatchNorm:1"
  attr {
    key: "T"
    value {
      type: DT_FLOAT
    }
  }
  attr {
    key: "_class"
    value {
      list {
        s: "loc:@InceptionV3/Conv2d_1a_3x3/BatchNorm/moving_mean"
      }
    }
  }
}
node {
  name: "InceptionV3/InceptionV3/Conv2d_1a_3x3/BatchNorm/AssignMovingAvg/mul"
  op: "Mul"
  input: "InceptionV3/InceptionV3/Conv2d_1a_3x3/BatchNorm/AssignMovingAvg/sub_1"
  input: "InceptionV3/InceptionV3/Conv2d_1a_3x3/BatchNorm/AssignMovingAvg/sub"
  attr {
    key: "T"
    value {
      type: DT_FLOAT
    }
  }
  attr {
    key: "_class"
    value {
      list {
        s: "loc:@InceptionV3/Conv2d_1a_3x3/BatchNorm/moving_mean"
      }
    }
  }
}
node {
  name: "InceptionV3/InceptionV3/Conv2d_1a_3x3/BatchNorm/AssignMovingAvg"
  op: "AssignSub"
  input: "InceptionV3/Conv2d_1a_3x3/BatchNorm/moving_mean"
  input: "InceptionV3/InceptionV3/Conv2d_1a_3x3/BatchNorm/AssignMovingAvg/mul"
  attr {
    key: "T"
    value {
      type: DT_FLOAT
    }
  }
  attr {
    key: "_class"
    value {
      list {
        s: "loc:@InceptionV3/Conv2d_1a_3x3/BatchNorm/moving_mean"
      }
    }
  }
  attr {
    key: "use_locking"
    value {
      b: false
    }
  }
}
node {
  name: "InceptionV3/InceptionV3/Conv2d_1a_3x3/BatchNorm/AssignMovingAvg_1/sub/x"
  op: "Const"
  attr {
    key: "_class"
    value {
      list {
        s: "loc:@InceptionV3/Conv2d_1a_3x3/BatchNorm/moving_variance"
      }
    }
  }
  attr {
    key: "dtype"
    value {
      type: DT_FLOAT
    }
  }
  attr {
    key: "value"
    value {
      tensor {
        dtype: DT_FLOAT
        tensor_shape {
        }
        float_val: 1.0
      }
    }
  }
}
node {
  name: "InceptionV3/InceptionV3/Conv2d_1a_3x3/BatchNorm/AssignMovingAvg_1/sub"
  op: "Sub"
  input: "InceptionV3/InceptionV3/Conv2d_1a_3x3/BatchNorm/AssignMovingAvg_1/sub/x"
  input: "InceptionV3/InceptionV3/Conv2d_1a_3x3/BatchNorm/Const_3"
  attr {
    key: "T"
    value {
      type: DT_FLOAT
    }
  }
  attr {
    key: "_class"
    value {
      list {
        s: "loc:@InceptionV3/Conv2d_1a_3x3/BatchNorm/moving_variance"
      }
    }
  }
}
node {
  name: "InceptionV3/InceptionV3/Conv2d_1a_3x3/BatchNorm/AssignMovingAvg_1/sub_1"
  op: "Sub"
  input: "InceptionV3/Conv2d_1a_3x3/BatchNorm/moving_variance/read"
  input: "InceptionV3/InceptionV3/Conv2d_1a_3x3/BatchNorm/FusedBatchNorm:2"
  attr {
    key: "T"
    value {
      type: DT_FLOAT
    }
  }
  attr {
    key: "_class"
    value {
      list {
        s: "loc:@InceptionV3/Conv2d_1a_3x3/BatchNorm/moving_variance"
      }
    }
  }
}
node {
  name: "InceptionV3/InceptionV3/Conv2d_1a_3x3/BatchNorm/AssignMovingAvg_1/mul"
  op: "Mul"
  input: "InceptionV3/InceptionV3/Conv2d_1a_3x3/BatchNorm/AssignMovingAvg_1/sub_1"
  input: "InceptionV3/InceptionV3/Conv2d_1a_3x3/BatchNorm/AssignMovingAvg_1/sub"
  attr {
    key: "T"
    value {
      type: DT_FLOAT
    }
  }
  attr {
    key: "_class"
    value {
      list {
        s: "loc:@InceptionV3/Conv2d_1a_3x3/BatchNorm/moving_variance"
      }
    }
  }
}
node {
  name: "InceptionV3/InceptionV3/Conv2d_1a_3x3/BatchNorm/AssignMovingAvg_1"
  op: "AssignSub"
  input: "InceptionV3/Conv2d_1a_3x3/BatchNorm/moving_variance"
  input: "InceptionV3/InceptionV3/Conv2d_1a_3x3/BatchNorm/AssignMovingAvg_1/mul"
  attr {
    key: "T"
    value {
      type: DT_FLOAT
    }
  }
  attr {
    key: "_class"
    value {
      list {
        s: "loc:@InceptionV3/Conv2d_1a_3x3/BatchNorm/moving_variance"
      }
    }
  }
  attr {
    key: "use_locking"
    value {
      b: false
    }
  }
}
node {
  name: "InceptionV3/InceptionV3/Conv2d_1a_3x3/Relu"
  op: "Relu"
  input: "InceptionV3/InceptionV3/Conv2d_1a_3x3/BatchNorm/FusedBatchNorm"
  attr {
    key: "T"
    value {
      type: DT_FLOAT
    }
  }
}
node {
  name: "InceptionV3/Conv2d_2a_3x3/weights/Initializer/truncated_normal/shape"
  op: "Const"
  attr {
    key: "_class"
    value {
      list {
        s: "loc:@InceptionV3/Conv2d_2a_3x3/weights"
      }
    }
  }
  attr {
    key: "dtype"
    value {
      type: DT_INT32
    }
  }
  attr {
    key: "value"
    value {
      tensor {
        dtype: DT_INT32
        tensor_shape {
          dim {
            size: 4
          }
        }
        tensor_content: "\003\000\000\000\003\000\000\000 \000\000\000 \000\000\000"
      }
    }
  }
}
node {
  name: "InceptionV3/Conv2d_2a_3x3/weights/Initializer/truncated_normal/mean"
  op: "Const"
  attr {
    key: "_class"
    value {
      list {
        s: "loc:@InceptionV3/Conv2d_2a_3x3/weights"
      }
    }
  }
  attr {
    key: "dtype"
    value {
      type: DT_FLOAT
    }
  }
  attr {
    key: "value"
    value {
      tensor {
        dtype: DT_FLOAT
        tensor_shape {
        }
        float_val: 0.0
      }
    }
  }
}
node {
  name: "InceptionV3/Conv2d_2a_3x3/weights/Initializer/truncated_normal/stddev"
  op: "Const"
  attr {
    key: "_class"
    value {
      list {
        s: "loc:@InceptionV3/Conv2d_2a_3x3/weights"
      }
    }
  }
  attr {
    key: "dtype"
    value {
      type: DT_FLOAT
    }
  }
  attr {
    key: "value"
    value {
      tensor {
        dtype: DT_FLOAT
        tensor_shape {
        }
        float_val: 0.09501461684703827
      }
    }
  }
}
node {
  name: "InceptionV3/Conv2d_2a_3x3/weights/Initializer/truncated_normal/TruncatedNormal"
  op: "TruncatedNormal"
  input: "InceptionV3/Conv2d_2a_3x3/weights/Initializer/truncated_normal/shape"
  attr {
    key: "T"
    value {
      type: DT_INT32
    }
  }
  attr {
    key: "_class"
    value {
      list {
        s: "loc:@InceptionV3/Conv2d_2a_3x3/weights"
      }
    }
  }
  attr {
    key: "dtype"
    value {
      type: DT_FLOAT
    }
  }
  attr {
    key: "seed"
    value {
      i: 0
    }
  }
  attr {
    key: "seed2"
    value {
      i: 0
    }
  }
}
node {
  name: "InceptionV3/Conv2d_2a_3x3/weights/Initializer/truncated_normal/mul"
  op: "Mul"
  input: "InceptionV3/Conv2d_2a_3x3/weights/Initializer/truncated_normal/TruncatedNormal"
  input: "InceptionV3/Conv2d_2a_3x3/weights/Initializer/truncated_normal/stddev"
  attr {
    key: "T"
    value {
      type: DT_FLOAT
    }
  }
  attr {
    key: "_class"
    value {
      list {
        s: "loc:@InceptionV3/Conv2d_2a_3x3/weights"
      }
    }
  }
}
node {
  name: "InceptionV3/Conv2d_2a_3x3/weights/Initializer/truncated_normal"
  op: "Add"
  input: "InceptionV3/Conv2d_2a_3x3/weights/Initializer/truncated_normal/mul"
  input: "InceptionV3/Conv2d_2a_3x3/weights/Initializer/truncated_normal/mean"
  attr {
    key: "T"
    value {
      type: DT_FLOAT
    }
  }
  attr {
    key: "_class"
    value {
      list {
        s: "loc:@InceptionV3/Conv2d_2a_3x3/weights"
      }
    }
  }
}
node {
  name: "InceptionV3/Conv2d_2a_3x3/weights"
  op: "VariableV2"
  attr {
    key: "_class"
    value {
      list {
        s: "loc:@InceptionV3/Conv2d_2a_3x3/weights"
      }
    }
  }
  attr {
    key: "container"
    value {
      s: ""
    }
  }
  attr {
    key: "dtype"
    value {
      type: DT_FLOAT
    }
  }
  attr {
    key: "shape"
    value {
      shape {
        dim {
          size: 3
        }
        dim {
          size: 3
        }
        dim {
          size: 32
        }
        dim {
          size: 32
        }
      }
    }
  }
  attr {
    key: "shared_name"
    value {
      s: ""
    }
  }
}
node {
  name: "InceptionV3/Conv2d_2a_3x3/weights/Assign"
  op: "Assign"
  input: "InceptionV3/Conv2d_2a_3x3/weights"
  input: "InceptionV3/Conv2d_2a_3x3/weights/Initializer/truncated_normal"
  attr {
    key: "T"
    value {
      type: DT_FLOAT
    }
  }
  attr {
    key: "_class"
    value {
      list {
        s: "loc:@InceptionV3/Conv2d_2a_3x3/weights"
      }
    }
  }
  attr {
    key: "use_locking"
    value {
      b: true
    }
  }
  attr {
    key: "validate_shape"
    value {
      b: true
    }
  }
}
node {
  name: "InceptionV3/Conv2d_2a_3x3/weights/read"
  op: "Identity"
  input: "InceptionV3/Conv2d_2a_3x3/weights"
  attr {
    key: "T"
    value {
      type: DT_FLOAT
    }
  }
  attr {
    key: "_class"
    value {
      list {
        s: "loc:@InceptionV3/Conv2d_2a_3x3/weights"
      }
    }
  }
}
node {
  name: "InceptionV3/InceptionV3/Conv2d_2a_3x3/dilation_rate"
  op: "Const"
  attr {
    key: "dtype"
    value {
      type: DT_INT32
    }
  }
  attr {
    key: "value"
    value {
      tensor {
        dtype: DT_INT32
        tensor_shape {
          dim {
            size: 2
          }
        }
        tensor_content: "\001\000\000\000\001\000\000\000"
      }
    }
  }
}
node {
  name: "InceptionV3/InceptionV3/Conv2d_2a_3x3/Conv2D"
  op: "Conv2D"
  input: "InceptionV3/InceptionV3/Conv2d_1a_3x3/Relu"
  input: "InceptionV3/Conv2d_2a_3x3/weights/read"
  attr {
    key: "T"
    value {
      type: DT_FLOAT
    }
  }
  attr {
    key: "data_format"
    value {
      s: "NHWC"
    }
  }
  attr {
    key: "dilations"
    value {
      list {
        i: 1
        i: 1
        i: 1
        i: 1
      }
    }
  }
  attr {
    key: "padding"
    value {
      s: "VALID"
    }
  }
  attr {
    key: "strides"
    value {
      list {
        i: 1
        i: 1
        i: 1
        i: 1
      }
    }
  }
  attr {
    key: "use_cudnn_on_gpu"
    value {
      b: true
    }
  }
}
node {
  name: "InceptionV3/InceptionV3/Conv2d_2a_3x3/BatchNorm/Const"
  op: "Const"
  attr {
    key: "dtype"
    value {
      type: DT_FLOAT
    }
  }
  attr {
    key: "value"
    value {
      tensor {
        dtype: DT_FLOAT
        tensor_shape {
          dim {
            size: 32
          }
        }
        float_val: 1.0
      }
    }
  }
}
node {
  name: "InceptionV3/Conv2d_2a_3x3/BatchNorm/beta/Initializer/zeros"
  op: "Const"
  attr {
    key: "_class"
    value {
      list {
        s: "loc:@InceptionV3/Conv2d_2a_3x3/BatchNorm/beta"
      }
    }
  }
  attr {
    key: "dtype"
    value {
      type: DT_FLOAT
    }
  }
  attr {
    key: "value"
    value {
      tensor {
        dtype: DT_FLOAT
        tensor_shape {
          dim {
            size: 32
          }
        }
        float_val: 0.0
      }
    }
  }
}
node {
  name: "InceptionV3/Conv2d_2a_3x3/BatchNorm/beta"
  op: "VariableV2"
  attr {
    key: "_class"
    value {
      list {
        s: "loc:@InceptionV3/Conv2d_2a_3x3/BatchNorm/beta"
      }
    }
  }
  attr {
    key: "container"
    value {
      s: ""
    }
  }
  attr {
    key: "dtype"
    value {
      type: DT_FLOAT
    }
  }
  attr {
    key: "shape"
    value {
      shape {
        dim {
          size: 32
        }
      }
    }
  }
  attr {
    key: "shared_name"
    value {
      s: ""
    }
  }
}
node {
  name: "InceptionV3/Conv2d_2a_3x3/BatchNorm/beta/Assign"
  op: "Assign"
  input: "InceptionV3/Conv2d_2a_3x3/BatchNorm/beta"
  input: "InceptionV3/Conv2d_2a_3x3/BatchNorm/beta/Initializer/zeros"
  attr {
    key: "T"
    value {
      type: DT_FLOAT
    }
  }
  attr {
    key: "_class"
    value {
      list {
        s: "loc:@InceptionV3/Conv2d_2a_3x3/BatchNorm/beta"
      }
    }
  }
  attr {
    key: "use_locking"
    value {
      b: true
    }
  }
  attr {
    key: "validate_shape"
    value {
      b: true
    }
  }
}
node {
  name: "InceptionV3/Conv2d_2a_3x3/BatchNorm/beta/read"
  op: "Identity"
  input: "InceptionV3/Conv2d_2a_3x3/BatchNorm/beta"
  attr {
    key: "T"
    value {
      type: DT_FLOAT
    }
  }
  attr {
    key: "_class"
    value {
      list {
        s: "loc:@InceptionV3/Conv2d_2a_3x3/BatchNorm/beta"
      }
    }
  }
}
node {
  name: "InceptionV3/Conv2d_2a_3x3/BatchNorm/moving_mean/Initializer/zeros"
  op: "Const"
  attr {
    key: "_class"
    value {
      list {
        s: "loc:@InceptionV3/Conv2d_2a_3x3/BatchNorm/moving_mean"
      }
    }
  }
  attr {
    key: "dtype"
    value {
      type: DT_FLOAT
    }
  }
  attr {
    key: "value"
    value {
      tensor {
        dtype: DT_FLOAT
        tensor_shape {
          dim {
            size: 32
          }
        }
        float_val: 0.0
      }
    }
  }
}
node {
  name: "InceptionV3/Conv2d_2a_3x3/BatchNorm/moving_mean"
  op: "VariableV2"
  attr {
    key: "_class"
    value {
      list {
        s: "loc:@InceptionV3/Conv2d_2a_3x3/BatchNorm/moving_mean"
      }
    }
  }
  attr {
    key: "container"
    value {
      s: ""
    }
  }
  attr {
    key: "dtype"
    value {
      type: DT_FLOAT
    }
  }
  attr {
    key: "shape"
    value {
      shape {
        dim {
          size: 32
        }
      }
    }
  }
  attr {
    key: "shared_name"
    value {
      s: ""
    }
  }
}
node {
  name: "InceptionV3/Conv2d_2a_3x3/BatchNorm/moving_mean/Assign"
  op: "Assign"
  input: "InceptionV3/Conv2d_2a_3x3/BatchNorm/moving_mean"
  input: "InceptionV3/Conv2d_2a_3x3/BatchNorm/moving_mean/Initializer/zeros"
  attr {
    key: "T"
    value {
      type: DT_FLOAT
    }
  }
  attr {
    key: "_class"
    value {
      list {
        s: "loc:@InceptionV3/Conv2d_2a_3x3/BatchNorm/moving_mean"
      }
    }
  }
  attr {
    key: "use_locking"
    value {
      b: true
    }
  }
  attr {
    key: "validate_shape"
    value {
      b: true
    }
  }
}
node {
  name: "InceptionV3/Conv2d_2a_3x3/BatchNorm/moving_mean/read"
  op: "Identity"
  input: "InceptionV3/Conv2d_2a_3x3/BatchNorm/moving_mean"
  attr {
    key: "T"
    value {
      type: DT_FLOAT
    }
  }
  attr {
    key: "_class"
    value {
      list {
        s: "loc:@InceptionV3/Conv2d_2a_3x3/BatchNorm/moving_mean"
      }
    }
  }
}
node {
  name: "InceptionV3/Conv2d_2a_3x3/BatchNorm/moving_variance/Initializer/ones"
  op: "Const"
  attr {
    key: "_class"
    value {
      list {
        s: "loc:@InceptionV3/Conv2d_2a_3x3/BatchNorm/moving_variance"
      }
    }
  }
  attr {
    key: "dtype"
    value {
      type: DT_FLOAT
    }
  }
  attr {
    key: "value"
    value {
      tensor {
        dtype: DT_FLOAT
        tensor_shape {
          dim {
            size: 32
          }
        }
        float_val: 1.0
      }
    }
  }
}
node {
  name: "InceptionV3/Conv2d_2a_3x3/BatchNorm/moving_variance"
  op: "VariableV2"
  attr {
    key: "_class"
    value {
      list {
        s: "loc:@InceptionV3/Conv2d_2a_3x3/BatchNorm/moving_variance"
      }
    }
  }
  attr {
    key: "container"
    value {
      s: ""
    }
  }
  attr {
    key: "dtype"
    value {
      type: DT_FLOAT
    }
  }
  attr {
    key: "shape"
    value {
      shape {
        dim {
          size: 32
        }
      }
    }
  }
  attr {
    key: "shared_name"
    value {
      s: ""
    }
  }
}
node {
  name: "InceptionV3/Conv2d_2a_3x3/BatchNorm/moving_variance/Assign"
  op: "Assign"
  input: "InceptionV3/Conv2d_2a_3x3/BatchNorm/moving_variance"
  input: "InceptionV3/Conv2d_2a_3x3/BatchNorm/moving_variance/Initializer/ones"
  attr {
    key: "T"
    value {
      type: DT_FLOAT
    }
  }
  attr {
    key: "_class"
    value {
      list {
        s: "loc:@InceptionV3/Conv2d_2a_3x3/BatchNorm/moving_variance"
      }
    }
  }
  attr {
    key: "use_locking"
    value {
      b: true
    }
  }
  attr {
    key: "validate_shape"
    value {
      b: true
    }
  }
}
node {
  name: "InceptionV3/Conv2d_2a_3x3/BatchNorm/moving_variance/read"
  op: "Identity"
  input: "InceptionV3/Conv2d_2a_3x3/BatchNorm/moving_variance"
  attr {
    key: "T"
    value {
      type: DT_FLOAT
    }
  }
  attr {
    key: "_class"
    value {
      list {
        s: "loc:@InceptionV3/Conv2d_2a_3x3/BatchNorm/moving_variance"
      }
    }
  }
}
node {
  name: "InceptionV3/InceptionV3/Conv2d_2a_3x3/BatchNorm/Const_1"
  op: "Const"
  attr {
    key: "dtype"
    value {
      type: DT_FLOAT
    }
  }
  attr {
    key: "value"
    value {
      tensor {
        dtype: DT_FLOAT
        tensor_shape {
          dim {
          }
        }
      }
    }
  }
}
node {
  name: "InceptionV3/InceptionV3/Conv2d_2a_3x3/BatchNorm/Const_2"
  op: "Const"
  attr {
    key: "dtype"
    value {
      type: DT_FLOAT
    }
  }
  attr {
    key: "value"
    value {
      tensor {
        dtype: DT_FLOAT
        tensor_shape {
          dim {
          }
        }
      }
    }
  }
}
node {
  name: "InceptionV3/InceptionV3/Conv2d_2a_3x3/BatchNorm/FusedBatchNorm"
  op: "FusedBatchNorm"
  input: "InceptionV3/InceptionV3/Conv2d_2a_3x3/Conv2D"
  input: "InceptionV3/InceptionV3/Conv2d_2a_3x3/BatchNorm/Const"
  input: "InceptionV3/Conv2d_2a_3x3/BatchNorm/beta/read"
  input: "InceptionV3/InceptionV3/Conv2d_2a_3x3/BatchNorm/Const_1"
  input: "InceptionV3/InceptionV3/Conv2d_2a_3x3/BatchNorm/Const_2"
  attr {
    key: "T"
    value {
      type: DT_FLOAT
    }
  }
  attr {
    key: "data_format"
    value {
      s: "NHWC"
    }
  }
  attr {
    key: "epsilon"
    value {
      f: 0.0010000000474974513
    }
  }
  attr {
    key: "is_training"
    value {
      b: true
    }
  }
}
node {
  name: "InceptionV3/InceptionV3/Conv2d_2a_3x3/BatchNorm/Const_3"
  op: "Const"
  attr {
    key: "dtype"
    value {
      type: DT_FLOAT
    }
  }
  attr {
    key: "value"
    value {
      tensor {
        dtype: DT_FLOAT
        tensor_shape {
        }
        float_val: 0.9997000098228455
      }
    }
  }
}
node {
  name: "InceptionV3/InceptionV3/Conv2d_2a_3x3/BatchNorm/AssignMovingAvg/sub/x"
  op: "Const"
  attr {
    key: "_class"
    value {
      list {
        s: "loc:@InceptionV3/Conv2d_2a_3x3/BatchNorm/moving_mean"
      }
    }
  }
  attr {
    key: "dtype"
    value {
      type: DT_FLOAT
    }
  }
  attr {
    key: "value"
    value {
      tensor {
        dtype: DT_FLOAT
        tensor_shape {
        }
        float_val: 1.0
      }
    }
  }
}
node {
  name: "InceptionV3/InceptionV3/Conv2d_2a_3x3/BatchNorm/AssignMovingAvg/sub"
  op: "Sub"
  input: "InceptionV3/InceptionV3/Conv2d_2a_3x3/BatchNorm/AssignMovingAvg/sub/x"
  input: "InceptionV3/InceptionV3/Conv2d_2a_3x3/BatchNorm/Const_3"
  attr {
    key: "T"
    value {
      type: DT_FLOAT
    }
  }
  attr {
    key: "_class"
    value {
      list {
        s: "loc:@InceptionV3/Conv2d_2a_3x3/BatchNorm/moving_mean"
      }
    }
  }
}
node {
  name: "InceptionV3/InceptionV3/Conv2d_2a_3x3/BatchNorm/AssignMovingAvg/sub_1"
  op: "Sub"
  input: "InceptionV3/Conv2d_2a_3x3/BatchNorm/moving_mean/read"
  input: "InceptionV3/InceptionV3/Conv2d_2a_3x3/BatchNorm/FusedBatchNorm:1"
  attr {
    key: "T"
    value {
      type: DT_FLOAT
    }
  }
  attr {
    key: "_class"
    value {
      list {
        s: "loc:@InceptionV3/Conv2d_2a_3x3/BatchNorm/moving_mean"
      }
    }
  }
}
node {
  name: "InceptionV3/InceptionV3/Conv2d_2a_3x3/BatchNorm/AssignMovingAvg/mul"
  op: "Mul"
  input: "InceptionV3/InceptionV3/Conv2d_2a_3x3/BatchNorm/AssignMovingAvg/sub_1"
  input: "InceptionV3/InceptionV3/Conv2d_2a_3x3/BatchNorm/AssignMovingAvg/sub"
  attr {
    key: "T"
    value {
      type: DT_FLOAT
    }
  }
  attr {
    key: "_class"
    value {
      list {
        s: "loc:@InceptionV3/Conv2d_2a_3x3/BatchNorm/moving_mean"
      }
    }
  }
}
node {
  name: "InceptionV3/InceptionV3/Conv2d_2a_3x3/BatchNorm/AssignMovingAvg"
  op: "AssignSub"
  input: "InceptionV3/Conv2d_2a_3x3/BatchNorm/moving_mean"
  input: "InceptionV3/InceptionV3/Conv2d_2a_3x3/BatchNorm/AssignMovingAvg/mul"
  attr {
    key: "T"
    value {
      type: DT_FLOAT
    }
  }
  attr {
    key: "_class"
    value {
      list {
        s: "loc:@InceptionV3/Conv2d_2a_3x3/BatchNorm/moving_mean"
      }
    }
  }
  attr {
    key: "use_locking"
    value {
      b: false
    }
  }
}
node {
  name: "InceptionV3/InceptionV3/Conv2d_2a_3x3/BatchNorm/AssignMovingAvg_1/sub/x"
  op: "Const"
  attr {
    key: "_class"
    value {
      list {
        s: "loc:@InceptionV3/Conv2d_2a_3x3/BatchNorm/moving_variance"
      }
    }
  }
  attr {
    key: "dtype"
    value {
      type: DT_FLOAT
    }
  }
  attr {
    key: "value"
    value {
      tensor {
        dtype: DT_FLOAT
        tensor_shape {
        }
        float_val: 1.0
      }
    }
  }
}
node {
  name: "InceptionV3/InceptionV3/Conv2d_2a_3x3/BatchNorm/AssignMovingAvg_1/sub"
  op: "Sub"
  input: "InceptionV3/InceptionV3/Conv2d_2a_3x3/BatchNorm/AssignMovingAvg_1/sub/x"
  input: "InceptionV3/InceptionV3/Conv2d_2a_3x3/BatchNorm/Const_3"
  attr {
    key: "T"
    value {
      type: DT_FLOAT
    }
  }
  attr {
    key: "_class"
    value {
      list {
        s: "loc:@InceptionV3/Conv2d_2a_3x3/BatchNorm/moving_variance"
      }
    }
  }
}
node {
  name: "InceptionV3/InceptionV3/Conv2d_2a_3x3/BatchNorm/AssignMovingAvg_1/sub_1"
  op: "Sub"
  input: "InceptionV3/Conv2d_2a_3x3/BatchNorm/moving_variance/read"
  input: "InceptionV3/InceptionV3/Conv2d_2a_3x3/BatchNorm/FusedBatchNorm:2"
  attr {
    key: "T"
    value {
      type: DT_FLOAT
    }
  }
  attr {
    key: "_class"
    value {
      list {
        s: "loc:@InceptionV3/Conv2d_2a_3x3/BatchNorm/moving_variance"
      }
    }
  }
}
node {
  name: "InceptionV3/InceptionV3/Conv2d_2a_3x3/BatchNorm/AssignMovingAvg_1/mul"
  op: "Mul"
  input: "InceptionV3/InceptionV3/Conv2d_2a_3x3/BatchNorm/AssignMovingAvg_1/sub_1"
  input: "InceptionV3/InceptionV3/Conv2d_2a_3x3/BatchNorm/AssignMovingAvg_1/sub"
  attr {
    key: "T"
    value {
      type: DT_FLOAT
    }
  }
  attr {
    key: "_class"
    value {
      list {
        s: "loc:@InceptionV3/Conv2d_2a_3x3/BatchNorm/moving_variance"
      }
    }
  }
}
node {
  name: "InceptionV3/InceptionV3/Conv2d_2a_3x3/BatchNorm/AssignMovingAvg_1"
  op: "AssignSub"
  input: "InceptionV3/Conv2d_2a_3x3/BatchNorm/moving_variance"
  input: "InceptionV3/InceptionV3/Conv2d_2a_3x3/BatchNorm/AssignMovingAvg_1/mul"
  attr {
    key: "T"
    value {
      type: DT_FLOAT
    }
  }
  attr {
    key: "_class"
    value {
      list {
        s: "loc:@InceptionV3/Conv2d_2a_3x3/BatchNorm/moving_variance"
      }
    }
  }
  attr {
    key: "use_locking"
    value {
      b: false
    }
  }
}
node {
  name: "InceptionV3/InceptionV3/Conv2d_2a_3x3/Relu"
  op: "Relu"
  input: "InceptionV3/InceptionV3/Conv2d_2a_3x3/BatchNorm/FusedBatchNorm"
  attr {
    key: "T"
    value {
      type: DT_FLOAT
    }
  }
}
node {
  name: "InceptionV3/Conv2d_2b_3x3/weights/Initializer/truncated_normal/shape"
  op: "Const"
  attr {
    key: "_class"
    value {
      list {
        s: "loc:@InceptionV3/Conv2d_2b_3x3/weights"
      }
    }
  }
  attr {
    key: "dtype"
    value {
      type: DT_INT32
    }
  }
  attr {
    key: "value"
    value {
      tensor {
        dtype: DT_INT32
        tensor_shape {
          dim {
            size: 4
          }
        }
        tensor_content: "\003\000\000\000\003\000\000\000 \000\000\000@\000\000\000"
      }
    }
  }
}
node {
  name: "InceptionV3/Conv2d_2b_3x3/weights/Initializer/truncated_normal/mean"
  op: "Const"
  attr {
    key: "_class"
    value {
      list {
        s: "loc:@InceptionV3/Conv2d_2b_3x3/weights"
      }
    }
  }
  attr {
    key: "dtype"
    value {
      type: DT_FLOAT
    }
  }
  attr {
    key: "value"
    value {
      tensor {
        dtype: DT_FLOAT
        tensor_shape {
        }
        float_val: 0.0
      }
    }
  }
}
node {
  name: "InceptionV3/Conv2d_2b_3x3/weights/Initializer/truncated_normal/stddev"
  op: "Const"
  attr {
    key: "_class"
    value {
      list {
        s: "loc:@InceptionV3/Conv2d_2b_3x3/weights"
      }
    }
  }
  attr {
    key: "dtype"
    value {
      type: DT_FLOAT
    }
  }
  attr {
    key: "value"
    value {
      tensor {
        dtype: DT_FLOAT
        tensor_shape {
        }
        float_val: 0.09501461684703827
      }
    }
  }
}
node {
  name: "InceptionV3/Conv2d_2b_3x3/weights/Initializer/truncated_normal/TruncatedNormal"
  op: "TruncatedNormal"
  input: "InceptionV3/Conv2d_2b_3x3/weights/Initializer/truncated_normal/shape"
  attr {
    key: "T"
    value {
      type: DT_INT32
    }
  }
  attr {
    key: "_class"
    value {
      list {
        s: "loc:@InceptionV3/Conv2d_2b_3x3/weights"
      }
    }
  }
  attr {
    key: "dtype"
    value {
      type: DT_FLOAT
    }
  }
  attr {
    key: "seed"
    value {
      i: 0
    }
  }
  attr {
    key: "seed2"
    value {
      i: 0
    }
  }
}
node {
  name: "InceptionV3/Conv2d_2b_3x3/weights/Initializer/truncated_normal/mul"
  op: "Mul"
  input: "InceptionV3/Conv2d_2b_3x3/weights/Initializer/truncated_normal/TruncatedNormal"
  input: "InceptionV3/Conv2d_2b_3x3/weights/Initializer/truncated_normal/stddev"
  attr {
    key: "T"
    value {
      type: DT_FLOAT
    }
  }
  attr {
    key: "_class"
    value {
      list {
        s: "loc:@InceptionV3/Conv2d_2b_3x3/weights"
      }
    }
  }
}
node {
  name: "InceptionV3/Conv2d_2b_3x3/weights/Initializer/truncated_normal"
  op: "Add"
  input: "InceptionV3/Conv2d_2b_3x3/weights/Initializer/truncated_normal/mul"
  input: "InceptionV3/Conv2d_2b_3x3/weights/Initializer/truncated_normal/mean"
  attr {
    key: "T"
    value {
      type: DT_FLOAT
    }
  }
  attr {
    key: "_class"
    value {
      list {
        s: "loc:@InceptionV3/Conv2d_2b_3x3/weights"
      }
    }
  }
}
node {
  name: "InceptionV3/Conv2d_2b_3x3/weights"
  op: "VariableV2"
  attr {
    key: "_class"
    value {
      list {
        s: "loc:@InceptionV3/Conv2d_2b_3x3/weights"
      }
    }
  }
  attr {
    key: "container"
    value {
      s: ""
    }
  }
  attr {
    key: "dtype"
    value {
      type: DT_FLOAT
    }
  }
  attr {
    key: "shape"
    value {
      shape {
        dim {
          size: 3
        }
        dim {
          size: 3
        }
        dim {
          size: 32
        }
        dim {
          size: 64
        }
      }
    }
  }
  attr {
    key: "shared_name"
    value {
      s: ""
    }
  }
}
node {
  name: "InceptionV3/Conv2d_2b_3x3/weights/Assign"
  op: "Assign"
  input: "InceptionV3/Conv2d_2b_3x3/weights"
  input: "InceptionV3/Conv2d_2b_3x3/weights/Initializer/truncated_normal"
  attr {
    key: "T"
    value {
      type: DT_FLOAT
    }
  }
  attr {
    key: "_class"
    value {
      list {
        s: "loc:@InceptionV3/Conv2d_2b_3x3/weights"
      }
    }
  }
  attr {
    key: "use_locking"
    value {
      b: true
    }
  }
  attr {
    key: "validate_shape"
    value {
      b: true
    }
  }
}
node {
  name: "InceptionV3/Conv2d_2b_3x3/weights/read"
  op: "Identity"
  input: "InceptionV3/Conv2d_2b_3x3/weights"
  attr {
    key: "T"
    value {
      type: DT_FLOAT
    }
  }
  attr {
    key: "_class"
    value {
      list {
        s: "loc:@InceptionV3/Conv2d_2b_3x3/weights"
      }
    }
  }
}
node {
  name: "InceptionV3/InceptionV3/Conv2d_2b_3x3/dilation_rate"
  op: "Const"
  attr {
    key: "dtype"
    value {
      type: DT_INT32
    }
  }
  attr {
    key: "value"
    value {
      tensor {
        dtype: DT_INT32
        tensor_shape {
          dim {
            size: 2
          }
        }
        tensor_content: "\001\000\000\000\001\000\000\000"
      }
    }
  }
}
node {
  name: "InceptionV3/InceptionV3/Conv2d_2b_3x3/Conv2D"
  op: "Conv2D"
  input: "InceptionV3/InceptionV3/Conv2d_2a_3x3/Relu"
  input: "InceptionV3/Conv2d_2b_3x3/weights/read"
  attr {
    key: "T"
    value {
      type: DT_FLOAT
    }
  }
  attr {
    key: "data_format"
    value {
      s: "NHWC"
    }
  }
  attr {
    key: "dilations"
    value {
      list {
        i: 1
        i: 1
        i: 1
        i: 1
      }
    }
  }
  attr {
    key: "padding"
    value {
      s: "SAME"
    }
  }
  attr {
    key: "strides"
    value {
      list {
        i: 1
        i: 1
        i: 1
        i: 1
      }
    }
  }
  attr {
    key: "use_cudnn_on_gpu"
    value {
      b: true
    }
  }
}
node {
  name: "InceptionV3/InceptionV3/Conv2d_2b_3x3/BatchNorm/Const"
  op: "Const"
  attr {
    key: "dtype"
    value {
      type: DT_FLOAT
    }
  }
  attr {
    key: "value"
    value {
      tensor {
        dtype: DT_FLOAT
        tensor_shape {
          dim {
            size: 64
          }
        }
        float_val: 1.0
      }
    }
  }
}
node {
  name: "InceptionV3/Conv2d_2b_3x3/BatchNorm/beta/Initializer/zeros"
  op: "Const"
  attr {
    key: "_class"
    value {
      list {
        s: "loc:@InceptionV3/Conv2d_2b_3x3/BatchNorm/beta"
      }
    }
  }
  attr {
    key: "dtype"
    value {
      type: DT_FLOAT
    }
  }
  attr {
    key: "value"
    value {
      tensor {
        dtype: DT_FLOAT
        tensor_shape {
          dim {
            size: 64
          }
        }
        float_val: 0.0
      }
    }
  }
}
node {
  name: "InceptionV3/Conv2d_2b_3x3/BatchNorm/beta"
  op: "VariableV2"
  attr {
    key: "_class"
    value {
      list {
        s: "loc:@InceptionV3/Conv2d_2b_3x3/BatchNorm/beta"
      }
    }
  }
  attr {
    key: "container"
    value {
      s: ""
    }
  }
  attr {
    key: "dtype"
    value {
      type: DT_FLOAT
    }
  }
  attr {
    key: "shape"
    value {
      shape {
        dim {
          size: 64
        }
      }
    }
  }
  attr {
    key: "shared_name"
    value {
      s: ""
    }
  }
}
node {
  name: "InceptionV3/Conv2d_2b_3x3/BatchNorm/beta/Assign"
  op: "Assign"
  input: "InceptionV3/Conv2d_2b_3x3/BatchNorm/beta"
  input: "InceptionV3/Conv2d_2b_3x3/BatchNorm/beta/Initializer/zeros"
  attr {
    key: "T"
    value {
      type: DT_FLOAT
    }
  }
  attr {
    key: "_class"
    value {
      list {
        s: "loc:@InceptionV3/Conv2d_2b_3x3/BatchNorm/beta"
      }
    }
  }
  attr {
    key: "use_locking"
    value {
      b: true
    }
  }
  attr {
    key: "validate_shape"
    value {
      b: true
    }
  }
}
node {
  name: "InceptionV3/Conv2d_2b_3x3/BatchNorm/beta/read"
  op: "Identity"
  input: "InceptionV3/Conv2d_2b_3x3/BatchNorm/beta"
  attr {
    key: "T"
    value {
      type: DT_FLOAT
    }
  }
  attr {
    key: "_class"
    value {
      list {
        s: "loc:@InceptionV3/Conv2d_2b_3x3/BatchNorm/beta"
      }
    }
  }
}
node {
  name: "InceptionV3/Conv2d_2b_3x3/BatchNorm/moving_mean/Initializer/zeros"
  op: "Const"
  attr {
    key: "_class"
    value {
      list {
        s: "loc:@InceptionV3/Conv2d_2b_3x3/BatchNorm/moving_mean"
      }
    }
  }
  attr {
    key: "dtype"
    value {
      type: DT_FLOAT
    }
  }
  attr {
    key: "value"
    value {
      tensor {
        dtype: DT_FLOAT
        tensor_shape {
          dim {
            size: 64
          }
        }
        float_val: 0.0
      }
    }
  }
}
node {
  name: "InceptionV3/Conv2d_2b_3x3/BatchNorm/moving_mean"
  op: "VariableV2"
  attr {
    key: "_class"
    value {
      list {
        s: "loc:@InceptionV3/Conv2d_2b_3x3/BatchNorm/moving_mean"
      }
    }
  }
  attr {
    key: "container"
    value {
      s: ""
    }
  }
  attr {
    key: "dtype"
    value {
      type: DT_FLOAT
    }
  }
  attr {
    key: "shape"
    value {
      shape {
        dim {
          size: 64
        }
      }
    }
  }
  attr {
    key: "shared_name"
    value {
      s: ""
    }
  }
}
node {
  name: "InceptionV3/Conv2d_2b_3x3/BatchNorm/moving_mean/Assign"
  op: "Assign"
  input: "InceptionV3/Conv2d_2b_3x3/BatchNorm/moving_mean"
  input: "InceptionV3/Conv2d_2b_3x3/BatchNorm/moving_mean/Initializer/zeros"
  attr {
    key: "T"
    value {
      type: DT_FLOAT
    }
  }
  attr {
    key: "_class"
    value {
      list {
        s: "loc:@InceptionV3/Conv2d_2b_3x3/BatchNorm/moving_mean"
      }
    }
  }
  attr {
    key: "use_locking"
    value {
      b: true
    }
  }
  attr {
    key: "validate_shape"
    value {
      b: true
    }
  }
}
node {
  name: "InceptionV3/Conv2d_2b_3x3/BatchNorm/moving_mean/read"
  op: "Identity"
  input: "InceptionV3/Conv2d_2b_3x3/BatchNorm/moving_mean"
  attr {
    key: "T"
    value {
      type: DT_FLOAT
    }
  }
  attr {
    key: "_class"
    value {
      list {
        s: "loc:@InceptionV3/Conv2d_2b_3x3/BatchNorm/moving_mean"
      }
    }
  }
}
node {
  name: "InceptionV3/Conv2d_2b_3x3/BatchNorm/moving_variance/Initializer/ones"
  op: "Const"
  attr {
    key: "_class"
    value {
      list {
        s: "loc:@InceptionV3/Conv2d_2b_3x3/BatchNorm/moving_variance"
      }
    }
  }
  attr {
    key: "dtype"
    value {
      type: DT_FLOAT
    }
  }
  attr {
    key: "value"
    value {
      tensor {
        dtype: DT_FLOAT
        tensor_shape {
          dim {
            size: 64
          }
        }
        float_val: 1.0
      }
    }
  }
}
node {
  name: "InceptionV3/Conv2d_2b_3x3/BatchNorm/moving_variance"
  op: "VariableV2"
  attr {
    key: "_class"
    value {
      list {
        s: "loc:@InceptionV3/Conv2d_2b_3x3/BatchNorm/moving_variance"
      }
    }
  }
  attr {
    key: "container"
    value {
      s: ""
    }
  }
  attr {
    key: "dtype"
    value {
      type: DT_FLOAT
    }
  }
  attr {
    key: "shape"
    value {
      shape {
        dim {
          size: 64
        }
      }
    }
  }
  attr {
    key: "shared_name"
    value {
      s: ""
    }
  }
}
node {
  name: "InceptionV3/Conv2d_2b_3x3/BatchNorm/moving_variance/Assign"
  op: "Assign"
  input: "InceptionV3/Conv2d_2b_3x3/BatchNorm/moving_variance"
  input: "InceptionV3/Conv2d_2b_3x3/BatchNorm/moving_variance/Initializer/ones"
  attr {
    key: "T"
    value {
      type: DT_FLOAT
    }
  }
  attr {
    key: "_class"
    value {
      list {
        s: "loc:@InceptionV3/Conv2d_2b_3x3/BatchNorm/moving_variance"
      }
    }
  }
  attr {
    key: "use_locking"
    value {
      b: true
    }
  }
  attr {
    key: "validate_shape"
    value {
      b: true
    }
  }
}
node {
  name: "InceptionV3/Conv2d_2b_3x3/BatchNorm/moving_variance/read"
  op: "Identity"
  input: "InceptionV3/Conv2d_2b_3x3/BatchNorm/moving_variance"
  attr {
    key: "T"
    value {
      type: DT_FLOAT
    }
  }
  attr {
    key: "_class"
    value {
      list {
        s: "loc:@InceptionV3/Conv2d_2b_3x3/BatchNorm/moving_variance"
      }
    }
  }
}
node {
  name: "InceptionV3/InceptionV3/Conv2d_2b_3x3/BatchNorm/Const_1"
  op: "Const"
  attr {
    key: "dtype"
    value {
      type: DT_FLOAT
    }
  }
  attr {
    key: "value"
    value {
      tensor {
        dtype: DT_FLOAT
        tensor_shape {
          dim {
          }
        }
      }
    }
  }
}
node {
  name: "InceptionV3/InceptionV3/Conv2d_2b_3x3/BatchNorm/Const_2"
  op: "Const"
  attr {
    key: "dtype"
    value {
      type: DT_FLOAT
    }
  }
  attr {
    key: "value"
    value {
      tensor {
        dtype: DT_FLOAT
        tensor_shape {
          dim {
          }
        }
      }
    }
  }
}
node {
  name: "InceptionV3/InceptionV3/Conv2d_2b_3x3/BatchNorm/FusedBatchNorm"
  op: "FusedBatchNorm"
  input: "InceptionV3/InceptionV3/Conv2d_2b_3x3/Conv2D"
  input: "InceptionV3/InceptionV3/Conv2d_2b_3x3/BatchNorm/Const"
  input: "InceptionV3/Conv2d_2b_3x3/BatchNorm/beta/read"
  input: "InceptionV3/InceptionV3/Conv2d_2b_3x3/BatchNorm/Const_1"
  input: "InceptionV3/InceptionV3/Conv2d_2b_3x3/BatchNorm/Const_2"
  attr {
    key: "T"
    value {
      type: DT_FLOAT
    }
  }
  attr {
    key: "data_format"
    value {
      s: "NHWC"
    }
  }
  attr {
    key: "epsilon"
    value {
      f: 0.0010000000474974513
    }
  }
  attr {
    key: "is_training"
    value {
      b: true
    }
  }
}
node {
  name: "InceptionV3/InceptionV3/Conv2d_2b_3x3/BatchNorm/Const_3"
  op: "Const"
  attr {
    key: "dtype"
    value {
      type: DT_FLOAT
    }
  }
  attr {
    key: "value"
    value {
      tensor {
        dtype: DT_FLOAT
        tensor_shape {
        }
        float_val: 0.9997000098228455
      }
    }
  }
}
node {
  name: "InceptionV3/InceptionV3/Conv2d_2b_3x3/BatchNorm/AssignMovingAvg/sub/x"
  op: "Const"
  attr {
    key: "_class"
    value {
      list {
        s: "loc:@InceptionV3/Conv2d_2b_3x3/BatchNorm/moving_mean"
      }
    }
  }
  attr {
    key: "dtype"
    value {
      type: DT_FLOAT
    }
  }
  attr {
    key: "value"
    value {
      tensor {
        dtype: DT_FLOAT
        tensor_shape {
        }
        float_val: 1.0
      }
    }
  }
}
node {
  name: "InceptionV3/InceptionV3/Conv2d_2b_3x3/BatchNorm/AssignMovingAvg/sub"
  op: "Sub"
  input: "InceptionV3/InceptionV3/Conv2d_2b_3x3/BatchNorm/AssignMovingAvg/sub/x"
  input: "InceptionV3/InceptionV3/Conv2d_2b_3x3/BatchNorm/Const_3"
  attr {
    key: "T"
    value {
      type: DT_FLOAT
    }
  }
  attr {
    key: "_class"
    value {
      list {
        s: "loc:@InceptionV3/Conv2d_2b_3x3/BatchNorm/moving_mean"
      }
    }
  }
}
node {
  name: "InceptionV3/InceptionV3/Conv2d_2b_3x3/BatchNorm/AssignMovingAvg/sub_1"
  op: "Sub"
  input: "InceptionV3/Conv2d_2b_3x3/BatchNorm/moving_mean/read"
  input: "InceptionV3/InceptionV3/Conv2d_2b_3x3/BatchNorm/FusedBatchNorm:1"
  attr {
    key: "T"
    value {
      type: DT_FLOAT
    }
  }
  attr {
    key: "_class"
    value {
      list {
        s: "loc:@InceptionV3/Conv2d_2b_3x3/BatchNorm/moving_mean"
      }
    }
  }
}
node {
  name: "InceptionV3/InceptionV3/Conv2d_2b_3x3/BatchNorm/AssignMovingAvg/mul"
  op: "Mul"
  input: "InceptionV3/InceptionV3/Conv2d_2b_3x3/BatchNorm/AssignMovingAvg/sub_1"
  input: "InceptionV3/InceptionV3/Conv2d_2b_3x3/BatchNorm/AssignMovingAvg/sub"
  attr {
    key: "T"
    value {
      type: DT_FLOAT
    }
  }
  attr {
    key: "_class"
    value {
      list {
        s: "loc:@InceptionV3/Conv2d_2b_3x3/BatchNorm/moving_mean"
      }
    }
  }
}
node {
  name: "InceptionV3/InceptionV3/Conv2d_2b_3x3/BatchNorm/AssignMovingAvg"
  op: "AssignSub"
  input: "InceptionV3/Conv2d_2b_3x3/BatchNorm/moving_mean"
  input: "InceptionV3/InceptionV3/Conv2d_2b_3x3/BatchNorm/AssignMovingAvg/mul"
  attr {
    key: "T"
    value {
      type: DT_FLOAT
    }
  }
  attr {
    key: "_class"
    value {
      list {
        s: "loc:@InceptionV3/Conv2d_2b_3x3/BatchNorm/moving_mean"
      }
    }
  }
  attr {
    key: "use_locking"
    value {
      b: false
    }
  }
}
node {
  name: "InceptionV3/InceptionV3/Conv2d_2b_3x3/BatchNorm/AssignMovingAvg_1/sub/x"
  op: "Const"
  attr {
    key: "_class"
    value {
      list {
        s: "loc:@InceptionV3/Conv2d_2b_3x3/BatchNorm/moving_variance"
      }
    }
  }
  attr {
    key: "dtype"
    value {
      type: DT_FLOAT
    }
  }
  attr {
    key: "value"
    value {
      tensor {
        dtype: DT_FLOAT
        tensor_shape {
        }
        float_val: 1.0
      }
    }
  }
}
node {
  name: "InceptionV3/InceptionV3/Conv2d_2b_3x3/BatchNorm/AssignMovingAvg_1/sub"
  op: "Sub"
  input: "InceptionV3/InceptionV3/Conv2d_2b_3x3/BatchNorm/AssignMovingAvg_1/sub/x"
  input: "InceptionV3/InceptionV3/Conv2d_2b_3x3/BatchNorm/Const_3"
  attr {
    key: "T"
    value {
      type: DT_FLOAT
    }
  }
  attr {
    key: "_class"
    value {
      list {
        s: "loc:@InceptionV3/Conv2d_2b_3x3/BatchNorm/moving_variance"
      }
    }
  }
}
node {
  name: "InceptionV3/InceptionV3/Conv2d_2b_3x3/BatchNorm/AssignMovingAvg_1/sub_1"
  op: "Sub"
  input: "InceptionV3/Conv2d_2b_3x3/BatchNorm/moving_variance/read"
  input: "InceptionV3/InceptionV3/Conv2d_2b_3x3/BatchNorm/FusedBatchNorm:2"
  attr {
    key: "T"
    value {
      type: DT_FLOAT
    }
  }
  attr {
    key: "_class"
    value {
      list {
        s: "loc:@InceptionV3/Conv2d_2b_3x3/BatchNorm/moving_variance"
      }
    }
  }
}
node {
  name: "InceptionV3/InceptionV3/Conv2d_2b_3x3/BatchNorm/AssignMovingAvg_1/mul"
  op: "Mul"
  input: "InceptionV3/InceptionV3/Conv2d_2b_3x3/BatchNorm/AssignMovingAvg_1/sub_1"
  input: "InceptionV3/InceptionV3/Conv2d_2b_3x3/BatchNorm/AssignMovingAvg_1/sub"
  attr {
    key: "T"
    value {
      type: DT_FLOAT
    }
  }
  attr {
    key: "_class"
    value {
      list {
        s: "loc:@InceptionV3/Conv2d_2b_3x3/BatchNorm/moving_variance"
      }
    }
  }
}
node {
  name: "InceptionV3/InceptionV3/Conv2d_2b_3x3/BatchNorm/AssignMovingAvg_1"
  op: "AssignSub"
  input: "InceptionV3/Conv2d_2b_3x3/BatchNorm/moving_variance"
  input: "InceptionV3/InceptionV3/Conv2d_2b_3x3/BatchNorm/AssignMovingAvg_1/mul"
  attr {
    key: "T"
    value {
      type: DT_FLOAT
    }
  }
  attr {
    key: "_class"
    value {
      list {
        s: "loc:@InceptionV3/Conv2d_2b_3x3/BatchNorm/moving_variance"
      }
    }
  }
  attr {
    key: "use_locking"
    value {
      b: false
    }
  }
}
node {
  name: "InceptionV3/InceptionV3/Conv2d_2b_3x3/Relu"
  op: "Relu"
  input: "InceptionV3/InceptionV3/Conv2d_2b_3x3/BatchNorm/FusedBatchNorm"
  attr {
    key: "T"
    value {
      type: DT_FLOAT
    }
  }
}
node {
  name: "InceptionV3/InceptionV3/MaxPool_3a_3x3/MaxPool"
  op: "MaxPool"
  input: "InceptionV3/InceptionV3/Conv2d_2b_3x3/Relu"
  attr {
    key: "T"
    value {
      type: DT_FLOAT
    }
  }
  attr {
    key: "data_format"
    value {
      s: "NHWC"
    }
  }
  attr {
    key: "ksize"
    value {
      list {
        i: 1
        i: 3
        i: 3
        i: 1
      }
    }
  }
  attr {
    key: "padding"
    value {
      s: "VALID"
    }
  }
  attr {
    key: "strides"
    value {
      list {
        i: 1
        i: 2
        i: 2
        i: 1
      }
    }
  }
}
node {
  name: "InceptionV3/Conv2d_3b_1x1/weights/Initializer/truncated_normal/shape"
  op: "Const"
  attr {
    key: "_class"
    value {
      list {
        s: "loc:@InceptionV3/Conv2d_3b_1x1/weights"
      }
    }
  }
  attr {
    key: "dtype"
    value {
      type: DT_INT32
    }
  }
  attr {
    key: "value"
    value {
      tensor {
        dtype: DT_INT32
        tensor_shape {
          dim {
            size: 4
          }
        }
        tensor_content: "\001\000\000\000\001\000\000\000@\000\000\000P\000\000\000"
      }
    }
  }
}
node {
  name: "InceptionV3/Conv2d_3b_1x1/weights/Initializer/truncated_normal/mean"
  op: "Const"
  attr {
    key: "_class"
    value {
      list {
        s: "loc:@InceptionV3/Conv2d_3b_1x1/weights"
      }
    }
  }
  attr {
    key: "dtype"
    value {
      type: DT_FLOAT
    }
  }
  attr {
    key: "value"
    value {
      tensor {
        dtype: DT_FLOAT
        tensor_shape {
        }
        float_val: 0.0
      }
    }
  }
}
node {
  name: "InceptionV3/Conv2d_3b_1x1/weights/Initializer/truncated_normal/stddev"
  op: "Const"
  attr {
    key: "_class"
    value {
      list {
        s: "loc:@InceptionV3/Conv2d_3b_1x1/weights"
      }
    }
  }
  attr {
    key: "dtype"
    value {
      type: DT_FLOAT
    }
  }
  attr {
    key: "value"
    value {
      tensor {
        dtype: DT_FLOAT
        tensor_shape {
        }
        float_val: 0.20155644416809082
      }
    }
  }
}
node {
  name: "InceptionV3/Conv2d_3b_1x1/weights/Initializer/truncated_normal/TruncatedNormal"
  op: "TruncatedNormal"
  input: "InceptionV3/Conv2d_3b_1x1/weights/Initializer/truncated_normal/shape"
  attr {
    key: "T"
    value {
      type: DT_INT32
    }
  }
  attr {
    key: "_class"
    value {
      list {
        s: "loc:@InceptionV3/Conv2d_3b_1x1/weights"
      }
    }
  }
  attr {
    key: "dtype"
    value {
      type: DT_FLOAT
    }
  }
  attr {
    key: "seed"
    value {
      i: 0
    }
  }
  attr {
    key: "seed2"
    value {
      i: 0
    }
  }
}
node {
  name: "InceptionV3/Conv2d_3b_1x1/weights/Initializer/truncated_normal/mul"
  op: "Mul"
  input: "InceptionV3/Conv2d_3b_1x1/weights/Initializer/truncated_normal/TruncatedNormal"
  input: "InceptionV3/Conv2d_3b_1x1/weights/Initializer/truncated_normal/stddev"
  attr {
    key: "T"
    value {
      type: DT_FLOAT
    }
  }
  attr {
    key: "_class"
    value {
      list {
        s: "loc:@InceptionV3/Conv2d_3b_1x1/weights"
      }
    }
  }
}
node {
  name: "InceptionV3/Conv2d_3b_1x1/weights/Initializer/truncated_normal"
  op: "Add"
  input: "InceptionV3/Conv2d_3b_1x1/weights/Initializer/truncated_normal/mul"
  input: "InceptionV3/Conv2d_3b_1x1/weights/Initializer/truncated_normal/mean"
  attr {
    key: "T"
    value {
      type: DT_FLOAT
    }
  }
  attr {
    key: "_class"
    value {
      list {
        s: "loc:@InceptionV3/Conv2d_3b_1x1/weights"
      }
    }
  }
}
node {
  name: "InceptionV3/Conv2d_3b_1x1/weights"
  op: "VariableV2"
  attr {
    key: "_class"
    value {
      list {
        s: "loc:@InceptionV3/Conv2d_3b_1x1/weights"
      }
    }
  }
  attr {
    key: "container"
    value {
      s: ""
    }
  }
  attr {
    key: "dtype"
    value {
      type: DT_FLOAT
    }
  }
  attr {
    key: "shape"
    value {
      shape {
        dim {
          size: 1
        }
        dim {
          size: 1
        }
        dim {
          size: 64
        }
        dim {
          size: 80
        }
      }
    }
  }
  attr {
    key: "shared_name"
    value {
      s: ""
    }
  }
}
node {
  name: "InceptionV3/Conv2d_3b_1x1/weights/Assign"
  op: "Assign"
  input: "InceptionV3/Conv2d_3b_1x1/weights"
  input: "InceptionV3/Conv2d_3b_1x1/weights/Initializer/truncated_normal"
  attr {
    key: "T"
    value {
      type: DT_FLOAT
    }
  }
  attr {
    key: "_class"
    value {
      list {
        s: "loc:@InceptionV3/Conv2d_3b_1x1/weights"
      }
    }
  }
  attr {
    key: "use_locking"
    value {
      b: true
    }
  }
  attr {
    key: "validate_shape"
    value {
      b: true
    }
  }
}
node {
  name: "InceptionV3/Conv2d_3b_1x1/weights/read"
  op: "Identity"
  input: "InceptionV3/Conv2d_3b_1x1/weights"
  attr {
    key: "T"
    value {
      type: DT_FLOAT
    }
  }
  attr {
    key: "_class"
    value {
      list {
        s: "loc:@InceptionV3/Conv2d_3b_1x1/weights"
      }
    }
  }
}
node {
  name: "InceptionV3/InceptionV3/Conv2d_3b_1x1/dilation_rate"
  op: "Const"
  attr {
    key: "dtype"
    value {
      type: DT_INT32
    }
  }
  attr {
    key: "value"
    value {
      tensor {
        dtype: DT_INT32
        tensor_shape {
          dim {
            size: 2
          }
        }
        tensor_content: "\001\000\000\000\001\000\000\000"
      }
    }
  }
}
node {
  name: "InceptionV3/InceptionV3/Conv2d_3b_1x1/Conv2D"
  op: "Conv2D"
  input: "InceptionV3/InceptionV3/MaxPool_3a_3x3/MaxPool"
  input: "InceptionV3/Conv2d_3b_1x1/weights/read"
  attr {
    key: "T"
    value {
      type: DT_FLOAT
    }
  }
  attr {
    key: "data_format"
    value {
      s: "NHWC"
    }
  }
  attr {
    key: "dilations"
    value {
      list {
        i: 1
        i: 1
        i: 1
        i: 1
      }
    }
  }
  attr {
    key: "padding"
    value {
      s: "VALID"
    }
  }
  attr {
    key: "strides"
    value {
      list {
        i: 1
        i: 1
        i: 1
        i: 1
      }
    }
  }
  attr {
    key: "use_cudnn_on_gpu"
    value {
      b: true
    }
  }
}
node {
  name: "InceptionV3/InceptionV3/Conv2d_3b_1x1/BatchNorm/Const"
  op: "Const"
  attr {
    key: "dtype"
    value {
      type: DT_FLOAT
    }
  }
  attr {
    key: "value"
    value {
      tensor {
        dtype: DT_FLOAT
        tensor_shape {
          dim {
            size: 80
          }
        }
        float_val: 1.0
      }
    }
  }
}
node {
  name: "InceptionV3/Conv2d_3b_1x1/BatchNorm/beta/Initializer/zeros"
  op: "Const"
  attr {
    key: "_class"
    value {
      list {
        s: "loc:@InceptionV3/Conv2d_3b_1x1/BatchNorm/beta"
      }
    }
  }
  attr {
    key: "dtype"
    value {
      type: DT_FLOAT
    }
  }
  attr {
    key: "value"
    value {
      tensor {
        dtype: DT_FLOAT
        tensor_shape {
          dim {
            size: 80
          }
        }
        float_val: 0.0
      }
    }
  }
}
node {
  name: "InceptionV3/Conv2d_3b_1x1/BatchNorm/beta"
  op: "VariableV2"
  attr {
    key: "_class"
    value {
      list {
        s: "loc:@InceptionV3/Conv2d_3b_1x1/BatchNorm/beta"
      }
    }
  }
  attr {
    key: "container"
    value {
      s: ""
    }
  }
  attr {
    key: "dtype"
    value {
      type: DT_FLOAT
    }
  }
  attr {
    key: "shape"
    value {
      shape {
        dim {
          size: 80
        }
      }
    }
  }
  attr {
    key: "shared_name"
    value {
      s: ""
    }
  }
}
node {
  name: "InceptionV3/Conv2d_3b_1x1/BatchNorm/beta/Assign"
  op: "Assign"
  input: "InceptionV3/Conv2d_3b_1x1/BatchNorm/beta"
  input: "InceptionV3/Conv2d_3b_1x1/BatchNorm/beta/Initializer/zeros"
  attr {
    key: "T"
    value {
      type: DT_FLOAT
    }
  }
  attr {
    key: "_class"
    value {
      list {
        s: "loc:@InceptionV3/Conv2d_3b_1x1/BatchNorm/beta"
      }
    }
  }
  attr {
    key: "use_locking"
    value {
      b: true
    }
  }
  attr {
    key: "validate_shape"
    value {
      b: true
    }
  }
}
node {
  name: "InceptionV3/Conv2d_3b_1x1/BatchNorm/beta/read"
  op: "Identity"
  input: "InceptionV3/Conv2d_3b_1x1/BatchNorm/beta"
  attr {
    key: "T"
    value {
      type: DT_FLOAT
    }
  }
  attr {
    key: "_class"
    value {
      list {
        s: "loc:@InceptionV3/Conv2d_3b_1x1/BatchNorm/beta"
      }
    }
  }
}
node {
  name: "InceptionV3/Conv2d_3b_1x1/BatchNorm/moving_mean/Initializer/zeros"
  op: "Const"
  attr {
    key: "_class"
    value {
      list {
        s: "loc:@InceptionV3/Conv2d_3b_1x1/BatchNorm/moving_mean"
      }
    }
  }
  attr {
    key: "dtype"
    value {
      type: DT_FLOAT
    }
  }
  attr {
    key: "value"
    value {
      tensor {
        dtype: DT_FLOAT
        tensor_shape {
          dim {
            size: 80
          }
        }
        float_val: 0.0
      }
    }
  }
}
node {
  name: "InceptionV3/Conv2d_3b_1x1/BatchNorm/moving_mean"
  op: "VariableV2"
  attr {
    key: "_class"
    value {
      list {
        s: "loc:@InceptionV3/Conv2d_3b_1x1/BatchNorm/moving_mean"
      }
    }
  }
  attr {
    key: "container"
    value {
      s: ""
    }
  }
  attr {
    key: "dtype"
    value {
      type: DT_FLOAT
    }
  }
  attr {
    key: "shape"
    value {
      shape {
        dim {
          size: 80
        }
      }
    }
  }
  attr {
    key: "shared_name"
    value {
      s: ""
    }
  }
}
node {
  name: "InceptionV3/Conv2d_3b_1x1/BatchNorm/moving_mean/Assign"
  op: "Assign"
  input: "InceptionV3/Conv2d_3b_1x1/BatchNorm/moving_mean"
  input: "InceptionV3/Conv2d_3b_1x1/BatchNorm/moving_mean/Initializer/zeros"
  attr {
    key: "T"
    value {
      type: DT_FLOAT
    }
  }
  attr {
    key: "_class"
    value {
      list {
        s: "loc:@InceptionV3/Conv2d_3b_1x1/BatchNorm/moving_mean"
      }
    }
  }
  attr {
    key: "use_locking"
    value {
      b: true
    }
  }
  attr {
    key: "validate_shape"
    value {
      b: true
    }
  }
}
node {
  name: "InceptionV3/Conv2d_3b_1x1/BatchNorm/moving_mean/read"
  op: "Identity"
  input: "InceptionV3/Conv2d_3b_1x1/BatchNorm/moving_mean"
  attr {
    key: "T"
    value {
      type: DT_FLOAT
    }
  }
  attr {
    key: "_class"
    value {
      list {
        s: "loc:@InceptionV3/Conv2d_3b_1x1/BatchNorm/moving_mean"
      }
    }
  }
}
node {
  name: "InceptionV3/Conv2d_3b_1x1/BatchNorm/moving_variance/Initializer/ones"
  op: "Const"
  attr {
    key: "_class"
    value {
      list {
        s: "loc:@InceptionV3/Conv2d_3b_1x1/BatchNorm/moving_variance"
      }
    }
  }
  attr {
    key: "dtype"
    value {
      type: DT_FLOAT
    }
  }
  attr {
    key: "value"
    value {
      tensor {
        dtype: DT_FLOAT
        tensor_shape {
          dim {
            size: 80
          }
        }
        float_val: 1.0
      }
    }
  }
}
node {
  name: "InceptionV3/Conv2d_3b_1x1/BatchNorm/moving_variance"
  op: "VariableV2"
  attr {
    key: "_class"
    value {
      list {
        s: "loc:@InceptionV3/Conv2d_3b_1x1/BatchNorm/moving_variance"
      }
    }
  }
  attr {
    key: "container"
    value {
      s: ""
    }
  }
  attr {
    key: "dtype"
    value {
      type: DT_FLOAT
    }
  }
  attr {
    key: "shape"
    value {
      shape {
        dim {
          size: 80
        }
      }
    }
  }
  attr {
    key: "shared_name"
    value {
      s: ""
    }
  }
}
node {
  name: "InceptionV3/Conv2d_3b_1x1/BatchNorm/moving_variance/Assign"
  op: "Assign"
  input: "InceptionV3/Conv2d_3b_1x1/BatchNorm/moving_variance"
  input: "InceptionV3/Conv2d_3b_1x1/BatchNorm/moving_variance/Initializer/ones"
  attr {
    key: "T"
    value {
      type: DT_FLOAT
    }
  }
  attr {
    key: "_class"
    value {
      list {
        s: "loc:@InceptionV3/Conv2d_3b_1x1/BatchNorm/moving_variance"
      }
    }
  }
  attr {
    key: "use_locking"
    value {
      b: true
    }
  }
  attr {
    key: "validate_shape"
    value {
      b: true
    }
  }
}
node {
  name: "InceptionV3/Conv2d_3b_1x1/BatchNorm/moving_variance/read"
  op: "Identity"
  input: "InceptionV3/Conv2d_3b_1x1/BatchNorm/moving_variance"
  attr {
    key: "T"
    value {
      type: DT_FLOAT
    }
  }
  attr {
    key: "_class"
    value {
      list {
        s: "loc:@InceptionV3/Conv2d_3b_1x1/BatchNorm/moving_variance"
      }
    }
  }
}
node {
  name: "InceptionV3/InceptionV3/Conv2d_3b_1x1/BatchNorm/Const_1"
  op: "Const"
  attr {
    key: "dtype"
    value {
      type: DT_FLOAT
    }
  }
  attr {
    key: "value"
    value {
      tensor {
        dtype: DT_FLOAT
        tensor_shape {
          dim {
          }
        }
      }
    }
  }
}
node {
  name: "InceptionV3/InceptionV3/Conv2d_3b_1x1/BatchNorm/Const_2"
  op: "Const"
  attr {
    key: "dtype"
    value {
      type: DT_FLOAT
    }
  }
  attr {
    key: "value"
    value {
      tensor {
        dtype: DT_FLOAT
        tensor_shape {
          dim {
          }
        }
      }
    }
  }
}
node {
  name: "InceptionV3/InceptionV3/Conv2d_3b_1x1/BatchNorm/FusedBatchNorm"
  op: "FusedBatchNorm"
  input: "InceptionV3/InceptionV3/Conv2d_3b_1x1/Conv2D"
  input: "InceptionV3/InceptionV3/Conv2d_3b_1x1/BatchNorm/Const"
  input: "InceptionV3/Conv2d_3b_1x1/BatchNorm/beta/read"
  input: "InceptionV3/InceptionV3/Conv2d_3b_1x1/BatchNorm/Const_1"
  input: "InceptionV3/InceptionV3/Conv2d_3b_1x1/BatchNorm/Const_2"
  attr {
    key: "T"
    value {
      type: DT_FLOAT
    }
  }
  attr {
    key: "data_format"
    value {
      s: "NHWC"
    }
  }
  attr {
    key: "epsilon"
    value {
      f: 0.0010000000474974513
    }
  }
  attr {
    key: "is_training"
    value {
      b: true
    }
  }
}
node {
  name: "InceptionV3/InceptionV3/Conv2d_3b_1x1/BatchNorm/Const_3"
  op: "Const"
  attr {
    key: "dtype"
    value {
      type: DT_FLOAT
    }
  }
  attr {
    key: "value"
    value {
      tensor {
        dtype: DT_FLOAT
        tensor_shape {
        }
        float_val: 0.9997000098228455
      }
    }
  }
}
node {
  name: "InceptionV3/InceptionV3/Conv2d_3b_1x1/BatchNorm/AssignMovingAvg/sub/x"
  op: "Const"
  attr {
    key: "_class"
    value {
      list {
        s: "loc:@InceptionV3/Conv2d_3b_1x1/BatchNorm/moving_mean"
      }
    }
  }
  attr {
    key: "dtype"
    value {
      type: DT_FLOAT
    }
  }
  attr {
    key: "value"
    value {
      tensor {
        dtype: DT_FLOAT
        tensor_shape {
        }
        float_val: 1.0
      }
    }
  }
}
node {
  name: "InceptionV3/InceptionV3/Conv2d_3b_1x1/BatchNorm/AssignMovingAvg/sub"
  op: "Sub"
  input: "InceptionV3/InceptionV3/Conv2d_3b_1x1/BatchNorm/AssignMovingAvg/sub/x"
  input: "InceptionV3/InceptionV3/Conv2d_3b_1x1/BatchNorm/Const_3"
  attr {
    key: "T"
    value {
      type: DT_FLOAT
    }
  }
  attr {
    key: "_class"
    value {
      list {
        s: "loc:@InceptionV3/Conv2d_3b_1x1/BatchNorm/moving_mean"
      }
    }
  }
}
node {
  name: "InceptionV3/InceptionV3/Conv2d_3b_1x1/BatchNorm/AssignMovingAvg/sub_1"
  op: "Sub"
  input: "InceptionV3/Conv2d_3b_1x1/BatchNorm/moving_mean/read"
  input: "InceptionV3/InceptionV3/Conv2d_3b_1x1/BatchNorm/FusedBatchNorm:1"
  attr {
    key: "T"
    value {
      type: DT_FLOAT
    }
  }
  attr {
    key: "_class"
    value {
      list {
        s: "loc:@InceptionV3/Conv2d_3b_1x1/BatchNorm/moving_mean"
      }
    }
  }
}
node {
  name: "InceptionV3/InceptionV3/Conv2d_3b_1x1/BatchNorm/AssignMovingAvg/mul"
  op: "Mul"
  input: "InceptionV3/InceptionV3/Conv2d_3b_1x1/BatchNorm/AssignMovingAvg/sub_1"
  input: "InceptionV3/InceptionV3/Conv2d_3b_1x1/BatchNorm/AssignMovingAvg/sub"
  attr {
    key: "T"
    value {
      type: DT_FLOAT
    }
  }
  attr {
    key: "_class"
    value {
      list {
        s: "loc:@InceptionV3/Conv2d_3b_1x1/BatchNorm/moving_mean"
      }
    }
  }
}
node {
  name: "InceptionV3/InceptionV3/Conv2d_3b_1x1/BatchNorm/AssignMovingAvg"
  op: "AssignSub"
  input: "InceptionV3/Conv2d_3b_1x1/BatchNorm/moving_mean"
  input: "InceptionV3/InceptionV3/Conv2d_3b_1x1/BatchNorm/AssignMovingAvg/mul"
  attr {
    key: "T"
    value {
      type: DT_FLOAT
    }
  }
  attr {
    key: "_class"
    value {
      list {
        s: "loc:@InceptionV3/Conv2d_3b_1x1/BatchNorm/moving_mean"
      }
    }
  }
  attr {
    key: "use_locking"
    value {
      b: false
    }
  }
}
node {
  name: "InceptionV3/InceptionV3/Conv2d_3b_1x1/BatchNorm/AssignMovingAvg_1/sub/x"
  op: "Const"
  attr {
    key: "_class"
    value {
      list {
        s: "loc:@InceptionV3/Conv2d_3b_1x1/BatchNorm/moving_variance"
      }
    }
  }
  attr {
    key: "dtype"
    value {
      type: DT_FLOAT
    }
  }
  attr {
    key: "value"
    value {
      tensor {
        dtype: DT_FLOAT
        tensor_shape {
        }
        float_val: 1.0
      }
    }
  }
}
node {
  name: "InceptionV3/InceptionV3/Conv2d_3b_1x1/BatchNorm/AssignMovingAvg_1/sub"
  op: "Sub"
  input: "InceptionV3/InceptionV3/Conv2d_3b_1x1/BatchNorm/AssignMovingAvg_1/sub/x"
  input: "InceptionV3/InceptionV3/Conv2d_3b_1x1/BatchNorm/Const_3"
  attr {
    key: "T"
    value {
      type: DT_FLOAT
    }
  }
  attr {
    key: "_class"
    value {
      list {
        s: "loc:@InceptionV3/Conv2d_3b_1x1/BatchNorm/moving_variance"
      }
    }
  }
}
node {
  name: "InceptionV3/InceptionV3/Conv2d_3b_1x1/BatchNorm/AssignMovingAvg_1/sub_1"
  op: "Sub"
  input: "InceptionV3/Conv2d_3b_1x1/BatchNorm/moving_variance/read"
  input: "InceptionV3/InceptionV3/Conv2d_3b_1x1/BatchNorm/FusedBatchNorm:2"
  attr {
    key: "T"
    value {
      type: DT_FLOAT
    }
  }
  attr {
    key: "_class"
    value {
      list {
        s: "loc:@InceptionV3/Conv2d_3b_1x1/BatchNorm/moving_variance"
      }
    }
  }
}
node {
  name: "InceptionV3/InceptionV3/Conv2d_3b_1x1/BatchNorm/AssignMovingAvg_1/mul"
  op: "Mul"
  input: "InceptionV3/InceptionV3/Conv2d_3b_1x1/BatchNorm/AssignMovingAvg_1/sub_1"
  input: "InceptionV3/InceptionV3/Conv2d_3b_1x1/BatchNorm/AssignMovingAvg_1/sub"
  attr {
    key: "T"
    value {
      type: DT_FLOAT
    }
  }
  attr {
    key: "_class"
    value {
      list {
        s: "loc:@InceptionV3/Conv2d_3b_1x1/BatchNorm/moving_variance"
      }
    }
  }
}
node {
  name: "InceptionV3/InceptionV3/Conv2d_3b_1x1/BatchNorm/AssignMovingAvg_1"
  op: "AssignSub"
  input: "InceptionV3/Conv2d_3b_1x1/BatchNorm/moving_variance"
  input: "InceptionV3/InceptionV3/Conv2d_3b_1x1/BatchNorm/AssignMovingAvg_1/mul"
  attr {
    key: "T"
    value {
      type: DT_FLOAT
    }
  }
  attr {
    key: "_class"
    value {
      list {
        s: "loc:@InceptionV3/Conv2d_3b_1x1/BatchNorm/moving_variance"
      }
    }
  }
  attr {
    key: "use_locking"
    value {
      b: false
    }
  }
}
node {
  name: "InceptionV3/InceptionV3/Conv2d_3b_1x1/Relu"
  op: "Relu"
  input: "InceptionV3/InceptionV3/Conv2d_3b_1x1/BatchNorm/FusedBatchNorm"
  attr {
    key: "T"
    value {
      type: DT_FLOAT
    }
  }
}
node {
  name: "InceptionV3/Conv2d_4a_3x3/weights/Initializer/truncated_normal/shape"
  op: "Const"
  attr {
    key: "_class"
    value {
      list {
        s: "loc:@InceptionV3/Conv2d_4a_3x3/weights"
      }
    }
  }
  attr {
    key: "dtype"
    value {
      type: DT_INT32
    }
  }
  attr {
    key: "value"
    value {
      tensor {
        dtype: DT_INT32
        tensor_shape {
          dim {
            size: 4
          }
        }
        tensor_content: "\003\000\000\000\003\000\000\000P\000\000\000\300\000\000\000"
      }
    }
  }
}
node {
  name: "InceptionV3/Conv2d_4a_3x3/weights/Initializer/truncated_normal/mean"
  op: "Const"
  attr {
    key: "_class"
    value {
      list {
        s: "loc:@InceptionV3/Conv2d_4a_3x3/weights"
      }
    }
  }
  attr {
    key: "dtype"
    value {
      type: DT_FLOAT
    }
  }
  attr {
    key: "value"
    value {
      tensor {
        dtype: DT_FLOAT
        tensor_shape {
        }
        float_val: 0.0
      }
    }
  }
}
node {
  name: "InceptionV3/Conv2d_4a_3x3/weights/Initializer/truncated_normal/stddev"
  op: "Const"
  attr {
    key: "_class"
    value {
      list {
        s: "loc:@InceptionV3/Conv2d_4a_3x3/weights"
      }
    }
  }
  attr {
    key: "dtype"
    value {
      type: DT_FLOAT
    }
  }
  attr {
    key: "value"
    value {
      tensor {
        dtype: DT_FLOAT
        tensor_shape {
        }
        float_val: 0.06009251996874809
      }
    }
  }
}
node {
  name: "InceptionV3/Conv2d_4a_3x3/weights/Initializer/truncated_normal/TruncatedNormal"
  op: "TruncatedNormal"
  input: "InceptionV3/Conv2d_4a_3x3/weights/Initializer/truncated_normal/shape"
  attr {
    key: "T"
    value {
      type: DT_INT32
    }
  }
  attr {
    key: "_class"
    value {
      list {
        s: "loc:@InceptionV3/Conv2d_4a_3x3/weights"
      }
    }
  }
  attr {
    key: "dtype"
    value {
      type: DT_FLOAT
    }
  }
  attr {
    key: "seed"
    value {
      i: 0
    }
  }
  attr {
    key: "seed2"
    value {
      i: 0
    }
  }
}
node {
  name: "InceptionV3/Conv2d_4a_3x3/weights/Initializer/truncated_normal/mul"
  op: "Mul"
  input: "InceptionV3/Conv2d_4a_3x3/weights/Initializer/truncated_normal/TruncatedNormal"
  input: "InceptionV3/Conv2d_4a_3x3/weights/Initializer/truncated_normal/stddev"
  attr {
    key: "T"
    value {
      type: DT_FLOAT
    }
  }
  attr {
    key: "_class"
    value {
      list {
        s: "loc:@InceptionV3/Conv2d_4a_3x3/weights"
      }
    }
  }
}
node {
  name: "InceptionV3/Conv2d_4a_3x3/weights/Initializer/truncated_normal"
  op: "Add"
  input: "InceptionV3/Conv2d_4a_3x3/weights/Initializer/truncated_normal/mul"
  input: "InceptionV3/Conv2d_4a_3x3/weights/Initializer/truncated_normal/mean"
  attr {
    key: "T"
    value {
      type: DT_FLOAT
    }
  }
  attr {
    key: "_class"
    value {
      list {
        s: "loc:@InceptionV3/Conv2d_4a_3x3/weights"
      }
    }
  }
}
node {
  name: "InceptionV3/Conv2d_4a_3x3/weights"
  op: "VariableV2"
  attr {
    key: "_class"
    value {
      list {
        s: "loc:@InceptionV3/Conv2d_4a_3x3/weights"
      }
    }
  }
  attr {
    key: "container"
    value {
      s: ""
    }
  }
  attr {
    key: "dtype"
    value {
      type: DT_FLOAT
    }
  }
  attr {
    key: "shape"
    value {
      shape {
        dim {
          size: 3
        }
        dim {
          size: 3
        }
        dim {
          size: 80
        }
        dim {
          size: 192
        }
      }
    }
  }
  attr {
    key: "shared_name"
    value {
      s: ""
    }
  }
}
node {
  name: "InceptionV3/Conv2d_4a_3x3/weights/Assign"
  op: "Assign"
  input: "InceptionV3/Conv2d_4a_3x3/weights"
  input: "InceptionV3/Conv2d_4a_3x3/weights/Initializer/truncated_normal"
  attr {
    key: "T"
    value {
      type: DT_FLOAT
    }
  }
  attr {
    key: "_class"
    value {
      list {
        s: "loc:@InceptionV3/Conv2d_4a_3x3/weights"
      }
    }
  }
  attr {
    key: "use_locking"
    value {
      b: true
    }
  }
  attr {
    key: "validate_shape"
    value {
      b: true
    }
  }
}
node {
  name: "InceptionV3/Conv2d_4a_3x3/weights/read"
  op: "Identity"
  input: "InceptionV3/Conv2d_4a_3x3/weights"
  attr {
    key: "T"
    value {
      type: DT_FLOAT
    }
  }
  attr {
    key: "_class"
    value {
      list {
        s: "loc:@InceptionV3/Conv2d_4a_3x3/weights"
      }
    }
  }
}
node {
  name: "InceptionV3/InceptionV3/Conv2d_4a_3x3/dilation_rate"
  op: "Const"
  attr {
    key: "dtype"
    value {
      type: DT_INT32
    }
  }
  attr {
    key: "value"
    value {
      tensor {
        dtype: DT_INT32
        tensor_shape {
          dim {
            size: 2
          }
        }
        tensor_content: "\001\000\000\000\001\000\000\000"
      }
    }
  }
}
node {
  name: "InceptionV3/InceptionV3/Conv2d_4a_3x3/Conv2D"
  op: "Conv2D"
  input: "InceptionV3/InceptionV3/Conv2d_3b_1x1/Relu"
  input: "InceptionV3/Conv2d_4a_3x3/weights/read"
  attr {
    key: "T"
    value {
      type: DT_FLOAT
    }
  }
  attr {
    key: "data_format"
    value {
      s: "NHWC"
    }
  }
  attr {
    key: "dilations"
    value {
      list {
        i: 1
        i: 1
        i: 1
        i: 1
      }
    }
  }
  attr {
    key: "padding"
    value {
      s: "VALID"
    }
  }
  attr {
    key: "strides"
    value {
      list {
        i: 1
        i: 1
        i: 1
        i: 1
      }
    }
  }
  attr {
    key: "use_cudnn_on_gpu"
    value {
      b: true
    }
  }
}
node {
  name: "InceptionV3/InceptionV3/Conv2d_4a_3x3/BatchNorm/Const"
  op: "Const"
  attr {
    key: "dtype"
    value {
      type: DT_FLOAT
    }
  }
  attr {
    key: "value"
    value {
      tensor {
        dtype: DT_FLOAT
        tensor_shape {
          dim {
            size: 192
          }
        }
        float_val: 1.0
      }
    }
  }
}
node {
  name: "InceptionV3/Conv2d_4a_3x3/BatchNorm/beta/Initializer/zeros"
  op: "Const"
  attr {
    key: "_class"
    value {
      list {
        s: "loc:@InceptionV3/Conv2d_4a_3x3/BatchNorm/beta"
      }
    }
  }
  attr {
    key: "dtype"
    value {
      type: DT_FLOAT
    }
  }
  attr {
    key: "value"
    value {
      tensor {
        dtype: DT_FLOAT
        tensor_shape {
          dim {
            size: 192
          }
        }
        float_val: 0.0
      }
    }
  }
}
node {
  name: "InceptionV3/Conv2d_4a_3x3/BatchNorm/beta"
  op: "VariableV2"
  attr {
    key: "_class"
    value {
      list {
        s: "loc:@InceptionV3/Conv2d_4a_3x3/BatchNorm/beta"
      }
    }
  }
  attr {
    key: "container"
    value {
      s: ""
    }
  }
  attr {
    key: "dtype"
    value {
      type: DT_FLOAT
    }
  }
  attr {
    key: "shape"
    value {
      shape {
        dim {
          size: 192
        }
      }
    }
  }
  attr {
    key: "shared_name"
    value {
      s: ""
    }
  }
}
node {
  name: "InceptionV3/Conv2d_4a_3x3/BatchNorm/beta/Assign"
  op: "Assign"
  input: "InceptionV3/Conv2d_4a_3x3/BatchNorm/beta"
  input: "InceptionV3/Conv2d_4a_3x3/BatchNorm/beta/Initializer/zeros"
  attr {
    key: "T"
    value {
      type: DT_FLOAT
    }
  }
  attr {
    key: "_class"
    value {
      list {
        s: "loc:@InceptionV3/Conv2d_4a_3x3/BatchNorm/beta"
      }
    }
  }
  attr {
    key: "use_locking"
    value {
      b: true
    }
  }
  attr {
    key: "validate_shape"
    value {
      b: true
    }
  }
}
node {
  name: "InceptionV3/Conv2d_4a_3x3/BatchNorm/beta/read"
  op: "Identity"
  input: "InceptionV3/Conv2d_4a_3x3/BatchNorm/beta"
  attr {
    key: "T"
    value {
      type: DT_FLOAT
    }
  }
  attr {
    key: "_class"
    value {
      list {
        s: "loc:@InceptionV3/Conv2d_4a_3x3/BatchNorm/beta"
      }
    }
  }
}
node {
  name: "InceptionV3/Conv2d_4a_3x3/BatchNorm/moving_mean/Initializer/zeros"
  op: "Const"
  attr {
    key: "_class"
    value {
      list {
        s: "loc:@InceptionV3/Conv2d_4a_3x3/BatchNorm/moving_mean"
      }
    }
  }
  attr {
    key: "dtype"
    value {
      type: DT_FLOAT
    }
  }
  attr {
    key: "value"
    value {
      tensor {
        dtype: DT_FLOAT
        tensor_shape {
          dim {
            size: 192
          }
        }
        float_val: 0.0
      }
    }
  }
}
node {
  name: "InceptionV3/Conv2d_4a_3x3/BatchNorm/moving_mean"
  op: "VariableV2"
  attr {
    key: "_class"
    value {
      list {
        s: "loc:@InceptionV3/Conv2d_4a_3x3/BatchNorm/moving_mean"
      }
    }
  }
  attr {
    key: "container"
    value {
      s: ""
    }
  }
  attr {
    key: "dtype"
    value {
      type: DT_FLOAT
    }
  }
  attr {
    key: "shape"
    value {
      shape {
        dim {
          size: 192
        }
      }
    }
  }
  attr {
    key: "shared_name"
    value {
      s: ""
    }
  }
}
node {
  name: "InceptionV3/Conv2d_4a_3x3/BatchNorm/moving_mean/Assign"
  op: "Assign"
  input: "InceptionV3/Conv2d_4a_3x3/BatchNorm/moving_mean"
  input: "InceptionV3/Conv2d_4a_3x3/BatchNorm/moving_mean/Initializer/zeros"
  attr {
    key: "T"
    value {
      type: DT_FLOAT
    }
  }
  attr {
    key: "_class"
    value {
      list {
        s: "loc:@InceptionV3/Conv2d_4a_3x3/BatchNorm/moving_mean"
      }
    }
  }
  attr {
    key: "use_locking"
    value {
      b: true
    }
  }
  attr {
    key: "validate_shape"
    value {
      b: true
    }
  }
}
node {
  name: "InceptionV3/Conv2d_4a_3x3/BatchNorm/moving_mean/read"
  op: "Identity"
  input: "InceptionV3/Conv2d_4a_3x3/BatchNorm/moving_mean"
  attr {
    key: "T"
    value {
      type: DT_FLOAT
    }
  }
  attr {
    key: "_class"
    value {
      list {
        s: "loc:@InceptionV3/Conv2d_4a_3x3/BatchNorm/moving_mean"
      }
    }
  }
}
node {
  name: "InceptionV3/Conv2d_4a_3x3/BatchNorm/moving_variance/Initializer/ones"
  op: "Const"
  attr {
    key: "_class"
    value {
      list {
        s: "loc:@InceptionV3/Conv2d_4a_3x3/BatchNorm/moving_variance"
      }
    }
  }
  attr {
    key: "dtype"
    value {
      type: DT_FLOAT
    }
  }
  attr {
    key: "value"
    value {
      tensor {
        dtype: DT_FLOAT
        tensor_shape {
          dim {
            size: 192
          }
        }
        float_val: 1.0
      }
    }
  }
}
node {
  name: "InceptionV3/Conv2d_4a_3x3/BatchNorm/moving_variance"
  op: "VariableV2"
  attr {
    key: "_class"
    value {
      list {
        s: "loc:@InceptionV3/Conv2d_4a_3x3/BatchNorm/moving_variance"
      }
    }
  }
  attr {
    key: "container"
    value {
      s: ""
    }
  }
  attr {
    key: "dtype"
    value {
      type: DT_FLOAT
    }
  }
  attr {
    key: "shape"
    value {
      shape {
        dim {
          size: 192
        }
      }
    }
  }
  attr {
    key: "shared_name"
    value {
      s: ""
    }
  }
}
node {
  name: "InceptionV3/Conv2d_4a_3x3/BatchNorm/moving_variance/Assign"
  op: "Assign"
  input: "InceptionV3/Conv2d_4a_3x3/BatchNorm/moving_variance"
  input: "InceptionV3/Conv2d_4a_3x3/BatchNorm/moving_variance/Initializer/ones"
  attr {
    key: "T"
    value {
      type: DT_FLOAT
    }
  }
  attr {
    key: "_class"
    value {
      list {
        s: "loc:@InceptionV3/Conv2d_4a_3x3/BatchNorm/moving_variance"
      }
    }
  }
  attr {
    key: "use_locking"
    value {
      b: true
    }
  }
  attr {
    key: "validate_shape"
    value {
      b: true
    }
  }
}
node {
  name: "InceptionV3/Conv2d_4a_3x3/BatchNorm/moving_variance/read"
  op: "Identity"
  input: "InceptionV3/Conv2d_4a_3x3/BatchNorm/moving_variance"
  attr {
    key: "T"
    value {
      type: DT_FLOAT
    }
  }
  attr {
    key: "_class"
    value {
      list {
        s: "loc:@InceptionV3/Conv2d_4a_3x3/BatchNorm/moving_variance"
      }
    }
  }
}
node {
  name: "InceptionV3/InceptionV3/Conv2d_4a_3x3/BatchNorm/Const_1"
  op: "Const"
  attr {
    key: "dtype"
    value {
      type: DT_FLOAT
    }
  }
  attr {
    key: "value"
    value {
      tensor {
        dtype: DT_FLOAT
        tensor_shape {
          dim {
          }
        }
      }
    }
  }
}
node {
  name: "InceptionV3/InceptionV3/Conv2d_4a_3x3/BatchNorm/Const_2"
  op: "Const"
  attr {
    key: "dtype"
    value {
      type: DT_FLOAT
    }
  }
  attr {
    key: "value"
    value {
      tensor {
        dtype: DT_FLOAT
        tensor_shape {
          dim {
          }
        }
      }
    }
  }
}
node {
  name: "InceptionV3/InceptionV3/Conv2d_4a_3x3/BatchNorm/FusedBatchNorm"
  op: "FusedBatchNorm"
  input: "InceptionV3/InceptionV3/Conv2d_4a_3x3/Conv2D"
  input: "InceptionV3/InceptionV3/Conv2d_4a_3x3/BatchNorm/Const"
  input: "InceptionV3/Conv2d_4a_3x3/BatchNorm/beta/read"
  input: "InceptionV3/InceptionV3/Conv2d_4a_3x3/BatchNorm/Const_1"
  input: "InceptionV3/InceptionV3/Conv2d_4a_3x3/BatchNorm/Const_2"
  attr {
    key: "T"
    value {
      type: DT_FLOAT
    }
  }
  attr {
    key: "data_format"
    value {
      s: "NHWC"
    }
  }
  attr {
    key: "epsilon"
    value {
      f: 0.0010000000474974513
    }
  }
  attr {
    key: "is_training"
    value {
      b: true
    }
  }
}
node {
  name: "InceptionV3/InceptionV3/Conv2d_4a_3x3/BatchNorm/Const_3"
  op: "Const"
  attr {
    key: "dtype"
    value {
      type: DT_FLOAT
    }
  }
  attr {
    key: "value"
    value {
      tensor {
        dtype: DT_FLOAT
        tensor_shape {
        }
        float_val: 0.9997000098228455
      }
    }
  }
}
node {
  name: "InceptionV3/InceptionV3/Conv2d_4a_3x3/BatchNorm/AssignMovingAvg/sub/x"
  op: "Const"
  attr {
    key: "_class"
    value {
      list {
        s: "loc:@InceptionV3/Conv2d_4a_3x3/BatchNorm/moving_mean"
      }
    }
  }
  attr {
    key: "dtype"
    value {
      type: DT_FLOAT
    }
  }
  attr {
    key: "value"
    value {
      tensor {
        dtype: DT_FLOAT
        tensor_shape {
        }
        float_val: 1.0
      }
    }
  }
}
node {
  name: "InceptionV3/InceptionV3/Conv2d_4a_3x3/BatchNorm/AssignMovingAvg/sub"
  op: "Sub"
  input: "InceptionV3/InceptionV3/Conv2d_4a_3x3/BatchNorm/AssignMovingAvg/sub/x"
  input: "InceptionV3/InceptionV3/Conv2d_4a_3x3/BatchNorm/Const_3"
  attr {
    key: "T"
    value {
      type: DT_FLOAT
    }
  }
  attr {
    key: "_class"
    value {
      list {
        s: "loc:@InceptionV3/Conv2d_4a_3x3/BatchNorm/moving_mean"
      }
    }
  }
}
node {
  name: "InceptionV3/InceptionV3/Conv2d_4a_3x3/BatchNorm/AssignMovingAvg/sub_1"
  op: "Sub"
  input: "InceptionV3/Conv2d_4a_3x3/BatchNorm/moving_mean/read"
  input: "InceptionV3/InceptionV3/Conv2d_4a_3x3/BatchNorm/FusedBatchNorm:1"
  attr {
    key: "T"
    value {
      type: DT_FLOAT
    }
  }
  attr {
    key: "_class"
    value {
      list {
        s: "loc:@InceptionV3/Conv2d_4a_3x3/BatchNorm/moving_mean"
      }
    }
  }
}
node {
  name: "InceptionV3/InceptionV3/Conv2d_4a_3x3/BatchNorm/AssignMovingAvg/mul"
  op: "Mul"
  input: "InceptionV3/InceptionV3/Conv2d_4a_3x3/BatchNorm/AssignMovingAvg/sub_1"
  input: "InceptionV3/InceptionV3/Conv2d_4a_3x3/BatchNorm/AssignMovingAvg/sub"
  attr {
    key: "T"
    value {
      type: DT_FLOAT
    }
  }
  attr {
    key: "_class"
    value {
      list {
        s: "loc:@InceptionV3/Conv2d_4a_3x3/BatchNorm/moving_mean"
      }
    }
  }
}
node {
  name: "InceptionV3/InceptionV3/Conv2d_4a_3x3/BatchNorm/AssignMovingAvg"
  op: "AssignSub"
  input: "InceptionV3/Conv2d_4a_3x3/BatchNorm/moving_mean"
  input: "InceptionV3/InceptionV3/Conv2d_4a_3x3/BatchNorm/AssignMovingAvg/mul"
  attr {
    key: "T"
    value {
      type: DT_FLOAT
    }
  }
  attr {
    key: "_class"
    value {
      list {
        s: "loc:@InceptionV3/Conv2d_4a_3x3/BatchNorm/moving_mean"
      }
    }
  }
  attr {
    key: "use_locking"
    value {
      b: false
    }
  }
}
node {
  name: "InceptionV3/InceptionV3/Conv2d_4a_3x3/BatchNorm/AssignMovingAvg_1/sub/x"
  op: "Const"
  attr {
    key: "_class"
    value {
      list {
        s: "loc:@InceptionV3/Conv2d_4a_3x3/BatchNorm/moving_variance"
      }
    }
  }
  attr {
    key: "dtype"
    value {
      type: DT_FLOAT
    }
  }
  attr {
    key: "value"
    value {
      tensor {
        dtype: DT_FLOAT
        tensor_shape {
        }
        float_val: 1.0
      }
    }
  }
}
node {
  name: "InceptionV3/InceptionV3/Conv2d_4a_3x3/BatchNorm/AssignMovingAvg_1/sub"
  op: "Sub"
  input: "InceptionV3/InceptionV3/Conv2d_4a_3x3/BatchNorm/AssignMovingAvg_1/sub/x"
  input: "InceptionV3/InceptionV3/Conv2d_4a_3x3/BatchNorm/Const_3"
  attr {
    key: "T"
    value {
      type: DT_FLOAT
    }
  }
  attr {
    key: "_class"
    value {
      list {
        s: "loc:@InceptionV3/Conv2d_4a_3x3/BatchNorm/moving_variance"
      }
    }
  }
}
node {
  name: "InceptionV3/InceptionV3/Conv2d_4a_3x3/BatchNorm/AssignMovingAvg_1/sub_1"
  op: "Sub"
  input: "InceptionV3/Conv2d_4a_3x3/BatchNorm/moving_variance/read"
  input: "InceptionV3/InceptionV3/Conv2d_4a_3x3/BatchNorm/FusedBatchNorm:2"
  attr {
    key: "T"
    value {
      type: DT_FLOAT
    }
  }
  attr {
    key: "_class"
    value {
      list {
        s: "loc:@InceptionV3/Conv2d_4a_3x3/BatchNorm/moving_variance"
      }
    }
  }
}
node {
  name: "InceptionV3/InceptionV3/Conv2d_4a_3x3/BatchNorm/AssignMovingAvg_1/mul"
  op: "Mul"
  input: "InceptionV3/InceptionV3/Conv2d_4a_3x3/BatchNorm/AssignMovingAvg_1/sub_1"
  input: "InceptionV3/InceptionV3/Conv2d_4a_3x3/BatchNorm/AssignMovingAvg_1/sub"
  attr {
    key: "T"
    value {
      type: DT_FLOAT
    }
  }
  attr {
    key: "_class"
    value {
      list {
        s: "loc:@InceptionV3/Conv2d_4a_3x3/BatchNorm/moving_variance"
      }
    }
  }
}
node {
  name: "InceptionV3/InceptionV3/Conv2d_4a_3x3/BatchNorm/AssignMovingAvg_1"
  op: "AssignSub"
  input: "InceptionV3/Conv2d_4a_3x3/BatchNorm/moving_variance"
  input: "InceptionV3/InceptionV3/Conv2d_4a_3x3/BatchNorm/AssignMovingAvg_1/mul"
  attr {
    key: "T"
    value {
      type: DT_FLOAT
    }
  }
  attr {
    key: "_class"
    value {
      list {
        s: "loc:@InceptionV3/Conv2d_4a_3x3/BatchNorm/moving_variance"
      }
    }
  }
  attr {
    key: "use_locking"
    value {
      b: false
    }
  }
}
node {
  name: "InceptionV3/InceptionV3/Conv2d_4a_3x3/Relu"
  op: "Relu"
  input: "InceptionV3/InceptionV3/Conv2d_4a_3x3/BatchNorm/FusedBatchNorm"
  attr {
    key: "T"
    value {
      type: DT_FLOAT
    }
  }
}
node {
  name: "InceptionV3/InceptionV3/MaxPool_5a_3x3/MaxPool"
  op: "MaxPool"
  input: "InceptionV3/InceptionV3/Conv2d_4a_3x3/Relu"
  attr {
    key: "T"
    value {
      type: DT_FLOAT
    }
  }
  attr {
    key: "data_format"
    value {
      s: "NHWC"
    }
  }
  attr {
    key: "ksize"
    value {
      list {
        i: 1
        i: 3
        i: 3
        i: 1
      }
    }
  }
  attr {
    key: "padding"
    value {
      s: "VALID"
    }
  }
  attr {
    key: "strides"
    value {
      list {
        i: 1
        i: 2
        i: 2
        i: 1
      }
    }
  }
}
node {
  name: "InceptionV3/Mixed_5b/Branch_0/Conv2d_0a_1x1/weights/Initializer/truncated_normal/shape"
  op: "Const"
  attr {
    key: "_class"
    value {
      list {
        s: "loc:@InceptionV3/Mixed_5b/Branch_0/Conv2d_0a_1x1/weights"
      }
    }
  }
  attr {
    key: "dtype"
    value {
      type: DT_INT32
    }
  }
  attr {
    key: "value"
    value {
      tensor {
        dtype: DT_INT32
        tensor_shape {
          dim {
            size: 4
          }
        }
        tensor_content: "\001\000\000\000\001\000\000\000\300\000\000\000@\000\000\000"
      }
    }
  }
}
node {
  name: "InceptionV3/Mixed_5b/Branch_0/Conv2d_0a_1x1/weights/Initializer/truncated_normal/mean"
  op: "Const"
  attr {
    key: "_class"
    value {
      list {
        s: "loc:@InceptionV3/Mixed_5b/Branch_0/Conv2d_0a_1x1/weights"
      }
    }
  }
  attr {
    key: "dtype"
    value {
      type: DT_FLOAT
    }
  }
  attr {
    key: "value"
    value {
      tensor {
        dtype: DT_FLOAT
        tensor_shape {
        }
        float_val: 0.0
      }
    }
  }
}
node {
  name: "InceptionV3/Mixed_5b/Branch_0/Conv2d_0a_1x1/weights/Initializer/truncated_normal/stddev"
  op: "Const"
  attr {
    key: "_class"
    value {
      list {
        s: "loc:@InceptionV3/Mixed_5b/Branch_0/Conv2d_0a_1x1/weights"
      }
    }
  }
  attr {
    key: "dtype"
    value {
      type: DT_FLOAT
    }
  }
  attr {
    key: "value"
    value {
      tensor {
        dtype: DT_FLOAT
        tensor_shape {
        }
        float_val: 0.11636866629123688
      }
    }
  }
}
node {
  name: "InceptionV3/Mixed_5b/Branch_0/Conv2d_0a_1x1/weights/Initializer/truncated_normal/TruncatedNormal"
  op: "TruncatedNormal"
  input: "InceptionV3/Mixed_5b/Branch_0/Conv2d_0a_1x1/weights/Initializer/truncated_normal/shape"
  attr {
    key: "T"
    value {
      type: DT_INT32
    }
  }
  attr {
    key: "_class"
    value {
      list {
        s: "loc:@InceptionV3/Mixed_5b/Branch_0/Conv2d_0a_1x1/weights"
      }
    }
  }
  attr {
    key: "dtype"
    value {
      type: DT_FLOAT
    }
  }
  attr {
    key: "seed"
    value {
      i: 0
    }
  }
  attr {
    key: "seed2"
    value {
      i: 0
    }
  }
}
node {
  name: "InceptionV3/Mixed_5b/Branch_0/Conv2d_0a_1x1/weights/Initializer/truncated_normal/mul"
  op: "Mul"
  input: "InceptionV3/Mixed_5b/Branch_0/Conv2d_0a_1x1/weights/Initializer/truncated_normal/TruncatedNormal"
  input: "InceptionV3/Mixed_5b/Branch_0/Conv2d_0a_1x1/weights/Initializer/truncated_normal/stddev"
  attr {
    key: "T"
    value {
      type: DT_FLOAT
    }
  }
  attr {
    key: "_class"
    value {
      list {
        s: "loc:@InceptionV3/Mixed_5b/Branch_0/Conv2d_0a_1x1/weights"
      }
    }
  }
}
node {
  name: "InceptionV3/Mixed_5b/Branch_0/Conv2d_0a_1x1/weights/Initializer/truncated_normal"
  op: "Add"
  input: "InceptionV3/Mixed_5b/Branch_0/Conv2d_0a_1x1/weights/Initializer/truncated_normal/mul"
  input: "InceptionV3/Mixed_5b/Branch_0/Conv2d_0a_1x1/weights/Initializer/truncated_normal/mean"
  attr {
    key: "T"
    value {
      type: DT_FLOAT
    }
  }
  attr {
    key: "_class"
    value {
      list {
        s: "loc:@InceptionV3/Mixed_5b/Branch_0/Conv2d_0a_1x1/weights"
      }
    }
  }
}
node {
  name: "InceptionV3/Mixed_5b/Branch_0/Conv2d_0a_1x1/weights"
  op: "VariableV2"
  attr {
    key: "_class"
    value {
      list {
        s: "loc:@InceptionV3/Mixed_5b/Branch_0/Conv2d_0a_1x1/weights"
      }
    }
  }
  attr {
    key: "container"
    value {
      s: ""
    }
  }
  attr {
    key: "dtype"
    value {
      type: DT_FLOAT
    }
  }
  attr {
    key: "shape"
    value {
      shape {
        dim {
          size: 1
        }
        dim {
          size: 1
        }
        dim {
          size: 192
        }
        dim {
          size: 64
        }
      }
    }
  }
  attr {
    key: "shared_name"
    value {
      s: ""
    }
  }
}
node {
  name: "InceptionV3/Mixed_5b/Branch_0/Conv2d_0a_1x1/weights/Assign"
  op: "Assign"
  input: "InceptionV3/Mixed_5b/Branch_0/Conv2d_0a_1x1/weights"
  input: "InceptionV3/Mixed_5b/Branch_0/Conv2d_0a_1x1/weights/Initializer/truncated_normal"
  attr {
    key: "T"
    value {
      type: DT_FLOAT
    }
  }
  attr {
    key: "_class"
    value {
      list {
        s: "loc:@InceptionV3/Mixed_5b/Branch_0/Conv2d_0a_1x1/weights"
      }
    }
  }
  attr {
    key: "use_locking"
    value {
      b: true
    }
  }
  attr {
    key: "validate_shape"
    value {
      b: true
    }
  }
}
node {
  name: "InceptionV3/Mixed_5b/Branch_0/Conv2d_0a_1x1/weights/read"
  op: "Identity"
  input: "InceptionV3/Mixed_5b/Branch_0/Conv2d_0a_1x1/weights"
  attr {
    key: "T"
    value {
      type: DT_FLOAT
    }
  }
  attr {
    key: "_class"
    value {
      list {
        s: "loc:@InceptionV3/Mixed_5b/Branch_0/Conv2d_0a_1x1/weights"
      }
    }
  }
}
node {
  name: "InceptionV3/InceptionV3/Mixed_5b/Branch_0/Conv2d_0a_1x1/dilation_rate"
  op: "Const"
  attr {
    key: "dtype"
    value {
      type: DT_INT32
    }
  }
  attr {
    key: "value"
    value {
      tensor {
        dtype: DT_INT32
        tensor_shape {
          dim {
            size: 2
          }
        }
        tensor_content: "\001\000\000\000\001\000\000\000"
      }
    }
  }
}
node {
  name: "InceptionV3/InceptionV3/Mixed_5b/Branch_0/Conv2d_0a_1x1/Conv2D"
  op: "Conv2D"
  input: "InceptionV3/InceptionV3/MaxPool_5a_3x3/MaxPool"
  input: "InceptionV3/Mixed_5b/Branch_0/Conv2d_0a_1x1/weights/read"
  attr {
    key: "T"
    value {
      type: DT_FLOAT
    }
  }
  attr {
    key: "data_format"
    value {
      s: "NHWC"
    }
  }
  attr {
    key: "dilations"
    value {
      list {
        i: 1
        i: 1
        i: 1
        i: 1
      }
    }
  }
  attr {
    key: "padding"
    value {
      s: "SAME"
    }
  }
  attr {
    key: "strides"
    value {
      list {
        i: 1
        i: 1
        i: 1
        i: 1
      }
    }
  }
  attr {
    key: "use_cudnn_on_gpu"
    value {
      b: true
    }
  }
}
node {
  name: "InceptionV3/InceptionV3/Mixed_5b/Branch_0/Conv2d_0a_1x1/BatchNorm/Const"
  op: "Const"
  attr {
    key: "dtype"
    value {
      type: DT_FLOAT
    }
  }
  attr {
    key: "value"
    value {
      tensor {
        dtype: DT_FLOAT
        tensor_shape {
          dim {
            size: 64
          }
        }
        float_val: 1.0
      }
    }
  }
}
node {
  name: "InceptionV3/Mixed_5b/Branch_0/Conv2d_0a_1x1/BatchNorm/beta/Initializer/zeros"
  op: "Const"
  attr {
    key: "_class"
    value {
      list {
        s: "loc:@InceptionV3/Mixed_5b/Branch_0/Conv2d_0a_1x1/BatchNorm/beta"
      }
    }
  }
  attr {
    key: "dtype"
    value {
      type: DT_FLOAT
    }
  }
  attr {
    key: "value"
    value {
      tensor {
        dtype: DT_FLOAT
        tensor_shape {
          dim {
            size: 64
          }
        }
        float_val: 0.0
      }
    }
  }
}
node {
  name: "InceptionV3/Mixed_5b/Branch_0/Conv2d_0a_1x1/BatchNorm/beta"
  op: "VariableV2"
  attr {
    key: "_class"
    value {
      list {
        s: "loc:@InceptionV3/Mixed_5b/Branch_0/Conv2d_0a_1x1/BatchNorm/beta"
      }
    }
  }
  attr {
    key: "container"
    value {
      s: ""
    }
  }
  attr {
    key: "dtype"
    value {
      type: DT_FLOAT
    }
  }
  attr {
    key: "shape"
    value {
      shape {
        dim {
          size: 64
        }
      }
    }
  }
  attr {
    key: "shared_name"
    value {
      s: ""
    }
  }
}
node {
  name: "InceptionV3/Mixed_5b/Branch_0/Conv2d_0a_1x1/BatchNorm/beta/Assign"
  op: "Assign"
  input: "InceptionV3/Mixed_5b/Branch_0/Conv2d_0a_1x1/BatchNorm/beta"
  input: "InceptionV3/Mixed_5b/Branch_0/Conv2d_0a_1x1/BatchNorm/beta/Initializer/zeros"
  attr {
    key: "T"
    value {
      type: DT_FLOAT
    }
  }
  attr {
    key: "_class"
    value {
      list {
        s: "loc:@InceptionV3/Mixed_5b/Branch_0/Conv2d_0a_1x1/BatchNorm/beta"
      }
    }
  }
  attr {
    key: "use_locking"
    value {
      b: true
    }
  }
  attr {
    key: "validate_shape"
    value {
      b: true
    }
  }
}
node {
  name: "InceptionV3/Mixed_5b/Branch_0/Conv2d_0a_1x1/BatchNorm/beta/read"
  op: "Identity"
  input: "InceptionV3/Mixed_5b/Branch_0/Conv2d_0a_1x1/BatchNorm/beta"
  attr {
    key: "T"
    value {
      type: DT_FLOAT
    }
  }
  attr {
    key: "_class"
    value {
      list {
        s: "loc:@InceptionV3/Mixed_5b/Branch_0/Conv2d_0a_1x1/BatchNorm/beta"
      }
    }
  }
}
node {
  name: "InceptionV3/Mixed_5b/Branch_0/Conv2d_0a_1x1/BatchNorm/moving_mean/Initializer/zeros"
  op: "Const"
  attr {
    key: "_class"
    value {
      list {
        s: "loc:@InceptionV3/Mixed_5b/Branch_0/Conv2d_0a_1x1/BatchNorm/moving_mean"
      }
    }
  }
  attr {
    key: "dtype"
    value {
      type: DT_FLOAT
    }
  }
  attr {
    key: "value"
    value {
      tensor {
        dtype: DT_FLOAT
        tensor_shape {
          dim {
            size: 64
          }
        }
        float_val: 0.0
      }
    }
  }
}
node {
  name: "InceptionV3/Mixed_5b/Branch_0/Conv2d_0a_1x1/BatchNorm/moving_mean"
  op: "VariableV2"
  attr {
    key: "_class"
    value {
      list {
        s: "loc:@InceptionV3/Mixed_5b/Branch_0/Conv2d_0a_1x1/BatchNorm/moving_mean"
      }
    }
  }
  attr {
    key: "container"
    value {
      s: ""
    }
  }
  attr {
    key: "dtype"
    value {
      type: DT_FLOAT
    }
  }
  attr {
    key: "shape"
    value {
      shape {
        dim {
          size: 64
        }
      }
    }
  }
  attr {
    key: "shared_name"
    value {
      s: ""
    }
  }
}
node {
  name: "InceptionV3/Mixed_5b/Branch_0/Conv2d_0a_1x1/BatchNorm/moving_mean/Assign"
  op: "Assign"
  input: "InceptionV3/Mixed_5b/Branch_0/Conv2d_0a_1x1/BatchNorm/moving_mean"
  input: "InceptionV3/Mixed_5b/Branch_0/Conv2d_0a_1x1/BatchNorm/moving_mean/Initializer/zeros"
  attr {
    key: "T"
    value {
      type: DT_FLOAT
    }
  }
  attr {
    key: "_class"
    value {
      list {
        s: "loc:@InceptionV3/Mixed_5b/Branch_0/Conv2d_0a_1x1/BatchNorm/moving_mean"
      }
    }
  }
  attr {
    key: "use_locking"
    value {
      b: true
    }
  }
  attr {
    key: "validate_shape"
    value {
      b: true
    }
  }
}
node {
  name: "InceptionV3/Mixed_5b/Branch_0/Conv2d_0a_1x1/BatchNorm/moving_mean/read"
  op: "Identity"
  input: "InceptionV3/Mixed_5b/Branch_0/Conv2d_0a_1x1/BatchNorm/moving_mean"
  attr {
    key: "T"
    value {
      type: DT_FLOAT
    }
  }
  attr {
    key: "_class"
    value {
      list {
        s: "loc:@InceptionV3/Mixed_5b/Branch_0/Conv2d_0a_1x1/BatchNorm/moving_mean"
      }
    }
  }
}
node {
  name: "InceptionV3/Mixed_5b/Branch_0/Conv2d_0a_1x1/BatchNorm/moving_variance/Initializer/ones"
  op: "Const"
  attr {
    key: "_class"
    value {
      list {
        s: "loc:@InceptionV3/Mixed_5b/Branch_0/Conv2d_0a_1x1/BatchNorm/moving_variance"
      }
    }
  }
  attr {
    key: "dtype"
    value {
      type: DT_FLOAT
    }
  }
  attr {
    key: "value"
    value {
      tensor {
        dtype: DT_FLOAT
        tensor_shape {
          dim {
            size: 64
          }
        }
        float_val: 1.0
      }
    }
  }
}
node {
  name: "InceptionV3/Mixed_5b/Branch_0/Conv2d_0a_1x1/BatchNorm/moving_variance"
  op: "VariableV2"
  attr {
    key: "_class"
    value {
      list {
        s: "loc:@InceptionV3/Mixed_5b/Branch_0/Conv2d_0a_1x1/BatchNorm/moving_variance"
      }
    }
  }
  attr {
    key: "container"
    value {
      s: ""
    }
  }
  attr {
    key: "dtype"
    value {
      type: DT_FLOAT
    }
  }
  attr {
    key: "shape"
    value {
      shape {
        dim {
          size: 64
        }
      }
    }
  }
  attr {
    key: "shared_name"
    value {
      s: ""
    }
  }
}
node {
  name: "InceptionV3/Mixed_5b/Branch_0/Conv2d_0a_1x1/BatchNorm/moving_variance/Assign"
  op: "Assign"
  input: "InceptionV3/Mixed_5b/Branch_0/Conv2d_0a_1x1/BatchNorm/moving_variance"
  input: "InceptionV3/Mixed_5b/Branch_0/Conv2d_0a_1x1/BatchNorm/moving_variance/Initializer/ones"
  attr {
    key: "T"
    value {
      type: DT_FLOAT
    }
  }
  attr {
    key: "_class"
    value {
      list {
        s: "loc:@InceptionV3/Mixed_5b/Branch_0/Conv2d_0a_1x1/BatchNorm/moving_variance"
      }
    }
  }
  attr {
    key: "use_locking"
    value {
      b: true
    }
  }
  attr {
    key: "validate_shape"
    value {
      b: true
    }
  }
}
node {
  name: "InceptionV3/Mixed_5b/Branch_0/Conv2d_0a_1x1/BatchNorm/moving_variance/read"
  op: "Identity"
  input: "InceptionV3/Mixed_5b/Branch_0/Conv2d_0a_1x1/BatchNorm/moving_variance"
  attr {
    key: "T"
    value {
      type: DT_FLOAT
    }
  }
  attr {
    key: "_class"
    value {
      list {
        s: "loc:@InceptionV3/Mixed_5b/Branch_0/Conv2d_0a_1x1/BatchNorm/moving_variance"
      }
    }
  }
}
node {
  name: "InceptionV3/InceptionV3/Mixed_5b/Branch_0/Conv2d_0a_1x1/BatchNorm/Const_1"
  op: "Const"
  attr {
    key: "dtype"
    value {
      type: DT_FLOAT
    }
  }
  attr {
    key: "value"
    value {
      tensor {
        dtype: DT_FLOAT
        tensor_shape {
          dim {
          }
        }
      }
    }
  }
}
node {
  name: "InceptionV3/InceptionV3/Mixed_5b/Branch_0/Conv2d_0a_1x1/BatchNorm/Const_2"
  op: "Const"
  attr {
    key: "dtype"
    value {
      type: DT_FLOAT
    }
  }
  attr {
    key: "value"
    value {
      tensor {
        dtype: DT_FLOAT
        tensor_shape {
          dim {
          }
        }
      }
    }
  }
}
node {
  name: "InceptionV3/InceptionV3/Mixed_5b/Branch_0/Conv2d_0a_1x1/BatchNorm/FusedBatchNorm"
  op: "FusedBatchNorm"
  input: "InceptionV3/InceptionV3/Mixed_5b/Branch_0/Conv2d_0a_1x1/Conv2D"
  input: "InceptionV3/InceptionV3/Mixed_5b/Branch_0/Conv2d_0a_1x1/BatchNorm/Const"
  input: "InceptionV3/Mixed_5b/Branch_0/Conv2d_0a_1x1/BatchNorm/beta/read"
  input: "InceptionV3/InceptionV3/Mixed_5b/Branch_0/Conv2d_0a_1x1/BatchNorm/Const_1"
  input: "InceptionV3/InceptionV3/Mixed_5b/Branch_0/Conv2d_0a_1x1/BatchNorm/Const_2"
  attr {
    key: "T"
    value {
      type: DT_FLOAT
    }
  }
  attr {
    key: "data_format"
    value {
      s: "NHWC"
    }
  }
  attr {
    key: "epsilon"
    value {
      f: 0.0010000000474974513
    }
  }
  attr {
    key: "is_training"
    value {
      b: true
    }
  }
}
node {
  name: "InceptionV3/InceptionV3/Mixed_5b/Branch_0/Conv2d_0a_1x1/BatchNorm/Const_3"
  op: "Const"
  attr {
    key: "dtype"
    value {
      type: DT_FLOAT
    }
  }
  attr {
    key: "value"
    value {
      tensor {
        dtype: DT_FLOAT
        tensor_shape {
        }
        float_val: 0.9997000098228455
      }
    }
  }
}
node {
  name: "InceptionV3/InceptionV3/Mixed_5b/Branch_0/Conv2d_0a_1x1/BatchNorm/AssignMovingAvg/sub/x"
  op: "Const"
  attr {
    key: "_class"
    value {
      list {
        s: "loc:@InceptionV3/Mixed_5b/Branch_0/Conv2d_0a_1x1/BatchNorm/moving_mean"
      }
    }
  }
  attr {
    key: "dtype"
    value {
      type: DT_FLOAT
    }
  }
  attr {
    key: "value"
    value {
      tensor {
        dtype: DT_FLOAT
        tensor_shape {
        }
        float_val: 1.0
      }
    }
  }
}
node {
  name: "InceptionV3/InceptionV3/Mixed_5b/Branch_0/Conv2d_0a_1x1/BatchNorm/AssignMovingAvg/sub"
  op: "Sub"
  input: "InceptionV3/InceptionV3/Mixed_5b/Branch_0/Conv2d_0a_1x1/BatchNorm/AssignMovingAvg/sub/x"
  input: "InceptionV3/InceptionV3/Mixed_5b/Branch_0/Conv2d_0a_1x1/BatchNorm/Const_3"
  attr {
    key: "T"
    value {
      type: DT_FLOAT
    }
  }
  attr {
    key: "_class"
    value {
      list {
        s: "loc:@InceptionV3/Mixed_5b/Branch_0/Conv2d_0a_1x1/BatchNorm/moving_mean"
      }
    }
  }
}
node {
  name: "InceptionV3/InceptionV3/Mixed_5b/Branch_0/Conv2d_0a_1x1/BatchNorm/AssignMovingAvg/sub_1"
  op: "Sub"
  input: "InceptionV3/Mixed_5b/Branch_0/Conv2d_0a_1x1/BatchNorm/moving_mean/read"
  input: "InceptionV3/InceptionV3/Mixed_5b/Branch_0/Conv2d_0a_1x1/BatchNorm/FusedBatchNorm:1"
  attr {
    key: "T"
    value {
      type: DT_FLOAT
    }
  }
  attr {
    key: "_class"
    value {
      list {
        s: "loc:@InceptionV3/Mixed_5b/Branch_0/Conv2d_0a_1x1/BatchNorm/moving_mean"
      }
    }
  }
}
node {
  name: "InceptionV3/InceptionV3/Mixed_5b/Branch_0/Conv2d_0a_1x1/BatchNorm/AssignMovingAvg/mul"
  op: "Mul"
  input: "InceptionV3/InceptionV3/Mixed_5b/Branch_0/Conv2d_0a_1x1/BatchNorm/AssignMovingAvg/sub_1"
  input: "InceptionV3/InceptionV3/Mixed_5b/Branch_0/Conv2d_0a_1x1/BatchNorm/AssignMovingAvg/sub"
  attr {
    key: "T"
    value {
      type: DT_FLOAT
    }
  }
  attr {
    key: "_class"
    value {
      list {
        s: "loc:@InceptionV3/Mixed_5b/Branch_0/Conv2d_0a_1x1/BatchNorm/moving_mean"
      }
    }
  }
}
node {
  name: "InceptionV3/InceptionV3/Mixed_5b/Branch_0/Conv2d_0a_1x1/BatchNorm/AssignMovingAvg"
  op: "AssignSub"
  input: "InceptionV3/Mixed_5b/Branch_0/Conv2d_0a_1x1/BatchNorm/moving_mean"
  input: "InceptionV3/InceptionV3/Mixed_5b/Branch_0/Conv2d_0a_1x1/BatchNorm/AssignMovingAvg/mul"
  attr {
    key: "T"
    value {
      type: DT_FLOAT
    }
  }
  attr {
    key: "_class"
    value {
      list {
        s: "loc:@InceptionV3/Mixed_5b/Branch_0/Conv2d_0a_1x1/BatchNorm/moving_mean"
      }
    }
  }
  attr {
    key: "use_locking"
    value {
      b: false
    }
  }
}
node {
  name: "InceptionV3/InceptionV3/Mixed_5b/Branch_0/Conv2d_0a_1x1/BatchNorm/AssignMovingAvg_1/sub/x"
  op: "Const"
  attr {
    key: "_class"
    value {
      list {
        s: "loc:@InceptionV3/Mixed_5b/Branch_0/Conv2d_0a_1x1/BatchNorm/moving_variance"
      }
    }
  }
  attr {
    key: "dtype"
    value {
      type: DT_FLOAT
    }
  }
  attr {
    key: "value"
    value {
      tensor {
        dtype: DT_FLOAT
        tensor_shape {
        }
        float_val: 1.0
      }
    }
  }
}
node {
  name: "InceptionV3/InceptionV3/Mixed_5b/Branch_0/Conv2d_0a_1x1/BatchNorm/AssignMovingAvg_1/sub"
  op: "Sub"
  input: "InceptionV3/InceptionV3/Mixed_5b/Branch_0/Conv2d_0a_1x1/BatchNorm/AssignMovingAvg_1/sub/x"
  input: "InceptionV3/InceptionV3/Mixed_5b/Branch_0/Conv2d_0a_1x1/BatchNorm/Const_3"
  attr {
    key: "T"
    value {
      type: DT_FLOAT
    }
  }
  attr {
    key: "_class"
    value {
      list {
        s: "loc:@InceptionV3/Mixed_5b/Branch_0/Conv2d_0a_1x1/BatchNorm/moving_variance"
      }
    }
  }
}
node {
  name: "InceptionV3/InceptionV3/Mixed_5b/Branch_0/Conv2d_0a_1x1/BatchNorm/AssignMovingAvg_1/sub_1"
  op: "Sub"
  input: "InceptionV3/Mixed_5b/Branch_0/Conv2d_0a_1x1/BatchNorm/moving_variance/read"
  input: "InceptionV3/InceptionV3/Mixed_5b/Branch_0/Conv2d_0a_1x1/BatchNorm/FusedBatchNorm:2"
  attr {
    key: "T"
    value {
      type: DT_FLOAT
    }
  }
  attr {
    key: "_class"
    value {
      list {
        s: "loc:@InceptionV3/Mixed_5b/Branch_0/Conv2d_0a_1x1/BatchNorm/moving_variance"
      }
    }
  }
}
node {
  name: "InceptionV3/InceptionV3/Mixed_5b/Branch_0/Conv2d_0a_1x1/BatchNorm/AssignMovingAvg_1/mul"
  op: "Mul"
  input: "InceptionV3/InceptionV3/Mixed_5b/Branch_0/Conv2d_0a_1x1/BatchNorm/AssignMovingAvg_1/sub_1"
  input: "InceptionV3/InceptionV3/Mixed_5b/Branch_0/Conv2d_0a_1x1/BatchNorm/AssignMovingAvg_1/sub"
  attr {
    key: "T"
    value {
      type: DT_FLOAT
    }
  }
  attr {
    key: "_class"
    value {
      list {
        s: "loc:@InceptionV3/Mixed_5b/Branch_0/Conv2d_0a_1x1/BatchNorm/moving_variance"
      }
    }
  }
}
node {
  name: "InceptionV3/InceptionV3/Mixed_5b/Branch_0/Conv2d_0a_1x1/BatchNorm/AssignMovingAvg_1"
  op: "AssignSub"
  input: "InceptionV3/Mixed_5b/Branch_0/Conv2d_0a_1x1/BatchNorm/moving_variance"
  input: "InceptionV3/InceptionV3/Mixed_5b/Branch_0/Conv2d_0a_1x1/BatchNorm/AssignMovingAvg_1/mul"
  attr {
    key: "T"
    value {
      type: DT_FLOAT
    }
  }
  attr {
    key: "_class"
    value {
      list {
        s: "loc:@InceptionV3/Mixed_5b/Branch_0/Conv2d_0a_1x1/BatchNorm/moving_variance"
      }
    }
  }
  attr {
    key: "use_locking"
    value {
      b: false
    }
  }
}
node {
  name: "InceptionV3/InceptionV3/Mixed_5b/Branch_0/Conv2d_0a_1x1/Relu"
  op: "Relu"
  input: "InceptionV3/InceptionV3/Mixed_5b/Branch_0/Conv2d_0a_1x1/BatchNorm/FusedBatchNorm"
  attr {
    key: "T"
    value {
      type: DT_FLOAT
    }
  }
}
node {
  name: "InceptionV3/Mixed_5b/Branch_1/Conv2d_0a_1x1/weights/Initializer/truncated_normal/shape"
  op: "Const"
  attr {
    key: "_class"
    value {
      list {
        s: "loc:@InceptionV3/Mixed_5b/Branch_1/Conv2d_0a_1x1/weights"
      }
    }
  }
  attr {
    key: "dtype"
    value {
      type: DT_INT32
    }
  }
  attr {
    key: "value"
    value {
      tensor {
        dtype: DT_INT32
        tensor_shape {
          dim {
            size: 4
          }
        }
        tensor_content: "\001\000\000\000\001\000\000\000\300\000\000\0000\000\000\000"
      }
    }
  }
}
node {
  name: "InceptionV3/Mixed_5b/Branch_1/Conv2d_0a_1x1/weights/Initializer/truncated_normal/mean"
  op: "Const"
  attr {
    key: "_class"
    value {
      list {
        s: "loc:@InceptionV3/Mixed_5b/Branch_1/Conv2d_0a_1x1/weights"
      }
    }
  }
  attr {
    key: "dtype"
    value {
      type: DT_FLOAT
    }
  }
  attr {
    key: "value"
    value {
      tensor {
        dtype: DT_FLOAT
        tensor_shape {
        }
        float_val: 0.0
      }
    }
  }
}
node {
  name: "InceptionV3/Mixed_5b/Branch_1/Conv2d_0a_1x1/weights/Initializer/truncated_normal/stddev"
  op: "Const"
  attr {
    key: "_class"
    value {
      list {
        s: "loc:@InceptionV3/Mixed_5b/Branch_1/Conv2d_0a_1x1/weights"
      }
    }
  }
  attr {
    key: "dtype"
    value {
      type: DT_FLOAT
    }
  }
  attr {
    key: "value"
    value {
      tensor {
        dtype: DT_FLOAT
        tensor_shape {
        }
        float_val: 0.11636866629123688
      }
    }
  }
}
node {
  name: "InceptionV3/Mixed_5b/Branch_1/Conv2d_0a_1x1/weights/Initializer/truncated_normal/TruncatedNormal"
  op: "TruncatedNormal"
  input: "InceptionV3/Mixed_5b/Branch_1/Conv2d_0a_1x1/weights/Initializer/truncated_normal/shape"
  attr {
    key: "T"
    value {
      type: DT_INT32
    }
  }
  attr {
    key: "_class"
    value {
      list {
        s: "loc:@InceptionV3/Mixed_5b/Branch_1/Conv2d_0a_1x1/weights"
      }
    }
  }
  attr {
    key: "dtype"
    value {
      type: DT_FLOAT
    }
  }
  attr {
    key: "seed"
    value {
      i: 0
    }
  }
  attr {
    key: "seed2"
    value {
      i: 0
    }
  }
}
node {
  name: "InceptionV3/Mixed_5b/Branch_1/Conv2d_0a_1x1/weights/Initializer/truncated_normal/mul"
  op: "Mul"
  input: "InceptionV3/Mixed_5b/Branch_1/Conv2d_0a_1x1/weights/Initializer/truncated_normal/TruncatedNormal"
  input: "InceptionV3/Mixed_5b/Branch_1/Conv2d_0a_1x1/weights/Initializer/truncated_normal/stddev"
  attr {
    key: "T"
    value {
      type: DT_FLOAT
    }
  }
  attr {
    key: "_class"
    value {
      list {
        s: "loc:@InceptionV3/Mixed_5b/Branch_1/Conv2d_0a_1x1/weights"
      }
    }
  }
}
node {
  name: "InceptionV3/Mixed_5b/Branch_1/Conv2d_0a_1x1/weights/Initializer/truncated_normal"
  op: "Add"
  input: "InceptionV3/Mixed_5b/Branch_1/Conv2d_0a_1x1/weights/Initializer/truncated_normal/mul"
  input: "InceptionV3/Mixed_5b/Branch_1/Conv2d_0a_1x1/weights/Initializer/truncated_normal/mean"
  attr {
    key: "T"
    value {
      type: DT_FLOAT
    }
  }
  attr {
    key: "_class"
    value {
      list {
        s: "loc:@InceptionV3/Mixed_5b/Branch_1/Conv2d_0a_1x1/weights"
      }
    }
  }
}
node {
  name: "InceptionV3/Mixed_5b/Branch_1/Conv2d_0a_1x1/weights"
  op: "VariableV2"
  attr {
    key: "_class"
    value {
      list {
        s: "loc:@InceptionV3/Mixed_5b/Branch_1/Conv2d_0a_1x1/weights"
      }
    }
  }
  attr {
    key: "container"
    value {
      s: ""
    }
  }
  attr {
    key: "dtype"
    value {
      type: DT_FLOAT
    }
  }
  attr {
    key: "shape"
    value {
      shape {
        dim {
          size: 1
        }
        dim {
          size: 1
        }
        dim {
          size: 192
        }
        dim {
          size: 48
        }
      }
    }
  }
  attr {
    key: "shared_name"
    value {
      s: ""
    }
  }
}
node {
  name: "InceptionV3/Mixed_5b/Branch_1/Conv2d_0a_1x1/weights/Assign"
  op: "Assign"
  input: "InceptionV3/Mixed_5b/Branch_1/Conv2d_0a_1x1/weights"
  input: "InceptionV3/Mixed_5b/Branch_1/Conv2d_0a_1x1/weights/Initializer/truncated_normal"
  attr {
    key: "T"
    value {
      type: DT_FLOAT
    }
  }
  attr {
    key: "_class"
    value {
      list {
        s: "loc:@InceptionV3/Mixed_5b/Branch_1/Conv2d_0a_1x1/weights"
      }
    }
  }
  attr {
    key: "use_locking"
    value {
      b: true
    }
  }
  attr {
    key: "validate_shape"
    value {
      b: true
    }
  }
}
node {
  name: "InceptionV3/Mixed_5b/Branch_1/Conv2d_0a_1x1/weights/read"
  op: "Identity"
  input: "InceptionV3/Mixed_5b/Branch_1/Conv2d_0a_1x1/weights"
  attr {
    key: "T"
    value {
      type: DT_FLOAT
    }
  }
  attr {
    key: "_class"
    value {
      list {
        s: "loc:@InceptionV3/Mixed_5b/Branch_1/Conv2d_0a_1x1/weights"
      }
    }
  }
}
node {
  name: "InceptionV3/InceptionV3/Mixed_5b/Branch_1/Conv2d_0a_1x1/dilation_rate"
  op: "Const"
  attr {
    key: "dtype"
    value {
      type: DT_INT32
    }
  }
  attr {
    key: "value"
    value {
      tensor {
        dtype: DT_INT32
        tensor_shape {
          dim {
            size: 2
          }
        }
        tensor_content: "\001\000\000\000\001\000\000\000"
      }
    }
  }
}
node {
  name: "InceptionV3/InceptionV3/Mixed_5b/Branch_1/Conv2d_0a_1x1/Conv2D"
  op: "Conv2D"
  input: "InceptionV3/InceptionV3/MaxPool_5a_3x3/MaxPool"
  input: "InceptionV3/Mixed_5b/Branch_1/Conv2d_0a_1x1/weights/read"
  attr {
    key: "T"
    value {
      type: DT_FLOAT
    }
  }
  attr {
    key: "data_format"
    value {
      s: "NHWC"
    }
  }
  attr {
    key: "dilations"
    value {
      list {
        i: 1
        i: 1
        i: 1
        i: 1
      }
    }
  }
  attr {
    key: "padding"
    value {
      s: "SAME"
    }
  }
  attr {
    key: "strides"
    value {
      list {
        i: 1
        i: 1
        i: 1
        i: 1
      }
    }
  }
  attr {
    key: "use_cudnn_on_gpu"
    value {
      b: true
    }
  }
}
node {
  name: "InceptionV3/InceptionV3/Mixed_5b/Branch_1/Conv2d_0a_1x1/BatchNorm/Const"
  op: "Const"
  attr {
    key: "dtype"
    value {
      type: DT_FLOAT
    }
  }
  attr {
    key: "value"
    value {
      tensor {
        dtype: DT_FLOAT
        tensor_shape {
          dim {
            size: 48
          }
        }
        float_val: 1.0
      }
    }
  }
}
node {
  name: "InceptionV3/Mixed_5b/Branch_1/Conv2d_0a_1x1/BatchNorm/beta/Initializer/zeros"
  op: "Const"
  attr {
    key: "_class"
    value {
      list {
        s: "loc:@InceptionV3/Mixed_5b/Branch_1/Conv2d_0a_1x1/BatchNorm/beta"
      }
    }
  }
  attr {
    key: "dtype"
    value {
      type: DT_FLOAT
    }
  }
  attr {
    key: "value"
    value {
      tensor {
        dtype: DT_FLOAT
        tensor_shape {
          dim {
            size: 48
          }
        }
        float_val: 0.0
      }
    }
  }
}
node {
  name: "InceptionV3/Mixed_5b/Branch_1/Conv2d_0a_1x1/BatchNorm/beta"
  op: "VariableV2"
  attr {
    key: "_class"
    value {
      list {
        s: "loc:@InceptionV3/Mixed_5b/Branch_1/Conv2d_0a_1x1/BatchNorm/beta"
      }
    }
  }
  attr {
    key: "container"
    value {
      s: ""
    }
  }
  attr {
    key: "dtype"
    value {
      type: DT_FLOAT
    }
  }
  attr {
    key: "shape"
    value {
      shape {
        dim {
          size: 48
        }
      }
    }
  }
  attr {
    key: "shared_name"
    value {
      s: ""
    }
  }
}
node {
  name: "InceptionV3/Mixed_5b/Branch_1/Conv2d_0a_1x1/BatchNorm/beta/Assign"
  op: "Assign"
  input: "InceptionV3/Mixed_5b/Branch_1/Conv2d_0a_1x1/BatchNorm/beta"
  input: "InceptionV3/Mixed_5b/Branch_1/Conv2d_0a_1x1/BatchNorm/beta/Initializer/zeros"
  attr {
    key: "T"
    value {
      type: DT_FLOAT
    }
  }
  attr {
    key: "_class"
    value {
      list {
        s: "loc:@InceptionV3/Mixed_5b/Branch_1/Conv2d_0a_1x1/BatchNorm/beta"
      }
    }
  }
  attr {
    key: "use_locking"
    value {
      b: true
    }
  }
  attr {
    key: "validate_shape"
    value {
      b: true
    }
  }
}
node {
  name: "InceptionV3/Mixed_5b/Branch_1/Conv2d_0a_1x1/BatchNorm/beta/read"
  op: "Identity"
  input: "InceptionV3/Mixed_5b/Branch_1/Conv2d_0a_1x1/BatchNorm/beta"
  attr {
    key: "T"
    value {
      type: DT_FLOAT
    }
  }
  attr {
    key: "_class"
    value {
      list {
        s: "loc:@InceptionV3/Mixed_5b/Branch_1/Conv2d_0a_1x1/BatchNorm/beta"
      }
    }
  }
}
node {
  name: "InceptionV3/Mixed_5b/Branch_1/Conv2d_0a_1x1/BatchNorm/moving_mean/Initializer/zeros"
  op: "Const"
  attr {
    key: "_class"
    value {
      list {
        s: "loc:@InceptionV3/Mixed_5b/Branch_1/Conv2d_0a_1x1/BatchNorm/moving_mean"
      }
    }
  }
  attr {
    key: "dtype"
    value {
      type: DT_FLOAT
    }
  }
  attr {
    key: "value"
    value {
      tensor {
        dtype: DT_FLOAT
        tensor_shape {
          dim {
            size: 48
          }
        }
        float_val: 0.0
      }
    }
  }
}
node {
  name: "InceptionV3/Mixed_5b/Branch_1/Conv2d_0a_1x1/BatchNorm/moving_mean"
  op: "VariableV2"
  attr {
    key: "_class"
    value {
      list {
        s: "loc:@InceptionV3/Mixed_5b/Branch_1/Conv2d_0a_1x1/BatchNorm/moving_mean"
      }
    }
  }
  attr {
    key: "container"
    value {
      s: ""
    }
  }
  attr {
    key: "dtype"
    value {
      type: DT_FLOAT
    }
  }
  attr {
    key: "shape"
    value {
      shape {
        dim {
          size: 48
        }
      }
    }
  }
  attr {
    key: "shared_name"
    value {
      s: ""
    }
  }
}
node {
  name: "InceptionV3/Mixed_5b/Branch_1/Conv2d_0a_1x1/BatchNorm/moving_mean/Assign"
  op: "Assign"
  input: "InceptionV3/Mixed_5b/Branch_1/Conv2d_0a_1x1/BatchNorm/moving_mean"
  input: "InceptionV3/Mixed_5b/Branch_1/Conv2d_0a_1x1/BatchNorm/moving_mean/Initializer/zeros"
  attr {
    key: "T"
    value {
      type: DT_FLOAT
    }
  }
  attr {
    key: "_class"
    value {
      list {
        s: "loc:@InceptionV3/Mixed_5b/Branch_1/Conv2d_0a_1x1/BatchNorm/moving_mean"
      }
    }
  }
  attr {
    key: "use_locking"
    value {
      b: true
    }
  }
  attr {
    key: "validate_shape"
    value {
      b: true
    }
  }
}
node {
  name: "InceptionV3/Mixed_5b/Branch_1/Conv2d_0a_1x1/BatchNorm/moving_mean/read"
  op: "Identity"
  input: "InceptionV3/Mixed_5b/Branch_1/Conv2d_0a_1x1/BatchNorm/moving_mean"
  attr {
    key: "T"
    value {
      type: DT_FLOAT
    }
  }
  attr {
    key: "_class"
    value {
      list {
        s: "loc:@InceptionV3/Mixed_5b/Branch_1/Conv2d_0a_1x1/BatchNorm/moving_mean"
      }
    }
  }
}
node {
  name: "InceptionV3/Mixed_5b/Branch_1/Conv2d_0a_1x1/BatchNorm/moving_variance/Initializer/ones"
  op: "Const"
  attr {
    key: "_class"
    value {
      list {
        s: "loc:@InceptionV3/Mixed_5b/Branch_1/Conv2d_0a_1x1/BatchNorm/moving_variance"
      }
    }
  }
  attr {
    key: "dtype"
    value {
      type: DT_FLOAT
    }
  }
  attr {
    key: "value"
    value {
      tensor {
        dtype: DT_FLOAT
        tensor_shape {
          dim {
            size: 48
          }
        }
        float_val: 1.0
      }
    }
  }
}
node {
  name: "InceptionV3/Mixed_5b/Branch_1/Conv2d_0a_1x1/BatchNorm/moving_variance"
  op: "VariableV2"
  attr {
    key: "_class"
    value {
      list {
        s: "loc:@InceptionV3/Mixed_5b/Branch_1/Conv2d_0a_1x1/BatchNorm/moving_variance"
      }
    }
  }
  attr {
    key: "container"
    value {
      s: ""
    }
  }
  attr {
    key: "dtype"
    value {
      type: DT_FLOAT
    }
  }
  attr {
    key: "shape"
    value {
      shape {
        dim {
          size: 48
        }
      }
    }
  }
  attr {
    key: "shared_name"
    value {
      s: ""
    }
  }
}
node {
  name: "InceptionV3/Mixed_5b/Branch_1/Conv2d_0a_1x1/BatchNorm/moving_variance/Assign"
  op: "Assign"
  input: "InceptionV3/Mixed_5b/Branch_1/Conv2d_0a_1x1/BatchNorm/moving_variance"
  input: "InceptionV3/Mixed_5b/Branch_1/Conv2d_0a_1x1/BatchNorm/moving_variance/Initializer/ones"
  attr {
    key: "T"
    value {
      type: DT_FLOAT
    }
  }
  attr {
    key: "_class"
    value {
      list {
        s: "loc:@InceptionV3/Mixed_5b/Branch_1/Conv2d_0a_1x1/BatchNorm/moving_variance"
      }
    }
  }
  attr {
    key: "use_locking"
    value {
      b: true
    }
  }
  attr {
    key: "validate_shape"
    value {
      b: true
    }
  }
}
node {
  name: "InceptionV3/Mixed_5b/Branch_1/Conv2d_0a_1x1/BatchNorm/moving_variance/read"
  op: "Identity"
  input: "InceptionV3/Mixed_5b/Branch_1/Conv2d_0a_1x1/BatchNorm/moving_variance"
  attr {
    key: "T"
    value {
      type: DT_FLOAT
    }
  }
  attr {
    key: "_class"
    value {
      list {
        s: "loc:@InceptionV3/Mixed_5b/Branch_1/Conv2d_0a_1x1/BatchNorm/moving_variance"
      }
    }
  }
}
node {
  name: "InceptionV3/InceptionV3/Mixed_5b/Branch_1/Conv2d_0a_1x1/BatchNorm/Const_1"
  op: "Const"
  attr {
    key: "dtype"
    value {
      type: DT_FLOAT
    }
  }
  attr {
    key: "value"
    value {
      tensor {
        dtype: DT_FLOAT
        tensor_shape {
          dim {
          }
        }
      }
    }
  }
}
node {
  name: "InceptionV3/InceptionV3/Mixed_5b/Branch_1/Conv2d_0a_1x1/BatchNorm/Const_2"
  op: "Const"
  attr {
    key: "dtype"
    value {
      type: DT_FLOAT
    }
  }
  attr {
    key: "value"
    value {
      tensor {
        dtype: DT_FLOAT
        tensor_shape {
          dim {
          }
        }
      }
    }
  }
}
node {
  name: "InceptionV3/InceptionV3/Mixed_5b/Branch_1/Conv2d_0a_1x1/BatchNorm/FusedBatchNorm"
  op: "FusedBatchNorm"
  input: "InceptionV3/InceptionV3/Mixed_5b/Branch_1/Conv2d_0a_1x1/Conv2D"
  input: "InceptionV3/InceptionV3/Mixed_5b/Branch_1/Conv2d_0a_1x1/BatchNorm/Const"
  input: "InceptionV3/Mixed_5b/Branch_1/Conv2d_0a_1x1/BatchNorm/beta/read"
  input: "InceptionV3/InceptionV3/Mixed_5b/Branch_1/Conv2d_0a_1x1/BatchNorm/Const_1"
  input: "InceptionV3/InceptionV3/Mixed_5b/Branch_1/Conv2d_0a_1x1/BatchNorm/Const_2"
  attr {
    key: "T"
    value {
      type: DT_FLOAT
    }
  }
  attr {
    key: "data_format"
    value {
      s: "NHWC"
    }
  }
  attr {
    key: "epsilon"
    value {
      f: 0.0010000000474974513
    }
  }
  attr {
    key: "is_training"
    value {
      b: true
    }
  }
}
node {
  name: "InceptionV3/InceptionV3/Mixed_5b/Branch_1/Conv2d_0a_1x1/BatchNorm/Const_3"
  op: "Const"
  attr {
    key: "dtype"
    value {
      type: DT_FLOAT
    }
  }
  attr {
    key: "value"
    value {
      tensor {
        dtype: DT_FLOAT
        tensor_shape {
        }
        float_val: 0.9997000098228455
      }
    }
  }
}
node {
  name: "InceptionV3/InceptionV3/Mixed_5b/Branch_1/Conv2d_0a_1x1/BatchNorm/AssignMovingAvg/sub/x"
  op: "Const"
  attr {
    key: "_class"
    value {
      list {
        s: "loc:@InceptionV3/Mixed_5b/Branch_1/Conv2d_0a_1x1/BatchNorm/moving_mean"
      }
    }
  }
  attr {
    key: "dtype"
    value {
      type: DT_FLOAT
    }
  }
  attr {
    key: "value"
    value {
      tensor {
        dtype: DT_FLOAT
        tensor_shape {
        }
        float_val: 1.0
      }
    }
  }
}
node {
  name: "InceptionV3/InceptionV3/Mixed_5b/Branch_1/Conv2d_0a_1x1/BatchNorm/AssignMovingAvg/sub"
  op: "Sub"
  input: "InceptionV3/InceptionV3/Mixed_5b/Branch_1/Conv2d_0a_1x1/BatchNorm/AssignMovingAvg/sub/x"
  input: "InceptionV3/InceptionV3/Mixed_5b/Branch_1/Conv2d_0a_1x1/BatchNorm/Const_3"
  attr {
    key: "T"
    value {
      type: DT_FLOAT
    }
  }
  attr {
    key: "_class"
    value {
      list {
        s: "loc:@InceptionV3/Mixed_5b/Branch_1/Conv2d_0a_1x1/BatchNorm/moving_mean"
      }
    }
  }
}
node {
  name: "InceptionV3/InceptionV3/Mixed_5b/Branch_1/Conv2d_0a_1x1/BatchNorm/AssignMovingAvg/sub_1"
  op: "Sub"
  input: "InceptionV3/Mixed_5b/Branch_1/Conv2d_0a_1x1/BatchNorm/moving_mean/read"
  input: "InceptionV3/InceptionV3/Mixed_5b/Branch_1/Conv2d_0a_1x1/BatchNorm/FusedBatchNorm:1"
  attr {
    key: "T"
    value {
      type: DT_FLOAT
    }
  }
  attr {
    key: "_class"
    value {
      list {
        s: "loc:@InceptionV3/Mixed_5b/Branch_1/Conv2d_0a_1x1/BatchNorm/moving_mean"
      }
    }
  }
}
node {
  name: "InceptionV3/InceptionV3/Mixed_5b/Branch_1/Conv2d_0a_1x1/BatchNorm/AssignMovingAvg/mul"
  op: "Mul"
  input: "InceptionV3/InceptionV3/Mixed_5b/Branch_1/Conv2d_0a_1x1/BatchNorm/AssignMovingAvg/sub_1"
  input: "InceptionV3/InceptionV3/Mixed_5b/Branch_1/Conv2d_0a_1x1/BatchNorm/AssignMovingAvg/sub"
  attr {
    key: "T"
    value {
      type: DT_FLOAT
    }
  }
  attr {
    key: "_class"
    value {
      list {
        s: "loc:@InceptionV3/Mixed_5b/Branch_1/Conv2d_0a_1x1/BatchNorm/moving_mean"
      }
    }
  }
}
node {
  name: "InceptionV3/InceptionV3/Mixed_5b/Branch_1/Conv2d_0a_1x1/BatchNorm/AssignMovingAvg"
  op: "AssignSub"
  input: "InceptionV3/Mixed_5b/Branch_1/Conv2d_0a_1x1/BatchNorm/moving_mean"
  input: "InceptionV3/InceptionV3/Mixed_5b/Branch_1/Conv2d_0a_1x1/BatchNorm/AssignMovingAvg/mul"
  attr {
    key: "T"
    value {
      type: DT_FLOAT
    }
  }
  attr {
    key: "_class"
    value {
      list {
        s: "loc:@InceptionV3/Mixed_5b/Branch_1/Conv2d_0a_1x1/BatchNorm/moving_mean"
      }
    }
  }
  attr {
    key: "use_locking"
    value {
      b: false
    }
  }
}
node {
  name: "InceptionV3/InceptionV3/Mixed_5b/Branch_1/Conv2d_0a_1x1/BatchNorm/AssignMovingAvg_1/sub/x"
  op: "Const"
  attr {
    key: "_class"
    value {
      list {
        s: "loc:@InceptionV3/Mixed_5b/Branch_1/Conv2d_0a_1x1/BatchNorm/moving_variance"
      }
    }
  }
  attr {
    key: "dtype"
    value {
      type: DT_FLOAT
    }
  }
  attr {
    key: "value"
    value {
      tensor {
        dtype: DT_FLOAT
        tensor_shape {
        }
        float_val: 1.0
      }
    }
  }
}
node {
  name: "InceptionV3/InceptionV3/Mixed_5b/Branch_1/Conv2d_0a_1x1/BatchNorm/AssignMovingAvg_1/sub"
  op: "Sub"
  input: "InceptionV3/InceptionV3/Mixed_5b/Branch_1/Conv2d_0a_1x1/BatchNorm/AssignMovingAvg_1/sub/x"
  input: "InceptionV3/InceptionV3/Mixed_5b/Branch_1/Conv2d_0a_1x1/BatchNorm/Const_3"
  attr {
    key: "T"
    value {
      type: DT_FLOAT
    }
  }
  attr {
    key: "_class"
    value {
      list {
        s: "loc:@InceptionV3/Mixed_5b/Branch_1/Conv2d_0a_1x1/BatchNorm/moving_variance"
      }
    }
  }
}
node {
  name: "InceptionV3/InceptionV3/Mixed_5b/Branch_1/Conv2d_0a_1x1/BatchNorm/AssignMovingAvg_1/sub_1"
  op: "Sub"
  input: "InceptionV3/Mixed_5b/Branch_1/Conv2d_0a_1x1/BatchNorm/moving_variance/read"
  input: "InceptionV3/InceptionV3/Mixed_5b/Branch_1/Conv2d_0a_1x1/BatchNorm/FusedBatchNorm:2"
  attr {
    key: "T"
    value {
      type: DT_FLOAT
    }
  }
  attr {
    key: "_class"
    value {
      list {
        s: "loc:@InceptionV3/Mixed_5b/Branch_1/Conv2d_0a_1x1/BatchNorm/moving_variance"
      }
    }
  }
}
node {
  name: "InceptionV3/InceptionV3/Mixed_5b/Branch_1/Conv2d_0a_1x1/BatchNorm/AssignMovingAvg_1/mul"
  op: "Mul"
  input: "InceptionV3/InceptionV3/Mixed_5b/Branch_1/Conv2d_0a_1x1/BatchNorm/AssignMovingAvg_1/sub_1"
  input: "InceptionV3/InceptionV3/Mixed_5b/Branch_1/Conv2d_0a_1x1/BatchNorm/AssignMovingAvg_1/sub"
  attr {
    key: "T"
    value {
      type: DT_FLOAT
    }
  }
  attr {
    key: "_class"
    value {
      list {
        s: "loc:@InceptionV3/Mixed_5b/Branch_1/Conv2d_0a_1x1/BatchNorm/moving_variance"
      }
    }
  }
}
node {
  name: "InceptionV3/InceptionV3/Mixed_5b/Branch_1/Conv2d_0a_1x1/BatchNorm/AssignMovingAvg_1"
  op: "AssignSub"
  input: "InceptionV3/Mixed_5b/Branch_1/Conv2d_0a_1x1/BatchNorm/moving_variance"
  input: "InceptionV3/InceptionV3/Mixed_5b/Branch_1/Conv2d_0a_1x1/BatchNorm/AssignMovingAvg_1/mul"
  attr {
    key: "T"
    value {
      type: DT_FLOAT
    }
  }
  attr {
    key: "_class"
    value {
      list {
        s: "loc:@InceptionV3/Mixed_5b/Branch_1/Conv2d_0a_1x1/BatchNorm/moving_variance"
      }
    }
  }
  attr {
    key: "use_locking"
    value {
      b: false
    }
  }
}
node {
  name: "InceptionV3/InceptionV3/Mixed_5b/Branch_1/Conv2d_0a_1x1/Relu"
  op: "Relu"
  input: "InceptionV3/InceptionV3/Mixed_5b/Branch_1/Conv2d_0a_1x1/BatchNorm/FusedBatchNorm"
  attr {
    key: "T"
    value {
      type: DT_FLOAT
    }
  }
}
node {
  name: "InceptionV3/Mixed_5b/Branch_1/Conv2d_0b_5x5/weights/Initializer/truncated_normal/shape"
  op: "Const"
  attr {
    key: "_class"
    value {
      list {
        s: "loc:@InceptionV3/Mixed_5b/Branch_1/Conv2d_0b_5x5/weights"
      }
    }
  }
  attr {
    key: "dtype"
    value {
      type: DT_INT32
    }
  }
  attr {
    key: "value"
    value {
      tensor {
        dtype: DT_INT32
        tensor_shape {
          dim {
            size: 4
          }
        }
        tensor_content: "\005\000\000\000\005\000\000\0000\000\000\000@\000\000\000"
      }
    }
  }
}
node {
  name: "InceptionV3/Mixed_5b/Branch_1/Conv2d_0b_5x5/weights/Initializer/truncated_normal/mean"
  op: "Const"
  attr {
    key: "_class"
    value {
      list {
        s: "loc:@InceptionV3/Mixed_5b/Branch_1/Conv2d_0b_5x5/weights"
      }
    }
  }
  attr {
    key: "dtype"
    value {
      type: DT_FLOAT
    }
  }
  attr {
    key: "value"
    value {
      tensor {
        dtype: DT_FLOAT
        tensor_shape {
        }
        float_val: 0.0
      }
    }
  }
}
node {
  name: "InceptionV3/Mixed_5b/Branch_1/Conv2d_0b_5x5/weights/Initializer/truncated_normal/stddev"
  op: "Const"
  attr {
    key: "_class"
    value {
      list {
        s: "loc:@InceptionV3/Mixed_5b/Branch_1/Conv2d_0b_5x5/weights"
      }
    }
  }
  attr {
    key: "dtype"
    value {
      type: DT_FLOAT
    }
  }
  attr {
    key: "value"
    value {
      tensor {
        dtype: DT_FLOAT
        tensor_shape {
        }
        float_val: 0.04654746502637863
      }
    }
  }
}
node {
  name: "InceptionV3/Mixed_5b/Branch_1/Conv2d_0b_5x5/weights/Initializer/truncated_normal/TruncatedNormal"
  op: "TruncatedNormal"
  input: "InceptionV3/Mixed_5b/Branch_1/Conv2d_0b_5x5/weights/Initializer/truncated_normal/shape"
  attr {
    key: "T"
    value {
      type: DT_INT32
    }
  }
  attr {
    key: "_class"
    value {
      list {
        s: "loc:@InceptionV3/Mixed_5b/Branch_1/Conv2d_0b_5x5/weights"
      }
    }
  }
  attr {
    key: "dtype"
    value {
      type: DT_FLOAT
    }
  }
  attr {
    key: "seed"
    value {
      i: 0
    }
  }
  attr {
    key: "seed2"
    value {
      i: 0
    }
  }
}
node {
  name: "InceptionV3/Mixed_5b/Branch_1/Conv2d_0b_5x5/weights/Initializer/truncated_normal/mul"
  op: "Mul"
  input: "InceptionV3/Mixed_5b/Branch_1/Conv2d_0b_5x5/weights/Initializer/truncated_normal/TruncatedNormal"
  input: "InceptionV3/Mixed_5b/Branch_1/Conv2d_0b_5x5/weights/Initializer/truncated_normal/stddev"
  attr {
    key: "T"
    value {
      type: DT_FLOAT
    }
  }
  attr {
    key: "_class"
    value {
      list {
        s: "loc:@InceptionV3/Mixed_5b/Branch_1/Conv2d_0b_5x5/weights"
      }
    }
  }
}
node {
  name: "InceptionV3/Mixed_5b/Branch_1/Conv2d_0b_5x5/weights/Initializer/truncated_normal"
  op: "Add"
  input: "InceptionV3/Mixed_5b/Branch_1/Conv2d_0b_5x5/weights/Initializer/truncated_normal/mul"
  input: "InceptionV3/Mixed_5b/Branch_1/Conv2d_0b_5x5/weights/Initializer/truncated_normal/mean"
  attr {
    key: "T"
    value {
      type: DT_FLOAT
    }
  }
  attr {
    key: "_class"
    value {
      list {
        s: "loc:@InceptionV3/Mixed_5b/Branch_1/Conv2d_0b_5x5/weights"
      }
    }
  }
}
node {
  name: "InceptionV3/Mixed_5b/Branch_1/Conv2d_0b_5x5/weights"
  op: "VariableV2"
  attr {
    key: "_class"
    value {
      list {
        s: "loc:@InceptionV3/Mixed_5b/Branch_1/Conv2d_0b_5x5/weights"
      }
    }
  }
  attr {
    key: "container"
    value {
      s: ""
    }
  }
  attr {
    key: "dtype"
    value {
      type: DT_FLOAT
    }
  }
  attr {
    key: "shape"
    value {
      shape {
        dim {
          size: 5
        }
        dim {
          size: 5
        }
        dim {
          size: 48
        }
        dim {
          size: 64
        }
      }
    }
  }
  attr {
    key: "shared_name"
    value {
      s: ""
    }
  }
}
node {
  name: "InceptionV3/Mixed_5b/Branch_1/Conv2d_0b_5x5/weights/Assign"
  op: "Assign"
  input: "InceptionV3/Mixed_5b/Branch_1/Conv2d_0b_5x5/weights"
  input: "InceptionV3/Mixed_5b/Branch_1/Conv2d_0b_5x5/weights/Initializer/truncated_normal"
  attr {
    key: "T"
    value {
      type: DT_FLOAT
    }
  }
  attr {
    key: "_class"
    value {
      list {
        s: "loc:@InceptionV3/Mixed_5b/Branch_1/Conv2d_0b_5x5/weights"
      }
    }
  }
  attr {
    key: "use_locking"
    value {
      b: true
    }
  }
  attr {
    key: "validate_shape"
    value {
      b: true
    }
  }
}
node {
  name: "InceptionV3/Mixed_5b/Branch_1/Conv2d_0b_5x5/weights/read"
  op: "Identity"
  input: "InceptionV3/Mixed_5b/Branch_1/Conv2d_0b_5x5/weights"
  attr {
    key: "T"
    value {
      type: DT_FLOAT
    }
  }
  attr {
    key: "_class"
    value {
      list {
        s: "loc:@InceptionV3/Mixed_5b/Branch_1/Conv2d_0b_5x5/weights"
      }
    }
  }
}
node {
  name: "InceptionV3/InceptionV3/Mixed_5b/Branch_1/Conv2d_0b_5x5/dilation_rate"
  op: "Const"
  attr {
    key: "dtype"
    value {
      type: DT_INT32
    }
  }
  attr {
    key: "value"
    value {
      tensor {
        dtype: DT_INT32
        tensor_shape {
          dim {
            size: 2
          }
        }
        tensor_content: "\001\000\000\000\001\000\000\000"
      }
    }
  }
}
node {
  name: "InceptionV3/InceptionV3/Mixed_5b/Branch_1/Conv2d_0b_5x5/Conv2D"
  op: "Conv2D"
  input: "InceptionV3/InceptionV3/Mixed_5b/Branch_1/Conv2d_0a_1x1/Relu"
  input: "InceptionV3/Mixed_5b/Branch_1/Conv2d_0b_5x5/weights/read"
  attr {
    key: "T"
    value {
      type: DT_FLOAT
    }
  }
  attr {
    key: "data_format"
    value {
      s: "NHWC"
    }
  }
  attr {
    key: "dilations"
    value {
      list {
        i: 1
        i: 1
        i: 1
        i: 1
      }
    }
  }
  attr {
    key: "padding"
    value {
      s: "SAME"
    }
  }
  attr {
    key: "strides"
    value {
      list {
        i: 1
        i: 1
        i: 1
        i: 1
      }
    }
  }
  attr {
    key: "use_cudnn_on_gpu"
    value {
      b: true
    }
  }
}
node {
  name: "InceptionV3/InceptionV3/Mixed_5b/Branch_1/Conv2d_0b_5x5/BatchNorm/Const"
  op: "Const"
  attr {
    key: "dtype"
    value {
      type: DT_FLOAT
    }
  }
  attr {
    key: "value"
    value {
      tensor {
        dtype: DT_FLOAT
        tensor_shape {
          dim {
            size: 64
          }
        }
        float_val: 1.0
      }
    }
  }
}
node {
  name: "InceptionV3/Mixed_5b/Branch_1/Conv2d_0b_5x5/BatchNorm/beta/Initializer/zeros"
  op: "Const"
  attr {
    key: "_class"
    value {
      list {
        s: "loc:@InceptionV3/Mixed_5b/Branch_1/Conv2d_0b_5x5/BatchNorm/beta"
      }
    }
  }
  attr {
    key: "dtype"
    value {
      type: DT_FLOAT
    }
  }
  attr {
    key: "value"
    value {
      tensor {
        dtype: DT_FLOAT
        tensor_shape {
          dim {
            size: 64
          }
        }
        float_val: 0.0
      }
    }
  }
}
node {
  name: "InceptionV3/Mixed_5b/Branch_1/Conv2d_0b_5x5/BatchNorm/beta"
  op: "VariableV2"
  attr {
    key: "_class"
    value {
      list {
        s: "loc:@InceptionV3/Mixed_5b/Branch_1/Conv2d_0b_5x5/BatchNorm/beta"
      }
    }
  }
  attr {
    key: "container"
    value {
      s: ""
    }
  }
  attr {
    key: "dtype"
    value {
      type: DT_FLOAT
    }
  }
  attr {
    key: "shape"
    value {
      shape {
        dim {
          size: 64
        }
      }
    }
  }
  attr {
    key: "shared_name"
    value {
      s: ""
    }
  }
}
node {
  name: "InceptionV3/Mixed_5b/Branch_1/Conv2d_0b_5x5/BatchNorm/beta/Assign"
  op: "Assign"
  input: "InceptionV3/Mixed_5b/Branch_1/Conv2d_0b_5x5/BatchNorm/beta"
  input: "InceptionV3/Mixed_5b/Branch_1/Conv2d_0b_5x5/BatchNorm/beta/Initializer/zeros"
  attr {
    key: "T"
    value {
      type: DT_FLOAT
    }
  }
  attr {
    key: "_class"
    value {
      list {
        s: "loc:@InceptionV3/Mixed_5b/Branch_1/Conv2d_0b_5x5/BatchNorm/beta"
      }
    }
  }
  attr {
    key: "use_locking"
    value {
      b: true
    }
  }
  attr {
    key: "validate_shape"
    value {
      b: true
    }
  }
}
node {
  name: "InceptionV3/Mixed_5b/Branch_1/Conv2d_0b_5x5/BatchNorm/beta/read"
  op: "Identity"
  input: "InceptionV3/Mixed_5b/Branch_1/Conv2d_0b_5x5/BatchNorm/beta"
  attr {
    key: "T"
    value {
      type: DT_FLOAT
    }
  }
  attr {
    key: "_class"
    value {
      list {
        s: "loc:@InceptionV3/Mixed_5b/Branch_1/Conv2d_0b_5x5/BatchNorm/beta"
      }
    }
  }
}
node {
  name: "InceptionV3/Mixed_5b/Branch_1/Conv2d_0b_5x5/BatchNorm/moving_mean/Initializer/zeros"
  op: "Const"
  attr {
    key: "_class"
    value {
      list {
        s: "loc:@InceptionV3/Mixed_5b/Branch_1/Conv2d_0b_5x5/BatchNorm/moving_mean"
      }
    }
  }
  attr {
    key: "dtype"
    value {
      type: DT_FLOAT
    }
  }
  attr {
    key: "value"
    value {
      tensor {
        dtype: DT_FLOAT
        tensor_shape {
          dim {
            size: 64
          }
        }
        float_val: 0.0
      }
    }
  }
}
node {
  name: "InceptionV3/Mixed_5b/Branch_1/Conv2d_0b_5x5/BatchNorm/moving_mean"
  op: "VariableV2"
  attr {
    key: "_class"
    value {
      list {
        s: "loc:@InceptionV3/Mixed_5b/Branch_1/Conv2d_0b_5x5/BatchNorm/moving_mean"
      }
    }
  }
  attr {
    key: "container"
    value {
      s: ""
    }
  }
  attr {
    key: "dtype"
    value {
      type: DT_FLOAT
    }
  }
  attr {
    key: "shape"
    value {
      shape {
        dim {
          size: 64
        }
      }
    }
  }
  attr {
    key: "shared_name"
    value {
      s: ""
    }
  }
}
node {
  name: "InceptionV3/Mixed_5b/Branch_1/Conv2d_0b_5x5/BatchNorm/moving_mean/Assign"
  op: "Assign"
  input: "InceptionV3/Mixed_5b/Branch_1/Conv2d_0b_5x5/BatchNorm/moving_mean"
  input: "InceptionV3/Mixed_5b/Branch_1/Conv2d_0b_5x5/BatchNorm/moving_mean/Initializer/zeros"
  attr {
    key: "T"
    value {
      type: DT_FLOAT
    }
  }
  attr {
    key: "_class"
    value {
      list {
        s: "loc:@InceptionV3/Mixed_5b/Branch_1/Conv2d_0b_5x5/BatchNorm/moving_mean"
      }
    }
  }
  attr {
    key: "use_locking"
    value {
      b: true
    }
  }
  attr {
    key: "validate_shape"
    value {
      b: true
    }
  }
}
node {
  name: "InceptionV3/Mixed_5b/Branch_1/Conv2d_0b_5x5/BatchNorm/moving_mean/read"
  op: "Identity"
  input: "InceptionV3/Mixed_5b/Branch_1/Conv2d_0b_5x5/BatchNorm/moving_mean"
  attr {
    key: "T"
    value {
      type: DT_FLOAT
    }
  }
  attr {
    key: "_class"
    value {
      list {
        s: "loc:@InceptionV3/Mixed_5b/Branch_1/Conv2d_0b_5x5/BatchNorm/moving_mean"
      }
    }
  }
}
node {
  name: "InceptionV3/Mixed_5b/Branch_1/Conv2d_0b_5x5/BatchNorm/moving_variance/Initializer/ones"
  op: "Const"
  attr {
    key: "_class"
    value {
      list {
        s: "loc:@InceptionV3/Mixed_5b/Branch_1/Conv2d_0b_5x5/BatchNorm/moving_variance"
      }
    }
  }
  attr {
    key: "dtype"
    value {
      type: DT_FLOAT
    }
  }
  attr {
    key: "value"
    value {
      tensor {
        dtype: DT_FLOAT
        tensor_shape {
          dim {
            size: 64
          }
        }
        float_val: 1.0
      }
    }
  }
}
node {
  name: "InceptionV3/Mixed_5b/Branch_1/Conv2d_0b_5x5/BatchNorm/moving_variance"
  op: "VariableV2"
  attr {
    key: "_class"
    value {
      list {
        s: "loc:@InceptionV3/Mixed_5b/Branch_1/Conv2d_0b_5x5/BatchNorm/moving_variance"
      }
    }
  }
  attr {
    key: "container"
    value {
      s: ""
    }
  }
  attr {
    key: "dtype"
    value {
      type: DT_FLOAT
    }
  }
  attr {
    key: "shape"
    value {
      shape {
        dim {
          size: 64
        }
      }
    }
  }
  attr {
    key: "shared_name"
    value {
      s: ""
    }
  }
}
node {
  name: "InceptionV3/Mixed_5b/Branch_1/Conv2d_0b_5x5/BatchNorm/moving_variance/Assign"
  op: "Assign"
  input: "InceptionV3/Mixed_5b/Branch_1/Conv2d_0b_5x5/BatchNorm/moving_variance"
  input: "InceptionV3/Mixed_5b/Branch_1/Conv2d_0b_5x5/BatchNorm/moving_variance/Initializer/ones"
  attr {
    key: "T"
    value {
      type: DT_FLOAT
    }
  }
  attr {
    key: "_class"
    value {
      list {
        s: "loc:@InceptionV3/Mixed_5b/Branch_1/Conv2d_0b_5x5/BatchNorm/moving_variance"
      }
    }
  }
  attr {
    key: "use_locking"
    value {
      b: true
    }
  }
  attr {
    key: "validate_shape"
    value {
      b: true
    }
  }
}
node {
  name: "InceptionV3/Mixed_5b/Branch_1/Conv2d_0b_5x5/BatchNorm/moving_variance/read"
  op: "Identity"
  input: "InceptionV3/Mixed_5b/Branch_1/Conv2d_0b_5x5/BatchNorm/moving_variance"
  attr {
    key: "T"
    value {
      type: DT_FLOAT
    }
  }
  attr {
    key: "_class"
    value {
      list {
        s: "loc:@InceptionV3/Mixed_5b/Branch_1/Conv2d_0b_5x5/BatchNorm/moving_variance"
      }
    }
  }
}
node {
  name: "InceptionV3/InceptionV3/Mixed_5b/Branch_1/Conv2d_0b_5x5/BatchNorm/Const_1"
  op: "Const"
  attr {
    key: "dtype"
    value {
      type: DT_FLOAT
    }
  }
  attr {
    key: "value"
    value {
      tensor {
        dtype: DT_FLOAT
        tensor_shape {
          dim {
          }
        }
      }
    }
  }
}
node {
  name: "InceptionV3/InceptionV3/Mixed_5b/Branch_1/Conv2d_0b_5x5/BatchNorm/Const_2"
  op: "Const"
  attr {
    key: "dtype"
    value {
      type: DT_FLOAT
    }
  }
  attr {
    key: "value"
    value {
      tensor {
        dtype: DT_FLOAT
        tensor_shape {
          dim {
          }
        }
      }
    }
  }
}
node {
  name: "InceptionV3/InceptionV3/Mixed_5b/Branch_1/Conv2d_0b_5x5/BatchNorm/FusedBatchNorm"
  op: "FusedBatchNorm"
  input: "InceptionV3/InceptionV3/Mixed_5b/Branch_1/Conv2d_0b_5x5/Conv2D"
  input: "InceptionV3/InceptionV3/Mixed_5b/Branch_1/Conv2d_0b_5x5/BatchNorm/Const"
  input: "InceptionV3/Mixed_5b/Branch_1/Conv2d_0b_5x5/BatchNorm/beta/read"
  input: "InceptionV3/InceptionV3/Mixed_5b/Branch_1/Conv2d_0b_5x5/BatchNorm/Const_1"
  input: "InceptionV3/InceptionV3/Mixed_5b/Branch_1/Conv2d_0b_5x5/BatchNorm/Const_2"
  attr {
    key: "T"
    value {
      type: DT_FLOAT
    }
  }
  attr {
    key: "data_format"
    value {
      s: "NHWC"
    }
  }
  attr {
    key: "epsilon"
    value {
      f: 0.0010000000474974513
    }
  }
  attr {
    key: "is_training"
    value {
      b: true
    }
  }
}
node {
  name: "InceptionV3/InceptionV3/Mixed_5b/Branch_1/Conv2d_0b_5x5/BatchNorm/Const_3"
  op: "Const"
  attr {
    key: "dtype"
    value {
      type: DT_FLOAT
    }
  }
  attr {
    key: "value"
    value {
      tensor {
        dtype: DT_FLOAT
        tensor_shape {
        }
        float_val: 0.9997000098228455
      }
    }
  }
}
node {
  name: "InceptionV3/InceptionV3/Mixed_5b/Branch_1/Conv2d_0b_5x5/BatchNorm/AssignMovingAvg/sub/x"
  op: "Const"
  attr {
    key: "_class"
    value {
      list {
        s: "loc:@InceptionV3/Mixed_5b/Branch_1/Conv2d_0b_5x5/BatchNorm/moving_mean"
      }
    }
  }
  attr {
    key: "dtype"
    value {
      type: DT_FLOAT
    }
  }
  attr {
    key: "value"
    value {
      tensor {
        dtype: DT_FLOAT
        tensor_shape {
        }
        float_val: 1.0
      }
    }
  }
}
node {
  name: "InceptionV3/InceptionV3/Mixed_5b/Branch_1/Conv2d_0b_5x5/BatchNorm/AssignMovingAvg/sub"
  op: "Sub"
  input: "InceptionV3/InceptionV3/Mixed_5b/Branch_1/Conv2d_0b_5x5/BatchNorm/AssignMovingAvg/sub/x"
  input: "InceptionV3/InceptionV3/Mixed_5b/Branch_1/Conv2d_0b_5x5/BatchNorm/Const_3"
  attr {
    key: "T"
    value {
      type: DT_FLOAT
    }
  }
  attr {
    key: "_class"
    value {
      list {
        s: "loc:@InceptionV3/Mixed_5b/Branch_1/Conv2d_0b_5x5/BatchNorm/moving_mean"
      }
    }
  }
}
node {
  name: "InceptionV3/InceptionV3/Mixed_5b/Branch_1/Conv2d_0b_5x5/BatchNorm/AssignMovingAvg/sub_1"
  op: "Sub"
  input: "InceptionV3/Mixed_5b/Branch_1/Conv2d_0b_5x5/BatchNorm/moving_mean/read"
  input: "InceptionV3/InceptionV3/Mixed_5b/Branch_1/Conv2d_0b_5x5/BatchNorm/FusedBatchNorm:1"
  attr {
    key: "T"
    value {
      type: DT_FLOAT
    }
  }
  attr {
    key: "_class"
    value {
      list {
        s: "loc:@InceptionV3/Mixed_5b/Branch_1/Conv2d_0b_5x5/BatchNorm/moving_mean"
      }
    }
  }
}
node {
  name: "InceptionV3/InceptionV3/Mixed_5b/Branch_1/Conv2d_0b_5x5/BatchNorm/AssignMovingAvg/mul"
  op: "Mul"
  input: "InceptionV3/InceptionV3/Mixed_5b/Branch_1/Conv2d_0b_5x5/BatchNorm/AssignMovingAvg/sub_1"
  input: "InceptionV3/InceptionV3/Mixed_5b/Branch_1/Conv2d_0b_5x5/BatchNorm/AssignMovingAvg/sub"
  attr {
    key: "T"
    value {
      type: DT_FLOAT
    }
  }
  attr {
    key: "_class"
    value {
      list {
        s: "loc:@InceptionV3/Mixed_5b/Branch_1/Conv2d_0b_5x5/BatchNorm/moving_mean"
      }
    }
  }
}
node {
  name: "InceptionV3/InceptionV3/Mixed_5b/Branch_1/Conv2d_0b_5x5/BatchNorm/AssignMovingAvg"
  op: "AssignSub"
  input: "InceptionV3/Mixed_5b/Branch_1/Conv2d_0b_5x5/BatchNorm/moving_mean"
  input: "InceptionV3/InceptionV3/Mixed_5b/Branch_1/Conv2d_0b_5x5/BatchNorm/AssignMovingAvg/mul"
  attr {
    key: "T"
    value {
      type: DT_FLOAT
    }
  }
  attr {
    key: "_class"
…
    value {
      list {
        s: "loc:@InceptionV3/AuxLogits/Conv2d_1b_1x1/BatchNorm/moving_variance"
      }
    }
  }
  attr {
    key: "use_locking"
    value {
      b: true
    }
  }
  attr {
    key: "validate_shape"
    value {
      b: true
    }
  }
}
node {
  name: "InceptionV3/AuxLogits/Conv2d_1b_1x1/BatchNorm/moving_variance/read"
  op: "Identity"
  input: "InceptionV3/AuxLogits/Conv2d_1b_1x1/BatchNorm/moving_variance"
  attr {
    key: "T"
    value {
      type: DT_FLOAT
    }
  }
  attr {
    key: "_class"
    value {
      list {
        s: "loc:@InceptionV3/AuxLogits/Conv2d_1b_1x1/BatchNorm/moving_variance"
      }
    }
  }
}
node {
  name: "InceptionV3/AuxLogits/Conv2d_1b_1x1/BatchNorm/Const_1"
  op: "Const"
  attr {
    key: "dtype"
    value {
      type: DT_FLOAT
    }
  }
  attr {
    key: "value"
    value {
      tensor {
        dtype: DT_FLOAT
        tensor_shape {
          dim {
          }
        }
      }
    }
  }
}
node {
  name: "InceptionV3/AuxLogits/Conv2d_1b_1x1/BatchNorm/Const_2"
  op: "Const"
  attr {
    key: "dtype"
    value {
      type: DT_FLOAT
    }
  }
  attr {
    key: "value"
    value {
      tensor {
        dtype: DT_FLOAT
        tensor_shape {
          dim {
          }
        }
      }
    }
  }
}
node {
  name: "InceptionV3/AuxLogits/Conv2d_1b_1x1/BatchNorm/FusedBatchNorm"
  op: "FusedBatchNorm"
  input: "InceptionV3/AuxLogits/Conv2d_1b_1x1/Conv2D"
  input: "InceptionV3/AuxLogits/Conv2d_1b_1x1/BatchNorm/Const"
  input: "InceptionV3/AuxLogits/Conv2d_1b_1x1/BatchNorm/beta/read"
  input: "InceptionV3/AuxLogits/Conv2d_1b_1x1/BatchNorm/Const_1"
  input: "InceptionV3/AuxLogits/Conv2d_1b_1x1/BatchNorm/Const_2"
  attr {
    key: "T"
    value {
      type: DT_FLOAT
    }
  }
  attr {
    key: "data_format"
    value {
      s: "NHWC"
    }
  }
  attr {
    key: "epsilon"
    value {
      f: 0.0010000000474974513
    }
  }
  attr {
    key: "is_training"
    value {
      b: true
    }
  }
}
node {
  name: "InceptionV3/AuxLogits/Conv2d_1b_1x1/BatchNorm/Const_3"
  op: "Const"
  attr {
    key: "dtype"
    value {
      type: DT_FLOAT
    }
  }
  attr {
    key: "value"
    value {
      tensor {
        dtype: DT_FLOAT
        tensor_shape {
        }
        float_val: 0.9997000098228455
      }
    }
  }
}
node {
  name: "InceptionV3/AuxLogits/Conv2d_1b_1x1/BatchNorm/AssignMovingAvg/sub/x"
  op: "Const"
  attr {
    key: "_class"
    value {
      list {
        s: "loc:@InceptionV3/AuxLogits/Conv2d_1b_1x1/BatchNorm/moving_mean"
      }
    }
  }
  attr {
    key: "dtype"
    value {
      type: DT_FLOAT
    }
  }
  attr {
    key: "value"
    value {
      tensor {
        dtype: DT_FLOAT
        tensor_shape {
        }
        float_val: 1.0
      }
    }
  }
}
node {
  name: "InceptionV3/AuxLogits/Conv2d_1b_1x1/BatchNorm/AssignMovingAvg/sub"
  op: "Sub"
  input: "InceptionV3/AuxLogits/Conv2d_1b_1x1/BatchNorm/AssignMovingAvg/sub/x"
  input: "InceptionV3/AuxLogits/Conv2d_1b_1x1/BatchNorm/Const_3"
  attr {
    key: "T"
    value {
      type: DT_FLOAT
    }
  }
  attr {
    key: "_class"
    value {
      list {
        s: "loc:@InceptionV3/AuxLogits/Conv2d_1b_1x1/BatchNorm/moving_mean"
      }
    }
  }
}
node {
  name: "InceptionV3/AuxLogits/Conv2d_1b_1x1/BatchNorm/AssignMovingAvg/sub_1"
  op: "Sub"
  input: "InceptionV3/AuxLogits/Conv2d_1b_1x1/BatchNorm/moving_mean/read"
  input: "InceptionV3/AuxLogits/Conv2d_1b_1x1/BatchNorm/FusedBatchNorm:1"
  attr {
    key: "T"
    value {
      type: DT_FLOAT
    }
  }
  attr {
    key: "_class"
    value {
      list {
        s: "loc:@InceptionV3/AuxLogits/Conv2d_1b_1x1/BatchNorm/moving_mean"
      }
    }
  }
}
node {
  name: "InceptionV3/AuxLogits/Conv2d_1b_1x1/BatchNorm/AssignMovingAvg/mul"
  op: "Mul"
  input: "InceptionV3/AuxLogits/Conv2d_1b_1x1/BatchNorm/AssignMovingAvg/sub_1"
  input: "InceptionV3/AuxLogits/Conv2d_1b_1x1/BatchNorm/AssignMovingAvg/sub"
  attr {
    key: "T"
    value {
      type: DT_FLOAT
    }
  }
  attr {
    key: "_class"
    value {
      list {
        s: "loc:@InceptionV3/AuxLogits/Conv2d_1b_1x1/BatchNorm/moving_mean"
      }
    }
  }
}
node {
  name: "InceptionV3/AuxLogits/Conv2d_1b_1x1/BatchNorm/AssignMovingAvg"
  op: "AssignSub"
  input: "InceptionV3/AuxLogits/Conv2d_1b_1x1/BatchNorm/moving_mean"
  input: "InceptionV3/AuxLogits/Conv2d_1b_1x1/BatchNorm/AssignMovingAvg/mul"
  attr {
    key: "T"
    value {
      type: DT_FLOAT
    }
  }
  attr {
    key: "_class"
    value {
      list {
        s: "loc:@InceptionV3/AuxLogits/Conv2d_1b_1x1/BatchNorm/moving_mean"
      }
    }
  }
  attr {
    key: "use_locking"
    value {
      b: false
    }
  }
}
node {
  name: "InceptionV3/AuxLogits/Conv2d_1b_1x1/BatchNorm/AssignMovingAvg_1/sub/x"
  op: "Const"
  attr {
    key: "_class"
    value {
      list {
        s: "loc:@InceptionV3/AuxLogits/Conv2d_1b_1x1/BatchNorm/moving_variance"
      }
    }
  }
  attr {
    key: "dtype"
    value {
      type: DT_FLOAT
    }
  }
  attr {
    key: "value"
    value {
      tensor {
        dtype: DT_FLOAT
        tensor_shape {
        }
        float_val: 1.0
      }
    }
  }
}
node {
  name: "InceptionV3/AuxLogits/Conv2d_1b_1x1/BatchNorm/AssignMovingAvg_1/sub"
  op: "Sub"
  input: "InceptionV3/AuxLogits/Conv2d_1b_1x1/BatchNorm/AssignMovingAvg_1/sub/x"
  input: "InceptionV3/AuxLogits/Conv2d_1b_1x1/BatchNorm/Const_3"
  attr {
    key: "T"
    value {
      type: DT_FLOAT
    }
  }
  attr {
    key: "_class"
    value {
      list {
        s: "loc:@InceptionV3/AuxLogits/Conv2d_1b_1x1/BatchNorm/moving_variance"
      }
    }
  }
}
node {
  name: "InceptionV3/AuxLogits/Conv2d_1b_1x1/BatchNorm/AssignMovingAvg_1/sub_1"
  op: "Sub"
  input: "InceptionV3/AuxLogits/Conv2d_1b_1x1/BatchNorm/moving_variance/read"
  input: "InceptionV3/AuxLogits/Conv2d_1b_1x1/BatchNorm/FusedBatchNorm:2"
  attr {
    key: "T"
    value {
      type: DT_FLOAT
    }
  }
  attr {
    key: "_class"
    value {
      list {
        s: "loc:@InceptionV3/AuxLogits/Conv2d_1b_1x1/BatchNorm/moving_variance"
      }
    }
  }
}
node {
  name: "InceptionV3/AuxLogits/Conv2d_1b_1x1/BatchNorm/AssignMovingAvg_1/mul"
  op: "Mul"
  input: "InceptionV3/AuxLogits/Conv2d_1b_1x1/BatchNorm/AssignMovingAvg_1/sub_1"
  input: "InceptionV3/AuxLogits/Conv2d_1b_1x1/BatchNorm/AssignMovingAvg_1/sub"
  attr {
    key: "T"
    value {
      type: DT_FLOAT
    }
  }
  attr {
    key: "_class"
    value {
      list {
        s: "loc:@InceptionV3/AuxLogits/Conv2d_1b_1x1/BatchNorm/moving_variance"
      }
    }
  }
}
node {
  name: "InceptionV3/AuxLogits/Conv2d_1b_1x1/BatchNorm/AssignMovingAvg_1"
  op: "AssignSub"
  input: "InceptionV3/AuxLogits/Conv2d_1b_1x1/BatchNorm/moving_variance"
  input: "InceptionV3/AuxLogits/Conv2d_1b_1x1/BatchNorm/AssignMovingAvg_1/mul"
  attr {
    key: "T"
    value {
      type: DT_FLOAT
    }
  }
  attr {
    key: "_class"
    value {
      list {
        s: "loc:@InceptionV3/AuxLogits/Conv2d_1b_1x1/BatchNorm/moving_variance"
      }
    }
  }
  attr {
    key: "use_locking"
    value {
      b: false
    }
  }
}
node {
  name: "InceptionV3/AuxLogits/Conv2d_1b_1x1/Relu"
  op: "Relu"
  input: "InceptionV3/AuxLogits/Conv2d_1b_1x1/BatchNorm/FusedBatchNorm"
  attr {
    key: "T"
    value {
      type: DT_FLOAT
    }
  }
}
node {
  name: "InceptionV3/AuxLogits/Conv2d_2a_5x5/weights/Initializer/truncated_normal/shape"
  op: "Const"
  attr {
    key: "_class"
    value {
      list {
        s: "loc:@InceptionV3/AuxLogits/Conv2d_2a_5x5/weights"
      }
    }
  }
  attr {
    key: "dtype"
    value {
      type: DT_INT32
    }
  }
  attr {
    key: "value"
    value {
      tensor {
        dtype: DT_INT32
        tensor_shape {
          dim {
            size: 4
          }
        }
        tensor_content: "\005\000\000\000\005\000\000\000\200\000\000\000\000\003\000\000"
      }
    }
  }
}
node {
  name: "InceptionV3/AuxLogits/Conv2d_2a_5x5/weights/Initializer/truncated_normal/mean"
  op: "Const"
  attr {
    key: "_class"
    value {
      list {
        s: "loc:@InceptionV3/AuxLogits/Conv2d_2a_5x5/weights"
      }
    }
  }
  attr {
    key: "dtype"
    value {
      type: DT_FLOAT
    }
  }
  attr {
    key: "value"
    value {
      tensor {
        dtype: DT_FLOAT
        tensor_shape {
        }
        float_val: 0.0
      }
    }
  }
}
node {
  name: "InceptionV3/AuxLogits/Conv2d_2a_5x5/weights/Initializer/truncated_normal/stddev"
  op: "Const"
  attr {
    key: "_class"
    value {
      list {
        s: "loc:@InceptionV3/AuxLogits/Conv2d_2a_5x5/weights"
      }
    }
  }
  attr {
    key: "dtype"
    value {
      type: DT_FLOAT
    }
  }
  attr {
    key: "value"
    value {
      tensor {
        dtype: DT_FLOAT
        tensor_shape {
        }
        float_val: 0.009999999776482582
      }
    }
  }
}
node {
  name: "InceptionV3/AuxLogits/Conv2d_2a_5x5/weights/Initializer/truncated_normal/TruncatedNormal"
  op: "TruncatedNormal"
  input: "InceptionV3/AuxLogits/Conv2d_2a_5x5/weights/Initializer/truncated_normal/shape"
  attr {
    key: "T"
    value {
      type: DT_INT32
    }
  }
  attr {
    key: "_class"
    value {
      list {
        s: "loc:@InceptionV3/AuxLogits/Conv2d_2a_5x5/weights"
      }
    }
  }
  attr {
    key: "dtype"
    value {
      type: DT_FLOAT
    }
  }
  attr {
    key: "seed"
    value {
      i: 0
    }
  }
  attr {
    key: "seed2"
    value {
      i: 0
    }
  }
}
node {
  name: "InceptionV3/AuxLogits/Conv2d_2a_5x5/weights/Initializer/truncated_normal/mul"
  op: "Mul"
  input: "InceptionV3/AuxLogits/Conv2d_2a_5x5/weights/Initializer/truncated_normal/TruncatedNormal"
  input: "InceptionV3/AuxLogits/Conv2d_2a_5x5/weights/Initializer/truncated_normal/stddev"
  attr {
    key: "T"
    value {
      type: DT_FLOAT
    }
  }
  attr {
    key: "_class"
    value {
      list {
        s: "loc:@InceptionV3/AuxLogits/Conv2d_2a_5x5/weights"
      }
    }
  }
}
node {
  name: "InceptionV3/AuxLogits/Conv2d_2a_5x5/weights/Initializer/truncated_normal"
  op: "Add"
  input: "InceptionV3/AuxLogits/Conv2d_2a_5x5/weights/Initializer/truncated_normal/mul"
  input: "InceptionV3/AuxLogits/Conv2d_2a_5x5/weights/Initializer/truncated_normal/mean"
  attr {
    key: "T"
    value {
      type: DT_FLOAT
    }
  }
  attr {
    key: "_class"
    value {
      list {
        s: "loc:@InceptionV3/AuxLogits/Conv2d_2a_5x5/weights"
      }
    }
  }
}
node {
  name: "InceptionV3/AuxLogits/Conv2d_2a_5x5/weights"
  op: "VariableV2"
  attr {
    key: "_class"
    value {
      list {
        s: "loc:@InceptionV3/AuxLogits/Conv2d_2a_5x5/weights"
      }
    }
  }
  attr {
    key: "container"
    value {
      s: ""
    }
  }
  attr {
    key: "dtype"
    value {
      type: DT_FLOAT
    }
  }
  attr {
    key: "shape"
    value {
      shape {
        dim {
          size: 5
        }
        dim {
          size: 5
        }
        dim {
          size: 128
        }
        dim {
          size: 768
        }
      }
    }
  }
  attr {
    key: "shared_name"
    value {
      s: ""
    }
  }
}
node {
  name: "InceptionV3/AuxLogits/Conv2d_2a_5x5/weights/Assign"
  op: "Assign"
  input: "InceptionV3/AuxLogits/Conv2d_2a_5x5/weights"
  input: "InceptionV3/AuxLogits/Conv2d_2a_5x5/weights/Initializer/truncated_normal"
  attr {
    key: "T"
    value {
      type: DT_FLOAT
    }
  }
  attr {
    key: "_class"
    value {
      list {
        s: "loc:@InceptionV3/AuxLogits/Conv2d_2a_5x5/weights"
      }
    }
  }
  attr {
    key: "use_locking"
    value {
      b: true
    }
  }
  attr {
    key: "validate_shape"
    value {
      b: true
    }
  }
}
node {
  name: "InceptionV3/AuxLogits/Conv2d_2a_5x5/weights/read"
  op: "Identity"
  input: "InceptionV3/AuxLogits/Conv2d_2a_5x5/weights"
  attr {
    key: "T"
    value {
      type: DT_FLOAT
    }
  }
  attr {
    key: "_class"
    value {
      list {
        s: "loc:@InceptionV3/AuxLogits/Conv2d_2a_5x5/weights"
      }
    }
  }
}
node {
  name: "InceptionV3/AuxLogits/Conv2d_2a_5x5/dilation_rate"
  op: "Const"
  attr {
    key: "dtype"
    value {
      type: DT_INT32
    }
  }
  attr {
    key: "value"
    value {
      tensor {
        dtype: DT_INT32
        tensor_shape {
          dim {
            size: 2
          }
        }
        tensor_content: "\001\000\000\000\001\000\000\000"
      }
    }
  }
}
node {
  name: "InceptionV3/AuxLogits/Conv2d_2a_5x5/Conv2D"
  op: "Conv2D"
  input: "InceptionV3/AuxLogits/Conv2d_1b_1x1/Relu"
  input: "InceptionV3/AuxLogits/Conv2d_2a_5x5/weights/read"
  attr {
    key: "T"
    value {
      type: DT_FLOAT
    }
  }
  attr {
    key: "data_format"
    value {
      s: "NHWC"
    }
  }
  attr {
    key: "dilations"
    value {
      list {
        i: 1
        i: 1
        i: 1
        i: 1
      }
    }
  }
  attr {
    key: "padding"
    value {
      s: "VALID"
    }
  }
  attr {
    key: "strides"
    value {
      list {
        i: 1
        i: 1
        i: 1
        i: 1
      }
    }
  }
  attr {
    key: "use_cudnn_on_gpu"
    value {
      b: true
    }
  }
}
node {
  name: "InceptionV3/AuxLogits/Conv2d_2a_5x5/BatchNorm/Const"
  op: "Const"
  attr {
    key: "dtype"
    value {
      type: DT_FLOAT
    }
  }
  attr {
    key: "value"
    value {
      tensor {
        dtype: DT_FLOAT
        tensor_shape {
          dim {
            size: 768
          }
        }
        float_val: 1.0
      }
    }
  }
}
node {
  name: "InceptionV3/AuxLogits/Conv2d_2a_5x5/BatchNorm/beta/Initializer/zeros"
  op: "Const"
  attr {
    key: "_class"
    value {
      list {
        s: "loc:@InceptionV3/AuxLogits/Conv2d_2a_5x5/BatchNorm/beta"
      }
    }
  }
  attr {
    key: "dtype"
    value {
      type: DT_FLOAT
    }
  }
  attr {
    key: "value"
    value {
      tensor {
        dtype: DT_FLOAT
        tensor_shape {
          dim {
            size: 768
          }
        }
        float_val: 0.0
      }
    }
  }
}
node {
  name: "InceptionV3/AuxLogits/Conv2d_2a_5x5/BatchNorm/beta"
  op: "VariableV2"
  attr {
    key: "_class"
    value {
      list {
        s: "loc:@InceptionV3/AuxLogits/Conv2d_2a_5x5/BatchNorm/beta"
      }
    }
  }
  attr {
    key: "container"
    value {
      s: ""
    }
  }
  attr {
    key: "dtype"
    value {
      type: DT_FLOAT
    }
  }
  attr {
    key: "shape"
    value {
      shape {
        dim {
          size: 768
        }
      }
    }
  }
  attr {
    key: "shared_name"
    value {
      s: ""
    }
  }
}
node {
  name: "InceptionV3/AuxLogits/Conv2d_2a_5x5/BatchNorm/beta/Assign"
  op: "Assign"
  input: "InceptionV3/AuxLogits/Conv2d_2a_5x5/BatchNorm/beta"
  input: "InceptionV3/AuxLogits/Conv2d_2a_5x5/BatchNorm/beta/Initializer/zeros"
  attr {
    key: "T"
    value {
      type: DT_FLOAT
    }
  }
  attr {
    key: "_class"
    value {
      list {
        s: "loc:@InceptionV3/AuxLogits/Conv2d_2a_5x5/BatchNorm/beta"
      }
    }
  }
  attr {
    key: "use_locking"
    value {
      b: true
    }
  }
  attr {
    key: "validate_shape"
    value {
      b: true
    }
  }
}
node {
  name: "InceptionV3/AuxLogits/Conv2d_2a_5x5/BatchNorm/beta/read"
  op: "Identity"
  input: "InceptionV3/AuxLogits/Conv2d_2a_5x5/BatchNorm/beta"
  attr {
    key: "T"
    value {
      type: DT_FLOAT
    }
  }
  attr {
    key: "_class"
    value {
      list {
        s: "loc:@InceptionV3/AuxLogits/Conv2d_2a_5x5/BatchNorm/beta"
      }
    }
  }
}
node {
  name: "InceptionV3/AuxLogits/Conv2d_2a_5x5/BatchNorm/moving_mean/Initializer/zeros"
  op: "Const"
  attr {
    key: "_class"
    value {
      list {
        s: "loc:@InceptionV3/AuxLogits/Conv2d_2a_5x5/BatchNorm/moving_mean"
      }
    }
  }
  attr {
    key: "dtype"
    value {
      type: DT_FLOAT
    }
  }
  attr {
    key: "value"
    value {
      tensor {
        dtype: DT_FLOAT
        tensor_shape {
          dim {
            size: 768
          }
        }
        float_val: 0.0
      }
    }
  }
}
node {
  name: "InceptionV3/AuxLogits/Conv2d_2a_5x5/BatchNorm/moving_mean"
  op: "VariableV2"
  attr {
    key: "_class"
    value {
      list {
        s: "loc:@InceptionV3/AuxLogits/Conv2d_2a_5x5/BatchNorm/moving_mean"
      }
    }
  }
  attr {
    key: "container"
    value {
      s: ""
    }
  }
  attr {
    key: "dtype"
    value {
      type: DT_FLOAT
    }
  }
  attr {
    key: "shape"
    value {
      shape {
        dim {
          size: 768
        }
      }
    }
  }
  attr {
    key: "shared_name"
    value {
      s: ""
    }
  }
}
node {
  name: "InceptionV3/AuxLogits/Conv2d_2a_5x5/BatchNorm/moving_mean/Assign"
  op: "Assign"
  input: "InceptionV3/AuxLogits/Conv2d_2a_5x5/BatchNorm/moving_mean"
  input: "InceptionV3/AuxLogits/Conv2d_2a_5x5/BatchNorm/moving_mean/Initializer/zeros"
  attr {
    key: "T"
    value {
      type: DT_FLOAT
    }
  }
  attr {
    key: "_class"
    value {
      list {
        s: "loc:@InceptionV3/AuxLogits/Conv2d_2a_5x5/BatchNorm/moving_mean"
      }
    }
  }
  attr {
    key: "use_locking"
    value {
      b: true
    }
  }
  attr {
    key: "validate_shape"
    value {
      b: true
    }
  }
}
node {
  name: "InceptionV3/AuxLogits/Conv2d_2a_5x5/BatchNorm/moving_mean/read"
  op: "Identity"
  input: "InceptionV3/AuxLogits/Conv2d_2a_5x5/BatchNorm/moving_mean"
  attr {
    key: "T"
    value {
      type: DT_FLOAT
    }
  }
  attr {
    key: "_class"
    value {
      list {
        s: "loc:@InceptionV3/AuxLogits/Conv2d_2a_5x5/BatchNorm/moving_mean"
      }
    }
  }
}
node {
  name: "InceptionV3/AuxLogits/Conv2d_2a_5x5/BatchNorm/moving_variance/Initializer/ones"
  op: "Const"
  attr {
    key: "_class"
    value {
      list {
        s: "loc:@InceptionV3/AuxLogits/Conv2d_2a_5x5/BatchNorm/moving_variance"
      }
    }
  }
  attr {
    key: "dtype"
    value {
      type: DT_FLOAT
    }
  }
  attr {
    key: "value"
    value {
      tensor {
        dtype: DT_FLOAT
        tensor_shape {
          dim {
            size: 768
          }
        }
        float_val: 1.0
      }
    }
  }
}
node {
  name: "InceptionV3/AuxLogits/Conv2d_2a_5x5/BatchNorm/moving_variance"
  op: "VariableV2"
  attr {
    key: "_class"
    value {
      list {
        s: "loc:@InceptionV3/AuxLogits/Conv2d_2a_5x5/BatchNorm/moving_variance"
      }
    }
  }
  attr {
    key: "container"
    value {
      s: ""
    }
  }
  attr {
    key: "dtype"
    value {
      type: DT_FLOAT
    }
  }
  attr {
    key: "shape"
    value {
      shape {
        dim {
          size: 768
        }
      }
    }
  }
  attr {
    key: "shared_name"
    value {
      s: ""
    }
  }
}
node {
  name: "InceptionV3/AuxLogits/Conv2d_2a_5x5/BatchNorm/moving_variance/Assign"
  op: "Assign"
  input: "InceptionV3/AuxLogits/Conv2d_2a_5x5/BatchNorm/moving_variance"
  input: "InceptionV3/AuxLogits/Conv2d_2a_5x5/BatchNorm/moving_variance/Initializer/ones"
  attr {
    key: "T"
    value {
      type: DT_FLOAT
    }
  }
  attr {
    key: "_class"
    value {
      list {
        s: "loc:@InceptionV3/AuxLogits/Conv2d_2a_5x5/BatchNorm/moving_variance"
      }
    }
  }
  attr {
    key: "use_locking"
    value {
      b: true
    }
  }
  attr {
    key: "validate_shape"
    value {
      b: true
    }
  }
}
node {
  name: "InceptionV3/AuxLogits/Conv2d_2a_5x5/BatchNorm/moving_variance/read"
  op: "Identity"
  input: "InceptionV3/AuxLogits/Conv2d_2a_5x5/BatchNorm/moving_variance"
  attr {
    key: "T"
    value {
      type: DT_FLOAT
    }
  }
  attr {
    key: "_class"
    value {
      list {
        s: "loc:@InceptionV3/AuxLogits/Conv2d_2a_5x5/BatchNorm/moving_variance"
      }
    }
  }
}
node {
  name: "InceptionV3/AuxLogits/Conv2d_2a_5x5/BatchNorm/Const_1"
  op: "Const"
  attr {
    key: "dtype"
    value {
      type: DT_FLOAT
    }
  }
  attr {
    key: "value"
    value {
      tensor {
        dtype: DT_FLOAT
        tensor_shape {
          dim {
          }
        }
      }
    }
  }
}
node {
  name: "InceptionV3/AuxLogits/Conv2d_2a_5x5/BatchNorm/Const_2"
  op: "Const"
  attr {
    key: "dtype"
    value {
      type: DT_FLOAT
    }
  }
  attr {
    key: "value"
    value {
      tensor {
        dtype: DT_FLOAT
        tensor_shape {
          dim {
          }
        }
      }
    }
  }
}
node {
  name: "InceptionV3/AuxLogits/Conv2d_2a_5x5/BatchNorm/FusedBatchNorm"
  op: "FusedBatchNorm"
  input: "InceptionV3/AuxLogits/Conv2d_2a_5x5/Conv2D"
  input: "InceptionV3/AuxLogits/Conv2d_2a_5x5/BatchNorm/Const"
  input: "InceptionV3/AuxLogits/Conv2d_2a_5x5/BatchNorm/beta/read"
  input: "InceptionV3/AuxLogits/Conv2d_2a_5x5/BatchNorm/Const_1"
  input: "InceptionV3/AuxLogits/Conv2d_2a_5x5/BatchNorm/Const_2"
  attr {
    key: "T"
    value {
      type: DT_FLOAT
    }
  }
  attr {
    key: "data_format"
    value {
      s: "NHWC"
    }
  }
  attr {
    key: "epsilon"
    value {
      f: 0.0010000000474974513
    }
  }
  attr {
    key: "is_training"
    value {
      b: true
    }
  }
}
node {
  name: "InceptionV3/AuxLogits/Conv2d_2a_5x5/BatchNorm/Const_3"
  op: "Const"
  attr {
    key: "dtype"
    value {
      type: DT_FLOAT
    }
  }
  attr {
    key: "value"
    value {
      tensor {
        dtype: DT_FLOAT
        tensor_shape {
        }
        float_val: 0.9997000098228455
      }
    }
  }
}
node {
  name: "InceptionV3/AuxLogits/Conv2d_2a_5x5/BatchNorm/AssignMovingAvg/sub/x"
  op: "Const"
  attr {
    key: "_class"
    value {
      list {
        s: "loc:@InceptionV3/AuxLogits/Conv2d_2a_5x5/BatchNorm/moving_mean"
      }
    }
  }
  attr {
    key: "dtype"
    value {
      type: DT_FLOAT
    }
  }
  attr {
    key: "value"
    value {
      tensor {
        dtype: DT_FLOAT
        tensor_shape {
        }
        float_val: 1.0
      }
    }
  }
}
node {
  name: "InceptionV3/AuxLogits/Conv2d_2a_5x5/BatchNorm/AssignMovingAvg/sub"
  op: "Sub"
  input: "InceptionV3/AuxLogits/Conv2d_2a_5x5/BatchNorm/AssignMovingAvg/sub/x"
  input: "InceptionV3/AuxLogits/Conv2d_2a_5x5/BatchNorm/Const_3"
  attr {
    key: "T"
    value {
      type: DT_FLOAT
    }
  }
  attr {
    key: "_class"
    value {
      list {
        s: "loc:@InceptionV3/AuxLogits/Conv2d_2a_5x5/BatchNorm/moving_mean"
      }
    }
  }
}
node {
  name: "InceptionV3/AuxLogits/Conv2d_2a_5x5/BatchNorm/AssignMovingAvg/sub_1"
  op: "Sub"
  input: "InceptionV3/AuxLogits/Conv2d_2a_5x5/BatchNorm/moving_mean/read"
  input: "InceptionV3/AuxLogits/Conv2d_2a_5x5/BatchNorm/FusedBatchNorm:1"
  attr {
    key: "T"
    value {
      type: DT_FLOAT
    }
  }
  attr {
    key: "_class"
    value {
      list {
        s: "loc:@InceptionV3/AuxLogits/Conv2d_2a_5x5/BatchNorm/moving_mean"
      }
    }
  }
}
node {
  name: "InceptionV3/AuxLogits/Conv2d_2a_5x5/BatchNorm/AssignMovingAvg/mul"
  op: "Mul"
  input: "InceptionV3/AuxLogits/Conv2d_2a_5x5/BatchNorm/AssignMovingAvg/sub_1"
  input: "InceptionV3/AuxLogits/Conv2d_2a_5x5/BatchNorm/AssignMovingAvg/sub"
  attr {
    key: "T"
    value {
      type: DT_FLOAT
    }
  }
  attr {
    key: "_class"
    value {
      list {
        s: "loc:@InceptionV3/AuxLogits/Conv2d_2a_5x5/BatchNorm/moving_mean"
      }
    }
  }
}
node {
  name: "InceptionV3/AuxLogits/Conv2d_2a_5x5/BatchNorm/AssignMovingAvg"
  op: "AssignSub"
  input: "InceptionV3/AuxLogits/Conv2d_2a_5x5/BatchNorm/moving_mean"
  input: "InceptionV3/AuxLogits/Conv2d_2a_5x5/BatchNorm/AssignMovingAvg/mul"
  attr {
    key: "T"
    value {
      type: DT_FLOAT
    }
  }
  attr {
    key: "_class"
    value {
      list {
        s: "loc:@InceptionV3/AuxLogits/Conv2d_2a_5x5/BatchNorm/moving_mean"
      }
    }
  }
  attr {
    key: "use_locking"
    value {
      b: false
    }
  }
}
node {
  name: "InceptionV3/AuxLogits/Conv2d_2a_5x5/BatchNorm/AssignMovingAvg_1/sub/x"
  op: "Const"
  attr {
    key: "_class"
    value {
      list {
        s: "loc:@InceptionV3/AuxLogits/Conv2d_2a_5x5/BatchNorm/moving_variance"
      }
    }
  }
  attr {
    key: "dtype"
    value {
      type: DT_FLOAT
    }
  }
  attr {
    key: "value"
    value {
      tensor {
        dtype: DT_FLOAT
        tensor_shape {
        }
        float_val: 1.0
      }
    }
  }
}
node {
  name: "InceptionV3/AuxLogits/Conv2d_2a_5x5/BatchNorm/AssignMovingAvg_1/sub"
  op: "Sub"
  input: "InceptionV3/AuxLogits/Conv2d_2a_5x5/BatchNorm/AssignMovingAvg_1/sub/x"
  input: "InceptionV3/AuxLogits/Conv2d_2a_5x5/BatchNorm/Const_3"
  attr {
    key: "T"
    value {
      type: DT_FLOAT
    }
  }
  attr {
    key: "_class"
    value {
      list {
        s: "loc:@InceptionV3/AuxLogits/Conv2d_2a_5x5/BatchNorm/moving_variance"
      }
    }
  }
}
node {
  name: "InceptionV3/AuxLogits/Conv2d_2a_5x5/BatchNorm/AssignMovingAvg_1/sub_1"
  op: "Sub"
  input: "InceptionV3/AuxLogits/Conv2d_2a_5x5/BatchNorm/moving_variance/read"
  input: "InceptionV3/AuxLogits/Conv2d_2a_5x5/BatchNorm/FusedBatchNorm:2"
  attr {
    key: "T"
    value {
      type: DT_FLOAT
    }
  }
  attr {
    key: "_class"
    value {
      list {
        s: "loc:@InceptionV3/AuxLogits/Conv2d_2a_5x5/BatchNorm/moving_variance"
      }
    }
  }
}
node {
  name: "InceptionV3/AuxLogits/Conv2d_2a_5x5/BatchNorm/AssignMovingAvg_1/mul"
  op: "Mul"
  input: "InceptionV3/AuxLogits/Conv2d_2a_5x5/BatchNorm/AssignMovingAvg_1/sub_1"
  input: "InceptionV3/AuxLogits/Conv2d_2a_5x5/BatchNorm/AssignMovingAvg_1/sub"
  attr {
    key: "T"
    value {
      type: DT_FLOAT
    }
  }
  attr {
    key: "_class"
    value {
      list {
        s: "loc:@InceptionV3/AuxLogits/Conv2d_2a_5x5/BatchNorm/moving_variance"
      }
    }
  }
}
node {
  name: "InceptionV3/AuxLogits/Conv2d_2a_5x5/BatchNorm/AssignMovingAvg_1"
  op: "AssignSub"
  input: "InceptionV3/AuxLogits/Conv2d_2a_5x5/BatchNorm/moving_variance"
  input: "InceptionV3/AuxLogits/Conv2d_2a_5x5/BatchNorm/AssignMovingAvg_1/mul"
  attr {
    key: "T"
    value {
      type: DT_FLOAT
    }
  }
  attr {
    key: "_class"
    value {
      list {
        s: "loc:@InceptionV3/AuxLogits/Conv2d_2a_5x5/BatchNorm/moving_variance"
      }
    }
  }
  attr {
    key: "use_locking"
    value {
      b: false
    }
  }
}
node {
  name: "InceptionV3/AuxLogits/Conv2d_2a_5x5/Relu"
  op: "Relu"
  input: "InceptionV3/AuxLogits/Conv2d_2a_5x5/BatchNorm/FusedBatchNorm"
  attr {
    key: "T"
    value {
      type: DT_FLOAT
    }
  }
}
node {
  name: "InceptionV3/AuxLogits/Conv2d_2b_1x1/weights/Initializer/truncated_normal/shape"
  op: "Const"
  attr {
    key: "_class"
    value {
      list {
        s: "loc:@InceptionV3/AuxLogits/Conv2d_2b_1x1/weights"
      }
    }
  }
  attr {
    key: "dtype"
    value {
      type: DT_INT32
    }
  }
  attr {
    key: "value"
    value {
      tensor {
        dtype: DT_INT32
        tensor_shape {
          dim {
            size: 4
          }
        }
        tensor_content: "\001\000\000\000\001\000\000\000\000\003\000\000\351\003\000\000"
      }
    }
  }
}
node {
  name: "InceptionV3/AuxLogits/Conv2d_2b_1x1/weights/Initializer/truncated_normal/mean"
  op: "Const"
  attr {
    key: "_class"
    value {
      list {
        s: "loc:@InceptionV3/AuxLogits/Conv2d_2b_1x1/weights"
      }
    }
  }
  attr {
    key: "dtype"
    value {
      type: DT_FLOAT
    }
  }
  attr {
    key: "value"
    value {
      tensor {
        dtype: DT_FLOAT
        tensor_shape {
        }
        float_val: 0.0
      }
    }
  }
}
node {
  name: "InceptionV3/AuxLogits/Conv2d_2b_1x1/weights/Initializer/truncated_normal/stddev"
  op: "Const"
  attr {
    key: "_class"
    value {
      list {
        s: "loc:@InceptionV3/AuxLogits/Conv2d_2b_1x1/weights"
      }
    }
  }
  attr {
    key: "dtype"
    value {
      type: DT_FLOAT
    }
  }
  attr {
    key: "value"
    value {
      tensor {
        dtype: DT_FLOAT
        tensor_shape {
        }
        float_val: 0.0010000000474974513
      }
    }
  }
}
node {
  name: "InceptionV3/AuxLogits/Conv2d_2b_1x1/weights/Initializer/truncated_normal/TruncatedNormal"
  op: "TruncatedNormal"
  input: "InceptionV3/AuxLogits/Conv2d_2b_1x1/weights/Initializer/truncated_normal/shape"
  attr {
    key: "T"
    value {
      type: DT_INT32
    }
  }
  attr {
    key: "_class"
    value {
      list {
        s: "loc:@InceptionV3/AuxLogits/Conv2d_2b_1x1/weights"
      }
    }
  }
  attr {
    key: "dtype"
    value {
      type: DT_FLOAT
    }
  }
  attr {
    key: "seed"
    value {
      i: 0
    }
  }
  attr {
    key: "seed2"
    value {
      i: 0
    }
  }
}
node {
  name: "InceptionV3/AuxLogits/Conv2d_2b_1x1/weights/Initializer/truncated_normal/mul"
  op: "Mul"
  input: "InceptionV3/AuxLogits/Conv2d_2b_1x1/weights/Initializer/truncated_normal/TruncatedNormal"
  input: "InceptionV3/AuxLogits/Conv2d_2b_1x1/weights/Initializer/truncated_normal/stddev"
  attr {
    key: "T"
    value {
      type: DT_FLOAT
    }
  }
  attr {
    key: "_class"
    value {
      list {
        s: "loc:@InceptionV3/AuxLogits/Conv2d_2b_1x1/weights"
      }
    }
  }
}
node {
  name: "InceptionV3/AuxLogits/Conv2d_2b_1x1/weights/Initializer/truncated_normal"
  op: "Add"
  input: "InceptionV3/AuxLogits/Conv2d_2b_1x1/weights/Initializer/truncated_normal/mul"
  input: "InceptionV3/AuxLogits/Conv2d_2b_1x1/weights/Initializer/truncated_normal/mean"
  attr {
    key: "T"
    value {
      type: DT_FLOAT
    }
  }
  attr {
    key: "_class"
    value {
      list {
        s: "loc:@InceptionV3/AuxLogits/Conv2d_2b_1x1/weights"
      }
    }
  }
}
node {
  name: "InceptionV3/AuxLogits/Conv2d_2b_1x1/weights"
  op: "VariableV2"
  attr {
    key: "_class"
    value {
      list {
        s: "loc:@InceptionV3/AuxLogits/Conv2d_2b_1x1/weights"
      }
    }
  }
  attr {
    key: "container"
    value {
      s: ""
    }
  }
  attr {
    key: "dtype"
    value {
      type: DT_FLOAT
    }
  }
  attr {
    key: "shape"
    value {
      shape {
        dim {
          size: 1
        }
        dim {
          size: 1
        }
        dim {
          size: 768
        }
        dim {
          size: 1001
        }
      }
    }
  }
  attr {
    key: "shared_name"
    value {
      s: ""
    }
  }
}
node {
  name: "InceptionV3/AuxLogits/Conv2d_2b_1x1/weights/Assign"
  op: "Assign"
  input: "InceptionV3/AuxLogits/Conv2d_2b_1x1/weights"
  input: "InceptionV3/AuxLogits/Conv2d_2b_1x1/weights/Initializer/truncated_normal"
  attr {
    key: "T"
    value {
      type: DT_FLOAT
    }
  }
  attr {
    key: "_class"
    value {
      list {
        s: "loc:@InceptionV3/AuxLogits/Conv2d_2b_1x1/weights"
      }
    }
  }
  attr {
    key: "use_locking"
    value {
      b: true
    }
  }
  attr {
    key: "validate_shape"
    value {
      b: true
    }
  }
}
node {
  name: "InceptionV3/AuxLogits/Conv2d_2b_1x1/weights/read"
  op: "Identity"
  input: "InceptionV3/AuxLogits/Conv2d_2b_1x1/weights"
  attr {
    key: "T"
    value {
      type: DT_FLOAT
    }
  }
  attr {
    key: "_class"
    value {
      list {
        s: "loc:@InceptionV3/AuxLogits/Conv2d_2b_1x1/weights"
      }
    }
  }
}
node {
  name: "InceptionV3/AuxLogits/Conv2d_2b_1x1/biases/Initializer/zeros/shape_as_tensor"
  op: "Const"
  attr {
    key: "_class"
    value {
      list {
        s: "loc:@InceptionV3/AuxLogits/Conv2d_2b_1x1/biases"
      }
    }
  }
  attr {
    key: "dtype"
    value {
      type: DT_INT32
    }
  }
  attr {
    key: "value"
    value {
      tensor {
        dtype: DT_INT32
        tensor_shape {
          dim {
            size: 1
          }
        }
        int_val: 1001
      }
    }
  }
}
node {
  name: "InceptionV3/AuxLogits/Conv2d_2b_1x1/biases/Initializer/zeros/Const"
  op: "Const"
  attr {
    key: "_class"
    value {
      list {
        s: "loc:@InceptionV3/AuxLogits/Conv2d_2b_1x1/biases"
      }
    }
  }
  attr {
    key: "dtype"
    value {
      type: DT_FLOAT
    }
  }
  attr {
    key: "value"
    value {
      tensor {
        dtype: DT_FLOAT
        tensor_shape {
        }
        float_val: 0.0
      }
    }
  }
}
node {
  name: "InceptionV3/AuxLogits/Conv2d_2b_1x1/biases/Initializer/zeros"
  op: "Fill"
  input: "InceptionV3/AuxLogits/Conv2d_2b_1x1/biases/Initializer/zeros/shape_as_tensor"
  input: "InceptionV3/AuxLogits/Conv2d_2b_1x1/biases/Initializer/zeros/Const"
  attr {
    key: "T"
    value {
      type: DT_FLOAT
    }
  }
  attr {
    key: "_class"
    value {
      list {
        s: "loc:@InceptionV3/AuxLogits/Conv2d_2b_1x1/biases"
      }
    }
  }
  attr {
    key: "index_type"
    value {
      type: DT_INT32
    }
  }
}
node {
  name: "InceptionV3/AuxLogits/Conv2d_2b_1x1/biases"
  op: "VariableV2"
  attr {
    key: "_class"
    value {
      list {
        s: "loc:@InceptionV3/AuxLogits/Conv2d_2b_1x1/biases"
      }
    }
  }
  attr {
    key: "container"
    value {
      s: ""
    }
  }
  attr {
    key: "dtype"
    value {
      type: DT_FLOAT
    }
  }
  attr {
    key: "shape"
    value {
      shape {
        dim {
          size: 1001
        }
      }
    }
  }
  attr {
    key: "shared_name"
    value {
      s: ""
    }
  }
}
node {
  name: "InceptionV3/AuxLogits/Conv2d_2b_1x1/biases/Assign"
  op: "Assign"
  input: "InceptionV3/AuxLogits/Conv2d_2b_1x1/biases"
  input: "InceptionV3/AuxLogits/Conv2d_2b_1x1/biases/Initializer/zeros"
  attr {
    key: "T"
    value {
      type: DT_FLOAT
    }
  }
  attr {
    key: "_class"
    value {
      list {
        s: "loc:@InceptionV3/AuxLogits/Conv2d_2b_1x1/biases"
      }
    }
  }
  attr {
    key: "use_locking"
    value {
      b: true
    }
  }
  attr {
    key: "validate_shape"
    value {
      b: true
    }
  }
}
node {
  name: "InceptionV3/AuxLogits/Conv2d_2b_1x1/biases/read"
  op: "Identity"
  input: "InceptionV3/AuxLogits/Conv2d_2b_1x1/biases"
  attr {
    key: "T"
    value {
      type: DT_FLOAT
    }
  }
  attr {
    key: "_class"
    value {
      list {
        s: "loc:@InceptionV3/AuxLogits/Conv2d_2b_1x1/biases"
      }
    }
  }
}
node {
  name: "InceptionV3/AuxLogits/Conv2d_2b_1x1/dilation_rate"
  op: "Const"
  attr {
    key: "dtype"
    value {
      type: DT_INT32
    }
  }
  attr {
    key: "value"
    value {
      tensor {
        dtype: DT_INT32
        tensor_shape {
          dim {
            size: 2
          }
        }
        tensor_content: "\001\000\000\000\001\000\000\000"
      }
    }
  }
}
node {
  name: "InceptionV3/AuxLogits/Conv2d_2b_1x1/Conv2D"
  op: "Conv2D"
  input: "InceptionV3/AuxLogits/Conv2d_2a_5x5/Relu"
  input: "InceptionV3/AuxLogits/Conv2d_2b_1x1/weights/read"
  attr {
    key: "T"
    value {
      type: DT_FLOAT
    }
  }
  attr {
    key: "data_format"
    value {
      s: "NHWC"
    }
  }
  attr {
    key: "dilations"
    value {
      list {
        i: 1
        i: 1
        i: 1
        i: 1
      }
    }
  }
  attr {
    key: "padding"
    value {
      s: "SAME"
    }
  }
  attr {
    key: "strides"
    value {
      list {
        i: 1
        i: 1
        i: 1
        i: 1
      }
    }
  }
  attr {
    key: "use_cudnn_on_gpu"
    value {
      b: true
    }
  }
}
node {
  name: "InceptionV3/AuxLogits/Conv2d_2b_1x1/BiasAdd"
  op: "BiasAdd"
  input: "InceptionV3/AuxLogits/Conv2d_2b_1x1/Conv2D"
  input: "InceptionV3/AuxLogits/Conv2d_2b_1x1/biases/read"
  attr {
    key: "T"
    value {
      type: DT_FLOAT
    }
  }
  attr {
    key: "data_format"
    value {
      s: "NHWC"
    }
  }
}
node {
  name: "InceptionV3/AuxLogits/SpatialSqueeze"
  op: "Squeeze"
  input: "InceptionV3/AuxLogits/Conv2d_2b_1x1/BiasAdd"
  attr {
    key: "T"
    value {
      type: DT_FLOAT
    }
  }
  attr {
    key: "squeeze_dims"
    value {
      list {
        i: 1
        i: 2
      }
    }
  }
}
node {
  name: "InceptionV3/Logits/AvgPool_1a_8x8/AvgPool"
  op: "AvgPool"
  input: "InceptionV3/InceptionV3/Mixed_7c/concat"
  attr {
    key: "T"
    value {
      type: DT_FLOAT
    }
  }
  attr {
    key: "data_format"
    value {
      s: "NHWC"
    }
  }
  attr {
    key: "ksize"
    value {
      list {
        i: 1
        i: 8
        i: 8
        i: 1
      }
    }
  }
  attr {
    key: "padding"
    value {
      s: "VALID"
    }
  }
  attr {
    key: "strides"
    value {
      list {
        i: 1
        i: 2
        i: 2
        i: 1
      }
    }
  }
}
node {
  name: "InceptionV3/Logits/Dropout_1b/dropout/keep_prob"
  op: "Const"
  attr {
    key: "dtype"
    value {
      type: DT_FLOAT
    }
  }
  attr {
    key: "value"
    value {
      tensor {
        dtype: DT_FLOAT
        tensor_shape {
        }
        float_val: 0.800000011920929
      }
    }
  }
}
node {
  name: "InceptionV3/Logits/Dropout_1b/dropout/Shape"
  op: "Shape"
  input: "InceptionV3/Logits/AvgPool_1a_8x8/AvgPool"
  attr {
    key: "T"
    value {
      type: DT_FLOAT
    }
  }
  attr {
    key: "out_type"
    value {
      type: DT_INT32
    }
  }
}
node {
  name: "InceptionV3/Logits/Dropout_1b/dropout/random_uniform/min"
  op: "Const"
  attr {
    key: "dtype"
    value {
      type: DT_FLOAT
    }
  }
  attr {
    key: "value"
    value {
      tensor {
        dtype: DT_FLOAT
        tensor_shape {
        }
        float_val: 0.0
      }
    }
  }
}
node {
  name: "InceptionV3/Logits/Dropout_1b/dropout/random_uniform/max"
  op: "Const"
  attr {
    key: "dtype"
    value {
      type: DT_FLOAT
    }
  }
  attr {
    key: "value"
    value {
      tensor {
        dtype: DT_FLOAT
        tensor_shape {
        }
        float_val: 1.0
      }
    }
  }
}
node {
  name: "InceptionV3/Logits/Dropout_1b/dropout/random_uniform/RandomUniform"
  op: "RandomUniform"
  input: "InceptionV3/Logits/Dropout_1b/dropout/Shape"
  attr {
    key: "T"
    value {
      type: DT_INT32
    }
  }
  attr {
    key: "dtype"
    value {
      type: DT_FLOAT
    }
  }
  attr {
    key: "seed"
    value {
      i: 0
    }
  }
  attr {
    key: "seed2"
    value {
      i: 0
    }
  }
}
node {
  name: "InceptionV3/Logits/Dropout_1b/dropout/random_uniform/sub"
  op: "Sub"
  input: "InceptionV3/Logits/Dropout_1b/dropout/random_uniform/max"
  input: "InceptionV3/Logits/Dropout_1b/dropout/random_uniform/min"
  attr {
    key: "T"
    value {
      type: DT_FLOAT
    }
  }
}
node {
  name: "InceptionV3/Logits/Dropout_1b/dropout/random_uniform/mul"
  op: "Mul"
  input: "InceptionV3/Logits/Dropout_1b/dropout/random_uniform/RandomUniform"
  input: "InceptionV3/Logits/Dropout_1b/dropout/random_uniform/sub"
  attr {
    key: "T"
    value {
      type: DT_FLOAT
    }
  }
}
node {
  name: "InceptionV3/Logits/Dropout_1b/dropout/random_uniform"
  op: "Add"
  input: "InceptionV3/Logits/Dropout_1b/dropout/random_uniform/mul"
  input: "InceptionV3/Logits/Dropout_1b/dropout/random_uniform/min"
  attr {
    key: "T"
    value {
      type: DT_FLOAT
    }
  }
}
node {
  name: "InceptionV3/Logits/Dropout_1b/dropout/add"
  op: "Add"
  input: "InceptionV3/Logits/Dropout_1b/dropout/keep_prob"
  input: "InceptionV3/Logits/Dropout_1b/dropout/random_uniform"
  attr {
    key: "T"
    value {
      type: DT_FLOAT
    }
  }
}
node {
  name: "InceptionV3/Logits/Dropout_1b/dropout/Floor"
  op: "Floor"
  input: "InceptionV3/Logits/Dropout_1b/dropout/add"
  attr {
    key: "T"
    value {
      type: DT_FLOAT
    }
  }
}
node {
  name: "InceptionV3/Logits/Dropout_1b/dropout/div"
  op: "RealDiv"
  input: "InceptionV3/Logits/AvgPool_1a_8x8/AvgPool"
  input: "InceptionV3/Logits/Dropout_1b/dropout/keep_prob"
  attr {
    key: "T"
    value {
      type: DT_FLOAT
    }
  }
}
node {
  name: "InceptionV3/Logits/Dropout_1b/dropout/mul"
  op: "Mul"
  input: "InceptionV3/Logits/Dropout_1b/dropout/div"
  input: "InceptionV3/Logits/Dropout_1b/dropout/Floor"
  attr {
    key: "T"
    value {
      type: DT_FLOAT
    }
  }
}
node {
  name: "InceptionV3/Logits/Conv2d_1c_1x1/weights/Initializer/truncated_normal/shape"
  op: "Const"
  attr {
    key: "_class"
    value {
      list {
        s: "loc:@InceptionV3/Logits/Conv2d_1c_1x1/weights"
      }
    }
  }
  attr {
    key: "dtype"
    value {
      type: DT_INT32
    }
  }
  attr {
    key: "value"
    value {
      tensor {
        dtype: DT_INT32
        tensor_shape {
          dim {
            size: 4
          }
        }
        tensor_content: "\001\000\000\000\001\000\000\000\000\010\000\000\351\003\000\000"
      }
    }
  }
}
node {
  name: "InceptionV3/Logits/Conv2d_1c_1x1/weights/Initializer/truncated_normal/mean"
  op: "Const"
  attr {
    key: "_class"
    value {
      list {
        s: "loc:@InceptionV3/Logits/Conv2d_1c_1x1/weights"
      }
    }
  }
  attr {
    key: "dtype"
    value {
      type: DT_FLOAT
    }
  }
  attr {
    key: "value"
    value {
      tensor {
        dtype: DT_FLOAT
        tensor_shape {
        }
        float_val: 0.0
      }
    }
  }
}
node {
  name: "InceptionV3/Logits/Conv2d_1c_1x1/weights/Initializer/truncated_normal/stddev"
  op: "Const"
  attr {
    key: "_class"
    value {
      list {
        s: "loc:@InceptionV3/Logits/Conv2d_1c_1x1/weights"
      }
    }
  }
  attr {
    key: "dtype"
    value {
      type: DT_FLOAT
    }
  }
  attr {
    key: "value"
    value {
      tensor {
        dtype: DT_FLOAT
        tensor_shape {
        }
        float_val: 0.0356304831802845
      }
    }
  }
}
node {
  name: "InceptionV3/Logits/Conv2d_1c_1x1/weights/Initializer/truncated_normal/TruncatedNormal"
  op: "TruncatedNormal"
  input: "InceptionV3/Logits/Conv2d_1c_1x1/weights/Initializer/truncated_normal/shape"
  attr {
    key: "T"
    value {
      type: DT_INT32
    }
  }
  attr {
    key: "_class"
    value {
      list {
        s: "loc:@InceptionV3/Logits/Conv2d_1c_1x1/weights"
      }
    }
  }
  attr {
    key: "dtype"
    value {
      type: DT_FLOAT
    }
  }
  attr {
    key: "seed"
    value {
      i: 0
    }
  }
  attr {
    key: "seed2"
    value {
      i: 0
    }
  }
}
node {
  name: "InceptionV3/Logits/Conv2d_1c_1x1/weights/Initializer/truncated_normal/mul"
  op: "Mul"
  input: "InceptionV3/Logits/Conv2d_1c_1x1/weights/Initializer/truncated_normal/TruncatedNormal"
  input: "InceptionV3/Logits/Conv2d_1c_1x1/weights/Initializer/truncated_normal/stddev"
  attr {
    key: "T"
    value {
      type: DT_FLOAT
    }
  }
  attr {
    key: "_class"
    value {
      list {
        s: "loc:@InceptionV3/Logits/Conv2d_1c_1x1/weights"
      }
    }
  }
}
node {
  name: "InceptionV3/Logits/Conv2d_1c_1x1/weights/Initializer/truncated_normal"
  op: "Add"
  input: "InceptionV3/Logits/Conv2d_1c_1x1/weights/Initializer/truncated_normal/mul"
  input: "InceptionV3/Logits/Conv2d_1c_1x1/weights/Initializer/truncated_normal/mean"
  attr {
    key: "T"
    value {
      type: DT_FLOAT
    }
  }
  attr {
    key: "_class"
    value {
      list {
        s: "loc:@InceptionV3/Logits/Conv2d_1c_1x1/weights"
      }
    }
  }
}
node {
  name: "InceptionV3/Logits/Conv2d_1c_1x1/weights"
  op: "VariableV2"
  attr {
    key: "_class"
    value {
      list {
        s: "loc:@InceptionV3/Logits/Conv2d_1c_1x1/weights"
      }
    }
  }
  attr {
    key: "container"
    value {
      s: ""
    }
  }
  attr {
    key: "dtype"
    value {
      type: DT_FLOAT
    }
  }
  attr {
    key: "shape"
    value {
      shape {
        dim {
          size: 1
        }
        dim {
          size: 1
        }
        dim {
          size: 2048
        }
        dim {
          size: 1001
        }
      }
    }
  }
  attr {
    key: "shared_name"
    value {
      s: ""
    }
  }
}
node {
  name: "InceptionV3/Logits/Conv2d_1c_1x1/weights/Assign"
  op: "Assign"
  input: "InceptionV3/Logits/Conv2d_1c_1x1/weights"
  input: "InceptionV3/Logits/Conv2d_1c_1x1/weights/Initializer/truncated_normal"
  attr {
    key: "T"
    value {
      type: DT_FLOAT
    }
  }
  attr {
    key: "_class"
    value {
      list {
        s: "loc:@InceptionV3/Logits/Conv2d_1c_1x1/weights"
      }
    }
  }
  attr {
    key: "use_locking"
    value {
      b: true
    }
  }
  attr {
    key: "validate_shape"
    value {
      b: true
    }
  }
}
node {
  name: "InceptionV3/Logits/Conv2d_1c_1x1/weights/read"
  op: "Identity"
  input: "InceptionV3/Logits/Conv2d_1c_1x1/weights"
  attr {
    key: "T"
    value {
      type: DT_FLOAT
    }
  }
  attr {
    key: "_class"
    value {
      list {
        s: "loc:@InceptionV3/Logits/Conv2d_1c_1x1/weights"
      }
    }
  }
}
node {
  name: "InceptionV3/Logits/Conv2d_1c_1x1/biases/Initializer/zeros/shape_as_tensor"
  op: "Const"
  attr {
    key: "_class"
    value {
      list {
        s: "loc:@InceptionV3/Logits/Conv2d_1c_1x1/biases"
      }
    }
  }
  attr {
    key: "dtype"
    value {
      type: DT_INT32
    }
  }
  attr {
    key: "value"
    value {
      tensor {
        dtype: DT_INT32
        tensor_shape {
          dim {
            size: 1
          }
        }
        int_val: 1001
      }
    }
  }
}
node {
  name: "InceptionV3/Logits/Conv2d_1c_1x1/biases/Initializer/zeros/Const"
  op: "Const"
  attr {
    key: "_class"
    value {
      list {
        s: "loc:@InceptionV3/Logits/Conv2d_1c_1x1/biases"
      }
    }
  }
  attr {
    key: "dtype"
    value {
      type: DT_FLOAT
    }
  }
  attr {
    key: "value"
    value {
      tensor {
        dtype: DT_FLOAT
        tensor_shape {
        }
        float_val: 0.0
      }
    }
  }
}
node {
  name: "InceptionV3/Logits/Conv2d_1c_1x1/biases/Initializer/zeros"
  op: "Fill"
  input: "InceptionV3/Logits/Conv2d_1c_1x1/biases/Initializer/zeros/shape_as_tensor"
  input: "InceptionV3/Logits/Conv2d_1c_1x1/biases/Initializer/zeros/Const"
  attr {
    key: "T"
    value {
      type: DT_FLOAT
    }
  }
  attr {
    key: "_class"
    value {
      list {
        s: "loc:@InceptionV3/Logits/Conv2d_1c_1x1/biases"
      }
    }
  }
  attr {
    key: "index_type"
    value {
      type: DT_INT32
    }
  }
}
node {
  name: "InceptionV3/Logits/Conv2d_1c_1x1/biases"
  op: "VariableV2"
  attr {
    key: "_class"
    value {
      list {
        s: "loc:@InceptionV3/Logits/Conv2d_1c_1x1/biases"
      }
    }
  }
  attr {
    key: "container"
    value {
      s: ""
    }
  }
  attr {
    key: "dtype"
    value {
      type: DT_FLOAT
    }
  }
  attr {
    key: "shape"
    value {
      shape {
        dim {
          size: 1001
        }
      }
    }
  }
  attr {
    key: "shared_name"
    value {
      s: ""
    }
  }
}
node {
  name: "InceptionV3/Logits/Conv2d_1c_1x1/biases/Assign"
  op: "Assign"
  input: "InceptionV3/Logits/Conv2d_1c_1x1/biases"
  input: "InceptionV3/Logits/Conv2d_1c_1x1/biases/Initializer/zeros"
  attr {
    key: "T"
    value {
      type: DT_FLOAT
    }
  }
  attr {
    key: "_class"
    value {
      list {
        s: "loc:@InceptionV3/Logits/Conv2d_1c_1x1/biases"
      }
    }
  }
  attr {
    key: "use_locking"
    value {
      b: true
    }
  }
  attr {
    key: "validate_shape"
    value {
      b: true
    }
  }
}
node {
  name: "InceptionV3/Logits/Conv2d_1c_1x1/biases/read"
  op: "Identity"
  input: "InceptionV3/Logits/Conv2d_1c_1x1/biases"
  attr {
    key: "T"
    value {
      type: DT_FLOAT
    }
  }
  attr {
    key: "_class"
    value {
      list {
        s: "loc:@InceptionV3/Logits/Conv2d_1c_1x1/biases"
      }
    }
  }
}
node {
  name: "InceptionV3/Logits/Conv2d_1c_1x1/dilation_rate"
  op: "Const"
  attr {
    key: "dtype"
    value {
      type: DT_INT32
    }
  }
  attr {
    key: "value"
    value {
      tensor {
        dtype: DT_INT32
        tensor_shape {
          dim {
            size: 2
          }
        }
        tensor_content: "\001\000\000\000\001\000\000\000"
      }
    }
  }
}
node {
  name: "InceptionV3/Logits/Conv2d_1c_1x1/Conv2D"
  op: "Conv2D"
  input: "InceptionV3/Logits/Dropout_1b/dropout/mul"
  input: "InceptionV3/Logits/Conv2d_1c_1x1/weights/read"
  attr {
    key: "T"
    value {
      type: DT_FLOAT
    }
  }
  attr {
    key: "data_format"
    value {
      s: "NHWC"
    }
  }
  attr {
    key: "dilations"
    value {
      list {
        i: 1
        i: 1
        i: 1
        i: 1
      }
    }
  }
  attr {
    key: "padding"
    value {
      s: "SAME"
    }
  }
  attr {
    key: "strides"
    value {
      list {
        i: 1
        i: 1
        i: 1
        i: 1
      }
    }
  }
  attr {
    key: "use_cudnn_on_gpu"
    value {
      b: true
    }
  }
}
node {
  name: "InceptionV3/Logits/Conv2d_1c_1x1/BiasAdd"
  op: "BiasAdd"
  input: "InceptionV3/Logits/Conv2d_1c_1x1/Conv2D"
  input: "InceptionV3/Logits/Conv2d_1c_1x1/biases/read"
  attr {
    key: "T"
    value {
      type: DT_FLOAT
    }
  }
  attr {
    key: "data_format"
    value {
      s: "NHWC"
    }
  }
}
node {
  name: "InceptionV3/Logits/SpatialSqueeze"
  op: "Squeeze"
  input: "InceptionV3/Logits/Conv2d_1c_1x1/BiasAdd"
  attr {
    key: "T"
    value {
      type: DT_FLOAT
    }
  }
  attr {
    key: "squeeze_dims"
    value {
      list {
        i: 1
        i: 2
      }
    }
  }
}
node {
  name: "InceptionV3/Predictions/Reshape/shape"
  op: "Const"
  attr {
    key: "dtype"
    value {
      type: DT_INT32
    }
  }
  attr {
    key: "value"
    value {
      tensor {
        dtype: DT_INT32
        tensor_shape {
          dim {
            size: 2
          }
        }
        tensor_content: "\377\377\377\377\351\003\000\000"
      }
    }
  }
}
node {
  name: "InceptionV3/Predictions/Reshape"
  op: "Reshape"
  input: "InceptionV3/Logits/SpatialSqueeze"
  input: "InceptionV3/Predictions/Reshape/shape"
  attr {
    key: "T"
    value {
      type: DT_FLOAT
    }
  }
  attr {
    key: "Tshape"
    value {
      type: DT_INT32
    }
  }
}
node {
  name: "InceptionV3/Predictions/Softmax"
  op: "Softmax"
  input: "InceptionV3/Predictions/Reshape"
  attr {
    key: "T"
    value {
      type: DT_FLOAT
    }
  }
}
node {
  name: "InceptionV3/Predictions/Shape"
  op: "Shape"
  input: "InceptionV3/Logits/SpatialSqueeze"
  attr {
    key: "T"
    value {
      type: DT_FLOAT
    }
  }
  attr {
    key: "out_type"
    value {
      type: DT_INT32
    }
  }
}
node {
  name: "InceptionV3/Predictions/Reshape_1"
  op: "Reshape"
  input: "InceptionV3/Predictions/Softmax"
  input: "InceptionV3/Predictions/Shape"
  attr {
    key: "T"
    value {
      type: DT_FLOAT
    }
  }
  attr {
    key: "Tshape"
    value {
      type: DT_INT32
    }
  }
}
versions {
  producer: 27
}
